dagmm/models/124_194_dagmm.pth (torch_old, 78874 bytes, 22 tensors)

phi f4 [4]
000000 f3 17 96 3e 82 ad 1d 3e 78 5c a2 3e a7 69 71 3e
       0.29315147 0.15398219 0.31711173 0.2357546

mu f4 [4, 3]
000000 90 bd 6f bd 7e 8d 88 3f bf c4 87 3d ab 48 6e bd
       -0.05853039 1.066818 0.06629323 -0.05817477
000010 44 8f 88 3f 21 94 87 3d 25 7a 6f bd 73 8b 88 3f
       1.0668721 0.0662005 -0.058466095 1.0667557
000020 78 60 88 3d 19 20 6f bd 65 8b 88 3f 16 68 88 3d
       0.06659025 -0.05838022 1.066754 0.06660478

cov f4 [4, 3, 3]
000000 d9 1b 4a 39 e8 42 61 38 dc aa ac b8 e8 42 61 38
       0.00019274595 5.370649e-05 -8.233424e-05 5.370649e-05
000010 91 6e e4 38 40 69 b0 b9 dc aa ac b8 40 69 b0 b9
       0.00010892482 -0.00033647753 -8.233424e-05 -0.00033647753
000020 0a 2f ae 3a 7b b1 42 39 bc b8 53 38 91 7f 88 b8
       0.0013289165 0.00018567398 5.0478367e-05 -6.5087464e-05
000030 bc b8 53 38 dc 0f db 38 f9 6e aa b9 91 7f 88 b8
       5.0478367e-05 0.00010445688 -0.00032507608 -6.5087464e-05
000040 f9 6e aa b9 11 22 aa 3a d5 cc 4a 39 db 2c 67 38
       -0.00032507608 0.0012980123 0.00019340527 5.5116467e-05
000050 fd e1 b0 b8 db 2c 67 38 49 ff e8 38 f7 c2 b2 b9
       -8.4344276e-05 5.5116467e-05 0.000111101726 -0.00034096066
000060 fd e1 b0 b8 f7 c2 b2 b9 43 f6 af 3a 0b 2e 4a 39
       -8.4344276e-05 -0.00034096066 0.0013424832 0.00019281374
000070 45 68 67 38 f7 b4 a9 b8 45 68 67 38 97 5e e0 38
       5.51718e-05 -8.092255e-05 5.51718e-05 0.00010698771
000080 45 78 af b9 f7 b4 a9 b8 45 78 af b9 e8 52 ae 3a
       -0.0003346821 -8.092255e-05 -0.0003346821 0.0013299854

encoder.0.weight f4 [60, 118]
000000 ec b5 ef 3c f8 e8 44 3c 00 6c d9 39 db 22 9a 3d
       0.029261552 0.012018435 0.00041469932 0.075261794
000010 dc bd 03 3d 09 42 65 bd 3e 24 1a 3d e8 55 28 3c
       0.032163486 -0.05597118 0.03763222 0.010274388
000020 e1 25 a8 bd 56 8d 51 3d 58 24 0b 3c 30 dd b1 bb
       -0.0821035 0.05116018 0.008492552 -0.005427979
000030 18 69 47 bc 79 d4 bb 3d e0 32 88 bb 16 2d 13 3d
       -0.012171052 0.09171385 -0.0041564554 0.03593167
000040 20 42 df 3b 2a ab 08 bd e0 08 a9 bb 02 4f 36 3d
       0.0068133026 -0.03336636 -0.0051585287 0.04450894
000050 10 30 3d bc 22 ec 66 3d aa be 6b 3d ba 5a 74 3d
       -0.0115471035 0.056377538 0.05755488 0.059656836
000060 60 27 11 bb f6 3b 68 3d 07 43 48 bd 04 40 6f bd
       -0.0022148713 0.05669781 -0.048892047 -0.05841066
000070 71 a4 b7 3d dc 61 b6 bc 1d 01 b2 3d 60 fd 07 3b
       0.089669116 -0.02226346 0.086916186 0.0020750389
000080 f6 57 70 bd 58 be 67 3c c7 92 b9 3d 88 4c 14 bc
       -0.058677636 0.014144503 0.09061199 -0.00905145
000090 f8 2a 9f bd e4 6a 6f bd 91 66 ac bd be 63 1c 3d
       -0.077718675 -0.05845155 -0.084180005 0.03818106
0000a0 7b 14 ae bd 16 3b 93 bd a9 23 b4 bd 38 af 88 bc
       -0.085 -0.07189004 -0.08795864 -0.016685113
0000b0 66 43 47 3d 00 fc c3 39 f8 89 83 3c 39 66 95 3d
       0.04864826 0.00037381053 0.016057 0.07294888
0000c0 63 50 b1 bd 68 af e7 bc 03 21 a6 3d f8 00 62 3c
       -0.08657911 -0.028281882 0.08111765 0.013794176
0000d0 b8 42 32 3c 7b 1f 39 bd 77 0e 9c 3d 6a 8d 2c 3d
       0.010880165 -0.045196038 0.076199464 0.04212705
0000e0 a0 45 04 3d 59 13 9a bd b4 a2 a9 bd c7 86 a2 3d
       0.032292962 -0.075232215 -0.08282986 0.07935863
0000f0 0b 70 ac 3d 58 ff f2 3c 00 f1 fb 3a 8f 3f 7e bd
       0.08419808 0.029662773 0.0019221604 -0.062072333
000100 05 83 b1 bd cc ee bb bd cf 9b a5 3d 4d ca b0 3d
       -0.08667568 -0.09176406 0.08086359 0.08632336
000110 64 a5 81 bc 17 bc a2 bd 80 6d 37 bc ec 09 aa bd
       -0.015825935 -0.079460315 -0.01119554 -0.08302674
000120 36 09 5c 3d bc 13 8e bd b2 4b 62 3d 79 24 90 bd
       0.05371972 -0.06937358 0.05524797 -0.070382066
000130 64 a4 c9 bc df 68 a2 3d ac 3c 61 bd 75 29 63 bd
       -0.02461452 0.07930159 -0.0549895 -0.05545946
000140 78 13 84 bc 33 60 ae bd 97 59 a2 3d 22 45 84 bd
       -0.016122565 -0.08514442 0.07927244 -0.064584985
000150 a5 77 53 bd ea 9a 4e 3d 77 0e a5 bd 9d f4 80 3d
       -0.051627774 0.050440706 -0.080593996 0.06296656
000160 52 7b 1f 3d 40 05 c6 3b 1e f0 6c bd e8 f5 6f bc
       0.038935967 0.0060431063 -0.05784618 -0.014646031
000170 6f 58 b8 3d 00 1a a3 bc c6 0c 0c 3d 44 8f b4 bc
       0.09001242 -0.019909859 0.03419187 -0.02204097
000180 c3 5c a5 3d 00 f0 e8 ba 8a 14 5f 3d 98 cc d4 3c
       0.080743335 -0.0017771721 0.054462947 0.025976464
000190 30 f7 76 3c 00 58 ac bb 1a c7 17 3d 47 5b 99 bd
       0.0150735825 -0.005259514 0.037055112 -0.07488113
0001a0 03 66 01 bd bd aa b8 3d f1 c2 92 3d 98 14 f0 3c
       -0.031591427 0.09016941 0.07166088 0.029306695
0001b0 3b 48 ba 3d a0 99 99 bc 7e bd aa bd 38 16 1f 3c
       0.09095808 -0.018750012 -0.08336924 0.009709887
0001c0 cd cb 95 bd fa da 6d 3d 00 12 db 3c d2 f2 44 3d
       -0.073142625 0.05807016 0.026741982 0.048083134
0001d0 40 89 63 bc 54 9f 9a 3c 88 e6 ca bc a0 7d 9d bc
       -0.013887703 0.018874802 -0.024768129 -0.019224942
0001e0 f4 48 bc bd 15 ac b9 3d 07 c5 87 3d 20 59 eb bc
       -0.09193602 0.09066025 0.06629377 -0.028729022
0001f0 84 d2 93 bc 6d 21 a4 3d 40 72 5c bd 57 ba af bd
       -0.018044718 0.08014188 -0.053819895 -0.085804634
000200 48 8a 18 3c 71 5f b8 3d e3 9d a6 bd 00 ae 8d bb
       0.009310313 0.09002579 -0.08135583 -0.004323721
000210 a6 a4 5f 3d e0 ee 0d bb 20 aa 91 bd 03 51 ab 3d
       0.05460038 -0.0021657273 -0.07112527 0.08365061
000220 18 ee 8a 3c 02 7a 5b 3d be 17 10 3d a0 e0 35 bd
       0.016959235 0.053583153 0.035178892 -0.044403672
000230 f0 af bd 3c 92 33 17 3d 17 67 38 bd 23 10 09 bd
       0.023155183 0.036914416 -0.04502019 -0.033462655
000240 6c 57 03 bd 96 46 67 3d e0 f4 02 3b 83 f3 39 bd
       -0.032065794 0.0564638 0.0019982383 -0.045398246
000250 c0 11 bb bd c8 41 02 bc 01 d9 ad 3d 9e af ff bc
       -0.09134245 -0.007950254 0.08488656 -0.03121167
000260 92 8a 17 3d d0 ff af bd b8 6a cf bc 70 d6 c6 3c
       0.036997385 -0.08593714 -0.025319442 0.024272174
000270 a0 90 53 bd 3c 13 cb 3c 1a 4a 26 3d 3e 99 4e 3d
       -0.051651597 0.024789445 0.040598013 0.050439112
000280 2f 82 7b bd f4 08 4a bd f4 49 d3 bc 8a 09 4b bd
       -0.06140345 -0.049324945 -0.0257921 -0.049569644
000290 1a 36 b1 bd 90 ea ec 3b a6 6d 09 3d 9a 10 3d bd
       -0.08652897 0.0072301105 0.033551835 -0.04615841
0002a0 04 9e d6 3c 21 17 73 bd 98 ea c8 3c 3c a8 e2 bc
       0.026198395 -0.05934823 0.024525926 -0.027668111
0002b0 f6 be 6b bd 8f ff 11 bd e7 b0 94 3d 00 04 95 bd
       -0.05755516 -0.03564411 0.07260304 -0.072761536
0002c0 da 10 4f 3d b7 45 9c 3d de ab 70 3d a0 d1 6f bd
       0.05055318 0.076304846 0.058757655 -0.058549523
0002d0 7f 28 28 bd a0 b6 a5 3b 00 0c da ba 08 04 87 bc
       -0.041054245 0.005057171 -0.0016635656 -0.016481414
0002e0 81 3e 44 bd f5 82 0f bd 70 48 f5 3c e0 db 12 bb
       -0.04791117 -0.035037 0.029941767 -0.0022408888
0002f0 4a 3e 14 3d 38 bc 94 bd 92 fd 37 3d 2b 3c 9e 3d
       0.036192216 -0.072624624 0.044919558 0.0772632
000300 48 55 8b bc 13 fd 60 bd 98 ed 18 bc e8 e2 08 3c
       -0.017008439 -0.05492885 -0.0093339905 0.00835488
000310 10 b2 00 bd f6 5c 3d 3d 1f 0b a4 bd 32 36 4c 3d
       -0.031419814 0.046231233 -0.08009934 0.049856372
000320 9a f7 ac bd 3a 66 27 3d 3f a3 b2 3d 5a 17 77 3d
       -0.08445664 0.040868975 0.08722543 0.060325004
000330 70 26 56 3c b6 ba 65 3d 00 77 49 3c 78 3b c1 bc
       0.013070688 0.056086265 0.012296438 -0.023587927
000340 d2 0c 1d 3d 1b 92 b9 3d d8 2a 23 bd aa 07 10 3d
       0.038342305 0.090610705 -0.03983578 0.03516356
000350 03 af 8d 3d a0 82 84 3b ea f4 51 3d 8e 4b 70 bd
       0.069181465 0.004043892 0.05125896 -0.058665805
000360 06 85 fa bc d6 56 43 3d 89 62 85 bd c6 d7 21 3d
       -0.030581009 0.047690235 -0.06512935 0.03951242
000370 c5 35 41 bd 08 86 05 3d fa 87 43 3d 16 d3 b2 bd
       -0.04717042 0.032598525 0.0477371 -0.08731668
000380 d1 64 27 bd 61 01 b0 bd 46 d5 0a 3d a8 88 17 bc
       -0.04086763 -0.08594013 0.0338948 -0.00924889
000390 7e 67 6b 3d 9e 17 5a bd dc c9 b7 bc 0b 80 4d bd
       0.057471745 -0.05324518 -0.022435121 -0.05017094
0003a0 00 65 93 bb d8 23 82 bd c4 16 e9 bc 88 8b 09 3c
       -0.004498124 -0.06354493 -0.028453238 0.008395083
0003b0 28 bb 53 bd 20 c5 f6 3b 8e fb 25 3d 00 6c d4 bb
       -0.051692158 0.0075308233 0.040523104 -0.006482601
0003c0 ce 9d 1b 3d 5c 29 c1 bc 0b 01 99 3d 0c 33 21 bd
       0.03799229 -0.023579292 0.07470902 -0.039355323
0003d0 1b 76 ae 3d bf ab a8 3d 42 4a 44 3d 6e 15 ba bd
       0.085186206 0.08235883 0.04792238 -0.09086119
0003e0 f5 8f 95 bd c0 19 fe ba 47 72 a8 3d 22 0b 5b bd
       -0.07302848 -0.0019386336 0.08224922 -0.053477414
0003f0 71 ba 87 3d 2e f6 1e 3d 00 d5 e8 3c c0 02 8b 3b
       0.06627358 0.038808994 0.028421879 0.004242271

encoder.0.bias f4 [60]
000000 2a 7e 1d bd d0 04 c3 bb 92 b1 79 3d 52 b1 63 bd
       -0.038450398 -0.0059515014 0.06096036 -0.055589028
000010 0e 19 24 3d 48 95 20 bd ba c2 60 3d 50 c3 f7 3c
       0.040062957 -0.039204866 0.054873206 0.0302445
000020 8e 18 5d 3d 02 bf 6a 3d dc 7c a7 bc 80 fa bb 3c
       0.053978495 0.057311065 -0.02044528 0.022946596
000030 36 84 01 3d 0a 59 2f 3d 90 b7 6e bd b8 86 9a 3c
       0.031620227 0.042809524 -0.058280528 0.018863067
000040 68 67 27 bc 6c c8 01 3d 43 ec 8d 3d 8c 0c c8 bc
       -0.010217525 0.031685278 0.06929829 -0.024420045
000050 fc 8a b0 3c e0 8b fb 3b 10 71 9b bb d4 7e bf bc
       0.021550648 0.0076765865 -0.0047437027 -0.023375906
000060 29 70 b6 bd 58 e1 6e bc b8 b5 0b bc bb 5f ac bd
       -0.089081116 -0.014580093 -0.008527212 -0.08416697
000070 d8 8b 64 bc ce 38 15 3d e7 4f af 3d 00 32 3a 39
       -0.013949357 0.036431126 0.08560162 0.00017756969
000080 46 ea 26 3d 46 5e a8 bd 27 3a 59 bd ce 70 5a 3d
       0.040750764 -0.08221106 -0.053033974 0.053330235
000090 85 13 b1 bd f7 70 19 bd 62 d9 9b bd 9e 6a 6c 3d
       -0.08646301 -0.037461247 -0.07609822 0.057718866
0000a0 fd d4 a0 3d 80 06 93 3a 24 4a a5 3c e8 55 7f 3c
       0.07853124 0.0011217147 0.020176955 0.0155844465
0000b0 d5 51 5f bd 11 b0 15 bd 9b c2 13 bd c5 56 08 bd
       -0.0545214 -0.036544863 -0.036074262 -0.033285875
0000c0 fa 30 4f 3d 87 b0 a0 bd 5c 61 9e bd e7 6c 9f 3d
       0.050583817 -0.0784617 -0.077334136 0.07784443
0000d0 1e 1a 4f 3d 8d 20 a8 3d 97 f7 70 bd c0 0d d7 bc
       0.050562017 0.082093336 -0.05882987 -0.026251674
0000e0 57 f7 2f bd 90 cb 74 bc a0 77 bf 3b c0 f6 0b 3b
       -0.04296049 -0.014941111 0.005843118 0.0021356791

encoder.2.weight f4 [30, 60]
000000 ec 81 48 bd 1c 03 e4 3d 24 ee 88 bc 8c 2b 13 3d
       -0.04895203 0.111334056 -0.016715117 0.0359302
000010 80 48 95 ba 4a 73 b8 bd 8c 79 ba 3d 70 c8 d8 bd
       -0.0011389405 -0.09006365 0.091052145 -0.105851054
000020 9a 57 a7 bd 38 d1 e1 3d d2 16 eb 3d fa f7 37 bd
       -0.081710055 0.110262334 0.11478962 -0.044914223
000030 68 e7 65 bc be 13 8a 3d fc 4c b1 3d be f1 32 bd
       -0.014032222 0.06742047 0.08657262 -0.043687575
000040 0c c2 f1 bc c0 2c 4c bb 47 b4 f6 bd 60 cf e7 3c
       -0.029511474 -0.0031154603 -0.12046104 0.028297126
000050 97 71 a1 bd ac 75 81 bc 48 16 d3 3c 14 70 9e 3d
       -0.07882994 -0.01580318 0.02576746 0.07736221
000060 29 91 03 be 3e d7 c2 3d b6 b2 0b bd 5c ab e2 bd
       -0.12848343 0.095137104 -0.03410598 -0.110678405
000070 32 65 e0 3d b4 0e 88 bc 2e b8 f7 3d a0 17 54 3c
       0.109568015 -0.016608573 0.12095676 0.012945086
000080 f0 91 40 3c 27 cb dd bd 42 39 ae bd 2c 6c 8c 3d
       0.011753544 -0.10829764 -0.08507015 0.0685657
000090 50 dd 78 3c 74 1f fc bd ba 02 ae 3d c8 bd 76 3d
       0.015189484 -0.12310687 0.08496614 0.060239583
0000a0 e6 46 e8 bd 4c f7 16 3d d0 88 71 3c 24 d8 35 3d
       -0.11341648 0.036856934 0.014742091 0.04439558
0000b0 98 bc 8d 3c 1a ff ee 3d d0 07 d7 3c 24 5c 62 3d
       0.017301843 0.116697505 0.026248842 0.055263653
0000c0 b0 d4 28 3c 4a 2d 77 bd 54 f3 b2 bc 16 c6 0b bd
       0.010304615 -0.060345925 -0.021844544 -0.034124456
0000d0 f4 62 40 3d cc 3a 69 bd ec 55 34 3d 48 a8 f5 3c
       0.04696937 -0.05694084 0.044027254 0.02998747
0000e0 80 94 e0 bb 40 dd 17 3d 63 ca 00 3e 5e 75 df bd
       -0.00685364 0.037076235 0.12577204 -0.10911058
0000f0 a0 e6 c7 bc 40 c6 19 bb 00 88 24 3b d0 0e d2 bb
       -0.024401963 -0.0023464113 0.0025105476 -0.006410457
000100 16 a2 bd 3d 46 a4 e1 bd 4c 55 67 3d d6 17 c8 3d
       0.09259431 -0.11017661 0.05647783 0.09770171
000110 12 ba 1b bd ee 8d c5 bd f6 f8 f5 3d 40 bf d8 3c
       -0.038019247 -0.096462116 0.12010376 0.026458383
000120 6d 79 a7 bd f6 90 da 3d 26 e0 c9 3d 6e d8 74 bd
       -0.08177457 0.1067218 0.09857206 -0.059776716
000130 6a 34 9e bd 18 d8 aa 3d de 86 ad 3d 72 4f 4c bd
       -0.07724841 0.08341998 0.084729895 -0.049880452
000140 a4 e4 3e bd fe 54 62 bd d8 9e 91 3c 10 ce 12 3d
       -0.046604767 -0.055256836 0.017775938 0.035841048
000150 c2 70 2f bd db 6e a9 bd 8a 4d 48 bd 18 c8 e0 3c
       -0.042832144 -0.08273097 -0.048902072 0.027439162
000160 55 b3 00 3e db 43 9b bd 6c a2 17 3d fc 8b 53 3d
       0.1256841 -0.07581302 0.037020132 0.05164717
000170 02 aa c8 3d 02 00 df bd e8 5a 9e bc 4c 2c fa bc
       0.097980514 -0.10888673 -0.019330457 -0.0305387
000180 30 39 f5 bc e0 dc fb bc 80 26 ce ba db 52 a1 bd
       -0.029934496 -0.03074497 -0.0015728027 -0.078771316
000190 58 01 d8 3d cf 17 04 be 75 fd 02 be 30 bf 2b 3c
       0.10547131 -0.12899707 -0.12791999 0.010482594
0001a0 00 8d a6 3a 10 47 d4 bc 46 cd 8d 3d 46 da 5b bd
       0.0012706816 -0.025912791 0.069239184 -0.05367496
0001b0 60 a2 cd 3c f4 4c 90 bd a0 ee 91 3c 21 e1 c5 bd
       0.02510184 -0.07045928 0.01781398 -0.096620806
0001c0 66 26 ff 3d ee 14 22 bd 50 2b 30 3d b8 7c 94 3c
       0.12458496 -0.03957074 0.043010056 0.018125877
0001d0 dc 98 ab 3d 8c 65 57 3d 30 66 f0 bd 91 db eb bd
       0.08378765 0.052587077 -0.11738241 -0.11516488
0001e0 18 90 96 3c a4 6e f5 bc 85 f2 b6 bd 6e d9 59 bd
       0.018379256 -0.029959984 -0.08932976 -0.053185873
0001f0 48 13 fe 3c 92 d9 32 bd 79 6a be bd 94 f6 08 3d
       0.031015053 -0.043664522 -0.09297652 0.03343828
000200 80 b6 54 bb b5 9f 8b bd 44 4c 46 3d 88 4e 73 3d
       -0.0032457411 -0.06817571 0.048412576 0.059401065
000210 30 3f da 3d 72 35 8a bd 7c 05 67 3d fd 68 d3 bd
       0.10656583 -0.06748475 0.056401715 -0.10322759
000220 90 79 cf 3d a2 26 03 be 20 5c 67 bc d4 2b c9 bc
       0.10130608 -0.12807706 -0.014121085 -0.024557032
000230 f2 63 46 bd 5c ed 33 3d 64 ba c9 bc 2a a8 ed 3d
       -0.04843516 0.043927535 -0.02462501 0.116043404
000240 a0 28 4f 3c ba 31 fb 3d 88 c2 b5 3d fe bf 97 bd
       0.012643963 0.12265344 0.088749945 -0.074096665
000250 ef 89 00 be e4 5d 23 3d b8 4d b9 3d 14 e6 ac 3d
       -0.12552617 0.039884463 0.09048027 0.084423214
000260 d5 97 d2 bd a8 7f 26 bc 76 6e 8a bd 9c 88 d7 bd
       -0.10282866 -0.010162272 -0.0675935 -0.10524103
000270 56 11 84 3d aa 5c 7e bd 78 36 2e 3d 14 72 01 3d
       0.06448619 -0.06210009 0.042532414 0.031602934
000280 9e dc 1a bd 9a 45 12 bd 20 7b 0e bc 98 9e 52 bd
       -0.037808053 -0.03571091 -0.0086963475 -0.051420778
000290 0e 19 fa bd 04 f0 c5 bc c8 dd b3 3d c8 c9 01 3d
       -0.1221181 -0.0241623 0.08782536 0.031686574
0002a0 c8 33 70 3d 90 c6 fb 3c 70 63 ff bc aa e8 95 bd
       0.058643132 0.03073433 -0.031175345 -0.07319768
0002b0 5a d6 88 3d 6e a2 82 3d 5e 18 00 be 2e 31 ae 3d
       0.06681509 0.06378637 -0.12509295 0.08505474
0002c0 ac f3 49 3d cc 22 44 3d 80 d9 fd 3b b3 fb 86 bd
       0.04930465 0.047884747 0.0077468753 -0.065909766
0002d0 06 44 94 3d a2 3b b4 3d f0 f1 e0 bb 8e 2b e4 3d
       0.07239537 0.088004366 -0.0068647787 0.1114112
0002e0 12 66 ed 3d 80 5a ec 3c 88 16 39 bc 76 d1 d5 3d
       0.11591734 0.028851748 -0.011296876 0.10440342
0002f0 b0 99 95 3d 22 0d cf 3d 00 86 a2 39 f0 e3 68 3c
       0.07304704 0.10109927 0.00030998886 0.014214501
000300 98 15 d3 3c 58 d5 a3 bc c0 c2 a6 bd a4 2e b0 bd
       0.025767133 -0.019999191 -0.08142614 -0.08602646
000310 00 91 33 3a a0 96 e8 bd ab f0 03 3e dc bd 41 bd
       0.0006849915 -0.113568544 0.12884776 -0.047300205
000320 0a 17 de 3d 18 00 f8 3c d4 5f c9 bd 44 ae 80 3d
       0.10844238 0.030273482 -0.09832731 0.062832385
000330 1f e5 e5 bd 6d 41 b2 bd 3c 06 de 3d c2 7a 9c bd
       -0.11225342 -0.08703885 0.10841033 -0.07640602
000340 84 56 b1 bd 59 64 99 bd 06 50 c7 3d e0 42 95 3c
       -0.0865908 -0.07489843 0.0973206 0.018220365
000350 90 04 af 3c 5c bf c1 3d f6 bb f0 3d b5 70 eb bd
       0.02136448 0.09460327 0.11754601 -0.114961065
000360 00 1d 5e 3b 30 29 0b bd 1d 64 f9 bd a2 4f b7 3d
       0.0033891797 -0.033974826 -0.12177298 0.08950736
000370 f8 8b bd bc a4 75 90 bd 10 a5 9e 3d d4 3e b2 3d
       -0.023138031 -0.07053688 0.07746327 0.0870339
000380 40 fb b2 3c 80 e5 80 3c 76 36 da bd ca cd 8c bd
       0.021848321 0.015734434 -0.10654919 -0.06875189
000390 92 60 fd 3d 60 0b 5f 3c 12 48 84 3d 5c e3 e1 bd
       0.12371935 0.013613552 0.06459059 -0.110296935
0003a0 e8 36 ae 3d b0 00 bf bd 08 d6 e7 bd 50 cd 8c 3c
       0.08506566 -0.09326303 -0.1132012 0.017187744
0003b0 ae c0 21 bd 12 1a dd bd 00 c3 61 3d 10 c9 e3 bd
       -0.039490394 -0.10795988 0.055117607 -0.11122334
0003c0 e4 df b1 3d e6 69 ff bd 10 3a 3e 3d b0 13 e1 3c
       0.08685282 -0.124713704 0.04644209 0.027475208
0003d0 f8 62 93 3c 70 58 9c bb 34 ee df 3d 78 50 3f 3d
       0.017991528 -0.0047712848 0.109341055 0.0467076
0003e0 da 7e e7 3d 20 2f 51 3c 3a e0 bd 3d 24 44 01 3d
       0.11303492 0.012767583 0.092712834 0.031559125
0003f0 b8 f5 ac 3c 14 e5 80 3d 46 f4 a3 3d 44 3d e2 3d
       0.021113262 0.06293693 0.08005576 0.11046842

encoder.2.bias f4 [30]
000000 18 02 c9 3d 60 8f a3 3b d3 f6 eb bd 1e 81 ad 3d
       0.098148525 0.004991457 -0.11521687 0.08471893
000010 d9 b3 de bd f4 8d 0b 3d 80 38 fe 3c b6 13 98 bd
       -0.10874147 0.034070924 0.0310328 -0.074256346
000020 50 31 de bc 60 7c 69 3d 5c a6 87 3d fe 6a 48 bd
       -0.027123123 0.05700338 0.066235274 -0.04893016
000030 53 08 bc bd a8 bd 56 3d 5a a0 c4 3d ce 54 8e 3d
       -0.09181275 0.052426964 0.09600897 0.06949769
000040 ac 7f 5f 3d a0 d2 b7 3c 02 9b 49 bd 46 5d ba 3d
       0.054565117 0.022439301 -0.049220093 0.09099822
000050 40 5e 89 3d fa be fd 3d 70 f1 dd bc 09 bf c6 bd
       0.0670743 0.123899415 -0.027092665 -0.09704406
000060 e7 95 01 3e 15 04 90 bd 74 56 d1 3d de 38 f8 bd
       0.1265484 -0.070320286 0.10221568 -0.121202216
000070 e9 14 82 bd 30 36 76 bd
       -0.063516445 -0.06011027

encoder.4.weight f4 [10, 30]
000000 ff aa 2b be c6 fb 18 be 6e bb f8 bd f0 b7 2b 3e
       -0.16764449 -0.14939794 -0.121451244 0.16769385
000010 d8 a9 19 be c0 ba d1 3d d8 e8 9c 3d c8 f4 aa bc
       -0.15006196 0.10240698 0.07661599 -0.020868674
000020 92 ab 04 3e b8 c8 9c bd d0 26 b6 3d 88 d5 de bd
       0.12956074 -0.076554716 0.08894122 -0.108805716
000030 f8 b2 8d bd 92 5d fb bd b4 fe 82 3d 5c 41 e3 3d
       -0.06918901 -0.122737065 0.06396237 0.11096451
000040 ac b4 cf 3d 70 87 9f bc c7 82 2e be 60 b0 10 3d
       0.10141882 -0.019473761 -0.17042075 0.035324454
000050 3a da 2e be ec 22 24 3d c0 3a 3e bb fc f8 8e 3d
       -0.17075434 0.040072367 -0.0029026717 0.06981084
000060 24 fb 19 3e e6 b6 05 be 4f ac 80 bd 0c 81 1b be
       0.15037209 -0.13058051 -0.06282865 -0.15185946
000070 f2 17 b5 bd c4 c4 a8 bd 04 30 cf 3d b8 b3 74 3d
       -0.08842458 -0.08240655 0.1011658 0.059741706
000080 1e ef 27 3e f0 10 40 3c 20 99 da 3d 62 aa c7 bd
       0.1639981 0.011722788 0.106737375 -0.09749295
000090 20 ec aa bc 90 32 8a bd e3 93 c2 bd 8f d0 83 bd
       -0.020864546 -0.06747925 -0.095008634 -0.06436264
0000a0 b2 2a 31 be f0 81 0c bd 70 45 24 3e 3b 4e c1 bd
       -0.17301443 -0.034303606 0.16042113 -0.094387494
0000b0 28 a3 bd 3c 68 47 96 bc 53 b1 d3 bd e2 30 f6 bd
       0.023149088 -0.018344596 -0.10336556 -0.120210424
0000c0 5a 97 28 3e 16 3a 0b 3e c0 50 a0 3c d4 30 3a 3e
       0.16463986 0.13596377 0.019569755 0.18182689
0000d0 17 0c a4 bd 14 41 6f 3d 78 72 3a 3e 54 2f 29 3e
       -0.080101185 0.058411673 0.18207729 0.1652196
0000e0 70 56 a2 bc 62 87 15 3e d8 ae f8 3c 60 44 0a 3c
       -0.019816607 0.14602426 0.03035681 0.008439153
0000f0 90 0c ac bc b2 ab b6 bd ba 51 09 3e 82 ce 02 3e
       -0.021002084 -0.08919467 0.13410082 0.12774089
000100 04 00 13 3d 67 02 32 be 80 89 69 3b a0 9b e7 3d
       0.035888687 -0.17383729 0.0035634935 0.1130898
000110 50 45 02 be fb f9 2d be f2 3d 88 3d 0b db 1b be
       -0.12721753 -0.16989891 0.0665244 -0.15220277
000120 08 74 64 3d e4 e4 d4 3d f3 92 b4 bd 10 bb 48 bd
       0.05577472 0.1039522 -0.08817091 -0.04900652
000130 88 7b 85 bd 16 e3 33 3e 68 00 24 be 34 0a 25 3d
       -0.06517702 0.17567095 -0.1601578 0.040292934
000140 dc 13 c1 3d d4 bc 2a 3e 89 0f dc bd ae 8c a8 bd
       0.09427616 0.16673595 -0.107451506 -0.082299575
000150 14 67 bc 3d ec a7 15 3e 52 e1 27 3e d8 59 36 3e
       0.09199348 0.14614838 0.16394547 0.1780771
000160 d6 7d cf bd fa a7 22 3e 38 51 99 bc 30 bd 2c 3e
       -0.10131423 0.1588439 -0.018715486 0.16869044
000170 1c 17 0a 3d 08 34 07 be de ca a3 bd 44 48 09 be
       0.033713445 -0.13203442 -0.07997678 -0.13406473
000180 18 98 86 bc 87 2d a8 bd cf 12 b5 bd 1b 5d 37 be
       -0.016429946 -0.08211809 -0.08841478 -0.1790661
000190 48 3e 37 be 1d cb 09 be 40 d9 aa 3d a2 36 af bd
       -0.17894852 -0.13456388 0.083422184 -0.08555342
0001a0 b0 16 89 bc a4 38 b1 3d ac 2e d2 3d 88 99 ac bd
       -0.016734451 0.086533815 0.10262808 -0.08427721
0001b0 bb 4c d8 bd f4 50 2f 3d b2 0b 2e be d8 75 e4 3d
       -0.1056151 0.042801812 -0.16996649 0.111552894
0001c0 cf 2c 97 bd a6 87 0e 3e 20 dc 0d 3c e9 bd ba bd
       -0.073815934 0.13918933 0.008658439 -0.09118254
0001d0 9a ae 13 3e 47 2e af bd 65 ca 30 be 40 a8 12 3e
       0.14422074 -0.085537486 -0.17264707 0.14321995
0001e0 56 19 39 be 5a e8 2b 3e 1c 62 cc 3d 69 89 2b be
       -0.18076071 0.16787854 0.099796504 -0.16751637
0001f0 6c c3 29 3e c5 fa 07 be d9 2b 1b be 7c 30 05 bd
       0.16578454 -0.13279255 -0.15153445 -0.03251694
000200 d0 53 4b 3d e0 c0 89 bb b0 59 c8 bd b6 56 0a be
       0.049640477 -0.0042039007 -0.097827315 -0.1350964
000210 ee 8d 27 3e c0 c0 9e bd 54 63 c4 3d e4 8e b4 3d
       0.16362736 -0.07751608 0.09589258 0.08816317
000220 9b c0 94 bd 1f e7 2c be a0 08 6a 3c d8 27 d2 3d
       -0.07263299 -0.1688504 0.014284283 0.10261506
000230 fc 0d 23 3e db 83 aa bd 04 33 31 3d 34 54 a1 3d
       0.15923303 -0.08325931 0.043261543 0.078773886
000240 a5 d4 b8 bd 32 95 a9 bd 10 cf 59 3c 90 87 2e 3e
       -0.09024934 -0.0828041 0.013293996 0.170439
000250 78 44 97 3d d8 78 b4 3d c8 95 99 3d fc c9 60 bd
       0.07386106 0.088121116 0.07499272 -0.054880127
000260 e8 dc e1 3d 7c 6e fb 3d 52 0d 18 3e b8 30 90 3c
       0.11028463 0.122769326 0.14848831 0.017601356
000270 cc 88 d5 bd 58 89 4f 3d c1 93 1f be 18 1e 91 3d
       -0.104264826 0.05066809 -0.15583707 0.07085818
000280 64 15 61 bd 22 23 89 bd 8a a7 96 bd 27 a5 23 be
       -0.05495204 -0.06696154 -0.07356174 -0.1598097
000290 dc f7 04 3e 18 55 b2 bc a4 df 7b 3d f4 f9 4a bd
       0.12985176 -0.021769091 0.061492577 -0.04955478
0002a0 62 2f 24 3e b4 0d 08 bd 73 f6 e4 bd a0 51 12 3e
       0.160337 -0.033216193 -0.11179819 0.1428895
0002b0 d0 0d a0 3d 38 d7 e4 bd 7a bc e2 bd 1c 6a e4 3d
       0.078151345 -0.11173862 -0.11071105 0.11153051
0002c0 50 7a d0 bd 57 b7 36 be 90 2d 29 3e 40 4e b7 bb
       -0.10179579 -0.17843376 0.16521287 -0.005594045
0002d0 4d 5f a1 bd a0 ea 04 3c 1e 15 fd bd 24 32 8f 3d
       -0.07879505 0.00811258 -0.123575434 0.069919854
0002e0 50 91 95 3c a8 35 0c bd f0 b1 27 3c b1 1f 83 bd
       0.018257767 -0.034230858 0.010235295 -0.06402529
0002f0 cc 3f b8 3d 68 40 17 bd bb 2a b6 bd 88 81 be bc
       0.08996543 -0.036926657 -0.08894869 -0.023255125
000300 10 f6 f2 3d ee 67 86 3d 44 57 be 3d 7f c2 36 be
       0.11863339 0.06562792 0.09293988 -0.17847632
000310 5c 2c bd 3d 18 99 11 bd fc 92 b7 3d f6 f1 0c 3e
       0.092369765 -0.035546392 0.08963582 0.13764176
000320 30 ff ca 3d d8 ce 3f 3d 5c 23 99 3d f2 cf 24 be
       0.099119544 0.04682812 0.074774474 -0.1609495
000330 d4 d4 35 be 74 80 67 bd 26 ca 12 3e b2 f4 0c 3e
       -0.17756969 -0.056518987 0.14334926 0.13765219
000340 87 fc 1c be 5e 15 04 3e e4 61 46 bd 4c e9 16 be
       -0.15330707 0.12898776 -0.0484332 -0.14737433
000350 dc 24 e4 3d 6c 33 7e 3d 70 e6 34 3e b0 70 0f be
       0.11139843 0.06206076 0.1766603 -0.1400783
000360 90 61 38 3d 4c bb 43 3d 60 72 ba bc 1d e2 81 bd
       0.045014918 0.047786042 -0.022759616 -0.06341956
000370 c8 4c a8 bd 28 69 bb 3d fc f0 b8 3d 30 87 64 3d
       -0.0821777 0.09150916 0.09030339 0.055792987
000380 94 fb 02 3e 20 38 fc bd 75 bd ad bd 88 df 80 bc
       0.12791282 -0.123153925 -0.08483402 -0.015731588
000390 68 f4 c1 3d 0c 26 bb 3d b8 c8 e1 3d 64 16 1d be
       0.09470445 0.09138116 0.11024612 -0.15340573
0003a0 52 4e 22 3e a8 bc 0e 3e 80 c1 67 3c 40 b4 5a bd
       0.1585019 0.13939154 0.014145255 -0.053394556
0003b0 04 4a 2a 3d e8 ff ee 3d 00 07 98 3a 48 5f cf 3c
       0.041574493 0.11669904 0.0011598766 0.025313988
0003c0 60 88 e9 3c f8 f3 46 bd 69 30 ab bd 22 b8 85 3d
       0.028507411 -0.04857251 -0.08358843 0.06529261
0003d0 cf 90 e6 bd 28 c2 a5 3c f0 b0 95 bc 60 90 a2 3c
       -0.11258089 0.020234182 -0.018272847 0.019844234
0003e0 e4 f3 f8 bd a3 e2 27 be a0 e6 63 3d b0 3b 43 3c
       -0.121558934 -0.16395049 0.055639863 0.011916086
0003f0 6c a6 3d 3d 98 d5 bc 3c 38 67 ad 3d 28 b4 82 3d
       0.04630129 0.023051068 0.08466953 0.06382018

encoder.4.bias f4 [10]
000000 d0 23 1c 3c c0 7b 48 bd 64 d1 14 3e c0 bd 05 3b
       0.009530023 -0.048946142 0.14533001 0.002040729
000010 26 c2 0a 3e 3c 96 78 3d 01 1a a9 bd 28 da b3 3d
       0.13550624 0.06069015 -0.08256913 0.087818444
000020 40 8c 9b 3d f4 51 1a 3e
       0.0759511 0.15070325

encoder.6.weight f4 [1, 10]
000000 fa 0a 22 3e 08 3b ea 3d 50 32 7f bd 18 eb 84 3d
       0.158245 0.114370406 -0.06230384 0.06490153
000010 38 b0 d1 3d 1c cf 0a 3e 2a 3c 87 be 6b 38 11 be
       0.10238689 0.13555568 -0.2641309 -0.14181678
000020 0b d4 90 3e 38 97 09 3d
       0.28286776 0.03359148

decoder.0.weight f4 [10, 1]
000000 c6 3f 42 bf f4 f4 93 3e 68 22 71 bf 20 3f be be
       -0.7587856 0.28897822 -0.94193125 -0.37157536
000010 ba c3 58 3f 98 61 1e be b0 f6 eb bd f0 3f e3 3e
       0.84673655 -0.15466917 -0.11521661 0.44384718
000020 0a 1c 49 bf 08 80 3a 3e
       -0.7855841 0.18212903

decoder.0.bias f4 [10]
000000 8c e4 db be 68 a1 14 3e d2 d8 38 3f 80 9d 82 3c
       -0.42947805 0.14514697 0.7220584 0.015944242
000010 3c a9 76 3f 2e b1 75 3f 14 15 34 3f 70 ee fc 3d
       0.9635198 0.9597348 0.7034466 0.12350166
000020 20 38 19 3d e0 bb a4 3d
       0.03740704 0.08043647

decoder.2.weight f4 [30, 10]
000000 08 06 5d bd e6 4b 38 be 8e 5e 64 3e 9c f1 58 be
       -0.05396083 -0.17997703 0.22301695 -0.21185917
000010 20 63 a2 3c fd 66 8b be 98 c0 f3 3d 8a 52 2e 3e
       0.019822657 -0.2722701 0.11901969 0.17023674
000020 c2 df 77 be e0 01 38 bc e9 ab 92 3e 60 0a 70 3c
       -0.2420645 -0.011230916 0.28646782 0.014650911
000030 9c a8 85 3d a8 ac 23 3e da aa 07 3e 0c 9a 18 3e
       0.065263 0.15983832 0.13248768 0.14902514
000040 8f 72 a0 3e 40 57 8a 3d f0 f4 f1 3d 18 5d 84 be
       0.313374 0.06754923 0.11814296 -0.25852275
000050 be f2 68 3e 6e 4e 43 3e 52 31 af bd cf 73 96 3e
       0.22748849 0.19072887 -0.08554329 0.2938523
000060 9c 54 86 be d0 fc 15 bd 92 71 0f 3e 08 ef 33 bd
       -0.26236427 -0.036618054 0.14008167 -0.04392913
000070 c0 e4 7e be 3f 39 8c 3e 90 4d ad bc 69 7a 8d 3e
       -0.24891949 0.27387425 -0.021155149 0.27632454
000080 0a de 60 3e d2 5d f2 bd 70 4f 50 bd b0 d5 f4 bc
       0.21959701 -0.11834301 -0.050857008 -0.02988705
000090 32 ea 68 be 00 ee 3c 3d d7 8d 8a be 54 4c c8 3d
       -0.22745588 0.046125412 -0.2706134 0.097801834
0000a0 c0 57 26 3d 00 51 91 3a 40 6f 2a bc c6 13 52 3e
       0.04061103 0.0011086762 -0.010402501 0.20515355
0000b0 1e 09 67 be b4 45 f9 3d 3f b7 8a be 2c ea d1 3d
       -0.22562072 0.12171498 -0.2709293 0.10249743
0000c0 b6 46 61 3e ac 46 f8 3d 22 88 1a be 40 4e f1 3b
       0.2199963 0.121228546 -0.15090993 0.0073640645
0000d0 39 96 8f 3e ed 71 9b 3e c0 e6 eb bb 15 a3 69 be
       0.28044298 0.30360356 -0.0071991384 -0.22816117
0000e0 0a 22 3e 3e 6a 0a 1a 3e f6 99 71 3e 68 7f 10 3e
       0.18567672 0.15043035 0.23593888 0.14111102
0000f0 06 cd 9f bd 70 51 d9 bd b9 2f 21 be 36 26 1a 3e
       -0.07802777 -0.10611236 -0.15740861 0.15053639
000100 6e f1 39 3e 7a 62 13 3e 8c 59 62 be b0 5c 20 be
       0.18158504 0.14393035 -0.22104472 -0.15660357
000110 f0 97 89 be 90 9f 7d 3d 4a e0 22 be 0e 91 3d be
       -0.26873732 0.06191975 -0.15905872 -0.18512365
000120 d0 83 89 bc 00 e3 2c be 76 20 7b 3e b0 4c b2 3d
       -0.016786486 -0.16883469 0.24524102 0.08706033
000130 08 bf 8b 3d 8a 03 a1 be a8 6b 36 3e b0 ac 4c bd
       0.06823546 -0.31448013 0.17814505 -0.049969375
000140 26 90 b5 bd 32 f6 ba bd 6c aa 09 3e 55 c3 9d 3e
       -0.08865385 -0.09128989 0.13443917 0.3081309
000150 2c 85 24 3e 1d 89 9a 3e 18 4e 72 bd cd d9 6e be
       0.16066426 0.30182734 -0.059156507 -0.23325272
000160 8e 92 68 be 00 51 70 bb 7b 87 84 3e 7d f5 82 be
       -0.22712156 -0.0036669374 0.25884613 -0.25577918
000170 bc 04 02 3e e3 79 24 be 6e 8f 6e 3e 02 b6 60 3e
       0.12697119 -0.16062121 0.23296902 0.2194443
000180 f8 0e 39 3e 20 50 9f 3c 1c ff f7 3d d2 5c 4d 3e
       0.18072116 0.019447386 0.12109205 0.2005494
000190 30 ac 81 be eb b8 91 3e e4 4c ff bd e0 6f c9 3c
       -0.2532668 0.28461394 -0.124658376 0.024589479
0001a0 04 21 d9 bd b8 5f 50 bd 02 c7 8a be 80 78 0c bc
       -0.10602 -0.050872535 -0.27104956 -0.008573651
0001b0 16 23 53 3e c0 87 58 3c 3f b6 a0 3e 85 04 87 be
       0.20618853 0.013215959 0.31389043 -0.26370636
0001c0 ba aa 6b 3e a8 27 61 bd 5b e0 99 be 3a dd 22 3e
       0.23014346 -0.05496946 -0.30053982 0.15904704
0001d0 e5 3c 80 be 4c 2f bd 3d 80 c6 2a 3e 00 a8 7d 3d
       -0.2504646 0.09237537 0.16677284 0.061927795
0001e0 02 70 2f 3e d0 f6 b6 3d 4e c2 1b be 3f 55 9a 3e
       0.17132571 0.089337945 -0.1521084 0.30143163
0001f0 86 3c 6d 3e 45 ff 35 be ea fe 6a be 97 36 1b be
       0.23167619 -0.17773159 -0.22948804 -0.15157543
000200 4a c2 5e 3e 62 4e 72 3e 36 93 b6 bd 40 2a 58 bd
       0.21753803 0.23662713 -0.08914797 -0.052774668
000210 c0 31 ed bb a0 d9 c3 3c bc bc b2 3d f0 a2 cd bc
       -0.0072385967 0.023907483 0.087274045 -0.025102109
000220 cd 2a 36 be 64 62 80 be 64 79 16 3e b2 29 0e be
       -0.17789765 -0.25075066 0.14694744 -0.13883093
000230 03 ae 98 3e 68 d4 e9 3d fe ba 6f 3e fd df 80 3e
       0.2982026 0.114174664 0.23411176 0.2517089
000240 3c d1 88 be 8f 47 94 3e 62 df 8d be 9f c0 9c be
       -0.26722133 0.28960845 -0.2770949 -0.30615708
000250 a0 41 37 bd 6a 8e 08 3e b0 17 97 3c e2 c1 03 be
       -0.04474032 0.13335577 0.018443912 -0.12866929
000260 44 31 91 3d 5a f0 60 be 5d 9c 92 3e 52 9b 63 3e
       0.07089475 -0.21966687 0.2863492 0.22227219
000270 46 10 19 3e 25 48 8c be d8 ac 39 3e ab bb 8c 3e
       0.14947614 -0.27398792 0.18132341 0.2748693
000280 27 a5 9c be de 4b 46 be 06 ba 06 be b2 c7 90 be
       -0.3059475 -0.19364879 -0.131569 -0.28277355
000290 60 11 ed bc 8d 55 2e be 2c db 76 be 00 a3 2b 3c
       -0.02893895 -0.17024823 -0.24107045 0.010475874
0002a0 ca 71 28 3e d6 b3 65 3e 1d 14 9c be b2 5e 9b bd
       0.16449657 0.22431883 -0.30484095 -0.07586421
0002b0 d0 02 c0 3d 45 9c 5d be dd 95 91 3e ca b0 4f be
       0.093755364 -0.21641643 0.2843465 -0.20282283
0002c0 e1 47 12 be db 4e 9d 3e 68 8d 7e bd 44 69 13 3e
       -0.14285232 0.30724224 -0.062146574 0.14395624
0002d0 5d ce 37 be 64 2c b4 bd d9 ed 80 3e 20 69 cb bd
       -0.17949815 -0.08797529 0.25181463 -0.099321604
0002e0 e3 09 45 be 08 a5 01 be a5 19 94 3e 5f cd 19 be
       -0.19242053 -0.1266061 0.28925815 -0.15019749
0002f0 3e dd 4e 3e 12 87 4e be d8 58 0f bd e2 74 3c 3e
       0.20201585 -0.20168713 -0.034996837 0.18403962
000300 56 92 38 be d8 51 03 3e 9a 4f 40 3e 60 7b bc 3d
       -0.18024573 0.1282419 0.18780366 0.092032194
000310 a5 ed 2e be da c3 78 3e 2c d6 bc bd 7c 41 ab 3d
       -0.17082842 0.24293461 -0.092205375 0.083620995
000320 bf 0d 8d 3e 06 81 4d 3e 60 b5 7f bd 7e f7 79 3e
       0.2754955 0.2006875 -0.062428832 0.24410817
000330 c2 53 70 3e 01 97 87 3e b6 1c ca bd 7f b8 9b be
       0.23469451 0.26482394 -0.098687574 -0.30414197
000340 30 c8 2f 3e a1 18 50 be 5a 6c 82 be 28 34 63 be
       0.17166209 -0.20321895 -0.2547329 -0.22187865
000350 7c 23 8d be a0 eb 2d 3e 74 15 3a 3e 79 96 90 3e
       -0.27566135 0.16984415 0.18172246 0.28239802
000360 fc f1 2b 3e f6 8c 10 3e 20 99 03 3c 00 39 ba 3b
       0.16791528 0.14116272 0.008032113 0.0056830645
000370 38 0f 7a be d2 2b 3e 3e 08 3d 4c 3d 0c a6 a5 bd
       -0.24419868 0.18571404 0.04986289 -0.080883116
000380 36 48 48 be e8 7f ea 3d 25 96 37 be 90 bc e3 bd
       -0.19558796 0.114501774 -0.1792837 -0.1111995
000390 30 e8 fb 3d 0a e6 71 3e 95 3b 65 be bd 86 82 3e
       0.123001456 0.23622909 -0.2238601 0.25493422
0003a0 f0 16 da bd 0a 63 68 be 70 a8 59 be b8 61 d6 3d
       -0.10648906 -0.2269403 -0.2125566 0.10467857
0003b0 fa 1e c5 bd 53 43 9b be 92 57 3e 3e c0 30 3b bd
       -0.09625049 -0.30324802 0.18588093 -0.04570079
0003c0 47 01 98 3e 28 5b b5 3d c0 dd c1 3c 80 cf 07 3d
       0.29688475 0.08855277 0.023665309 0.03315687
0003d0 06 a2 ce bd 04 39 e4 3d 24 ea 0b be b8 ec e2 bd
       -0.10089497 0.11143687 -0.13663536 -0.11080307
0003e0 e8 0c 5a bd 14 45 d7 3d 40 36 c0 3d e0 75 b8 3d
       -0.053234965 0.105112225 0.09385347 0.09006858
0003f0 62 8f fd bd dd a9 8b be b2 45 93 be e0 8b 27 bc
       -0.12380864 -0.27278033 -0.2876411 -0.01022622

decoder.2.bias f4 [30]
000000 15 bc 87 3e 3b d7 9d 3e 20 7e 81 be 08 0b 58 be
       0.26510683 0.3082827 -0.25291538 -0.21097958
000010 08 e6 2e bd f4 10 83 3d 4c 4c 86 bd ca 8a 9b bd
       -0.042699844 0.06399718 -0.06557521 -0.07594831
000020 50 b8 c9 bd 40 a3 de 3b a0 3c 49 3d de 6e 39 3e
       -0.09849608 0.0067943633 0.049130082 0.18108699
000030 9f 0a 0f be 4c fd 82 be 56 8d 4f 3e b6 8b 17 be
       -0.13968895 -0.25583875 0.20268759 -0.14799389
000040 8c ec 2c be 3d f6 6c be 95 5a 89 3e c2 d7 72 3e
       -0.1688711 -0.23140807 0.2682692 0.23715118
000050 58 6f 69 bd 0c 8d 94 be 20 a0 4b 3d c4 eb cb bd
       -0.05699095 -0.2901386 0.049713254 -0.09957078
000060 b8 a5 ab 3d 7e 8c 5f 3e 98 55 e4 bd c4 40 0a be
       0.08381218 0.21830937 -0.11149138 -0.13501269
000070 d0 60 ef 3d a8 53 4a be
       0.116883874 -0.19758475

decoder.4.weight f4 [60, 30]
000000 bc 87 1c 3e ac 07 21 3e b4 fc 9b 3d 78 f7 2d be
       0.15286154 0.15725583 0.07616559 -0.16988933
000010 41 0d e4 bd 40 76 e8 bb 50 80 e7 bc 50 24 83 bd
       -0.111353405 -0.0070941746 -0.028259426 -0.064034104
000020 00 3b 29 3b 2c 8f 15 3e e2 e1 01 3e fc a5 26 3e
       0.002582252 0.14605397 0.12683824 0.16274256
000030 ba eb ad bd f0 81 26 bd 28 ac 1a 3d a0 f2 94 bb
       -0.08492227 -0.04065126 0.037761837 -0.0045455247
000040 c9 91 22 be a5 b2 88 bd 5e df 1c 3e d0 3c a4 3d
       -0.15875925 -0.06674699 0.15319583 0.080194116
000050 80 69 06 bb 62 ac 04 3e e8 cb 4f bd f4 e0 22 3e
       -0.002050966 0.12956384 -0.05073157 0.15906125
000060 3c fe 5a bd 7d 9a ee bd ac 25 ec 3d 3c 4d 2d be
       -0.053465113 -0.1165056 0.11530623 -0.16923994
000070 6b 99 85 bd 40 b9 c4 bd c0 9c 81 3c 90 24 14 3e
       -0.06523403 -0.09605646 0.015821815 0.14467072
000080 e0 29 9d 3b ac 91 1a 3e 38 5a 8c 3d 56 df 04 3e
       0.0047962517 0.15094632 0.06853145 0.12975821
000090 c2 4f 1a be be 9c 03 3e 00 6a f9 3a 94 d4 ea 3d
       -0.15069488 0.12852761 0.0019028783 0.11466327
0000a0 4c 8a 2d 3e b5 da af bd 3e cb 1d 3e 24 2d 65 bd
       0.16947287 -0.08586637 0.15409562 -0.055951253
0000b0 fc 0f b3 bd bc 69 b6 3d 8c 82 45 bd 20 9c e5 3d
       -0.08743283 0.08906886 -0.048220202 0.11211419
0000c0 00 35 2c bd 7a d7 34 3e ae b4 02 be 78 89 b8 3c
       -0.042042732 0.17660323 -0.12764236 0.022526488
0000d0 3c bf 0a be a2 c1 34 be 0c de af 3d c6 2a 36 3e
       -0.13549513 -0.1765199 0.08587274 0.17789754
0000e0 38 99 47 3d f3 e4 e9 bd 62 5c 0e 3e 40 e5 12 3b
       0.048730105 -0.11420622 0.13902429 0.0022414476
0000f0 d0 b3 02 3c 9e e1 ad bd d2 92 b6 bd 98 87 93 bd
       0.007977441 -0.08490299 -0.089147225 -0.07203597
000100 f0 6f 79 3c ac ea 0e 3e c8 e1 21 3e 92 6e f6 bd
       0.015224442 0.13956708 0.15808785 -0.12032808
000110 70 ad fc 3c 44 7e ab 3d 08 8e 2b bd 28 4f e1 3d
       0.03084442 0.08373693 -0.0418835 0.11001426
000120 a0 9c ad bc da b3 ce bd 6c 3f 8a 3d 1e 64 97 bd
       -0.021192849 -0.10092898 0.06750378 -0.07392143
000130 18 81 2b 3d bc a2 e8 3d 10 29 c7 3d 80 b8 1f bb
       0.04187116 0.11359164 0.09724629 -0.0024371445
000140 fb ba c6 bd fd 16 e0 bd 90 c0 21 3c ac fb 13 3e
       -0.097036324 -0.10941885 0.009872571 0.14451474
000150 8c af 0b 3e 09 b6 97 bd a2 1e b2 bd ea 4b c1 bd
       0.13641185 -0.07407767 -0.08697249 -0.094383076
000160 80 fc 08 bc 54 cb e0 3d 0c a6 06 3e 78 1f e6 3d
       -0.008360982 0.10976282 0.1314928 0.11236471
000170 f4 32 63 3d 9a a6 39 3e 08 a5 ec 3d 40 f5 1a be
       0.055468515 0.1812996 0.11554915 -0.15132618
000180 d5 a6 20 be 4b 50 0a be a3 d8 c6 bd 94 0d 5d 3d
       -0.15688641 -0.13507192 -0.09709289 0.053968027
000190 92 bd 0b 3e c0 bc d1 bd a0 31 1a bc 80 c0 b6 3d
       0.13646534 -0.10241079 -0.009411246 0.08923435
0001a0 b8 ca d6 3d e0 3f c4 3b 6a a5 09 be 9c d4 d8 bd
       0.10487884 0.00598906 -0.13442007 -0.10587427
0001b0 b8 3b 9e 3d d7 f2 02 be c0 52 2d 3b 6a ec a0 bd
       0.07726234 -0.12787949 0.0026447028 -0.078575924
0001c0 10 50 56 3d 1c f1 65 bd 80 0f d3 3c 80 35 ba ba
       0.052322447 -0.056138143 0.025764227 -0.0014206618
0001d0 40 51 2b 3c 18 32 c8 3d 0c 7d 14 3e 5a 61 25 3e
       0.010456383 0.097751796 0.14500827 0.16150418
0001e0 96 d6 19 be c7 8d 35 be f4 e4 bc 3d 20 13 c2 bb
       -0.15023264 -0.17729865 0.09223357 -0.00592269
0001f0 f8 1d 06 be c4 42 aa 3d c6 5f 22 3e d0 13 f3 3d
       -0.1309737 0.08313516 0.15856847 0.11869013
000200 18 cb 70 3d 10 4b b8 bd 1c 66 65 bd 0d ab d8 bd
       0.058787435 -0.08998692 -0.056005582 -0.105795
000210 30 9a 0d 3d 6c 1a 79 bd 1f 9c d6 bd b0 d2 f6 3d
       0.034570873 -0.060816213 -0.104789965 0.12051904
000220 7e 25 0a 3e ec 60 f6 3d 78 9e 92 3d c0 44 a6 bd
       0.13490865 0.12030205 0.07159132 -0.08118582
000230 c2 35 91 bd a4 5a b9 bd 4f 9a 14 be f0 67 8a 3d
       -0.070903316 -0.090504915 -0.14511989 0.06758106
000240 24 b7 95 3d ea 56 7a bd 22 fa 93 bd fc 23 10 3e
       0.07310322 -0.061118044 -0.072254434 0.14076227
000250 4c e2 20 bd b4 75 1f be 08 5b d3 bc 00 aa f8 b9
       -0.039278314 -0.15572244 -0.025800243 -0.00047428906
000260 a2 d5 e1 bd d1 66 ee bd 12 7f 2b be ee 5b 20 be
       -0.11027075 -0.116407044 -0.16747692 -0.15660068
000270 e4 3d 01 3d ea b7 0a 3e ae 7b 04 3e a4 bb 34 3e
       0.031553164 0.1354672 0.12937805 0.17649704
000280 30 ed 04 be 81 36 ea bd c8 8a 43 bd 24 eb 30 3e
       -0.12981105 -0.11436177 -0.047739774 0.17277199
000290 0b 61 ae bd 58 bf 43 bd d5 c8 06 be 80 0c a7 3b
       -0.08514603 -0.0477899 -0.13162549 0.0050979257
0002a0 24 db 26 3e da 02 1a 3e 24 e1 07 3e 6c e4 15 3e
       0.16294533 0.1504015 0.13269478 0.14637917
0002b0 c0 c5 a4 3c d4 15 a7 3d 2e ab 03 3e b8 53 16 3e
       0.020113826 0.0815846 0.12858269 0.14680374
0002c0 38 b3 2e bd 63 53 d6 bd 58 72 f0 3d 00 05 7a bb
       -0.042651385 -0.104651235 0.11740559 -0.0038149953
0002d0 6f bb 27 be 2c 80 cf 3d af db 1f be 68 38 ae bc
       -0.16380094 0.10131869 -0.15611146 -0.021267131
0002e0 6a 11 fe bd 5c d8 21 3d 64 37 f3 3d 0f cb 13 be
       -0.12405665 0.039512977 0.11875799 -0.1443293
0002f0 ca 98 21 be d4 68 75 bd 3c 1f 29 3e 98 1f 34 3e
       -0.1578094 -0.059914425 0.16515821 0.17590177
000300 58 84 85 3d 68 d1 1e 3d 3a 5b 07 be 92 bf a3 bd
       0.06519383 0.038773924 -0.13218394 -0.079955235
000310 94 a2 30 3e d8 7d ac 3d 13 27 ce bd 10 01 4d 3d
       0.17249519 0.0842244 -0.100660466 0.05004984
000320 08 6d 9e bc 00 e6 03 bc c2 8b eb bd d8 59 18 bd
       -0.0193391 -0.008050442 -0.11501266 -0.037195057
000330 86 56 e3 bd 0c f9 2f 3e 40 13 c0 3d 2f 95 19 be
       -0.111004874 0.17184848 0.09378672 -0.14998315
000340 68 d8 ec 3d 12 f8 28 3e ac 11 81 3d 98 59 01 3d
       0.11564714 0.16500881 0.06302199 0.031579584
000350 00 be 18 be 60 23 83 3c a9 8c d0 bd 48 c0 f8 3d
       -0.14916229 0.016008079 -0.10183079 0.1214605
000360 b8 cb 3d 3d c4 2a 4c 3d 28 be 43 bd 00 6b d9 ba
       0.04633686 0.049845472 -0.04778877 -0.0016587675
000370 18 79 ac 3d 04 96 10 3d d8 56 30 be 88 63 f4 3c
       0.08421534 0.035299316 -0.17220628 0.029832616
000380 4c 45 dc 3d b0 e0 77 bc c0 e9 98 3d c4 ff 4e 3d
       0.10755405 -0.015129253 0.07466459 0.050536886
000390 18 e2 13 be 40 09 00 3e 52 22 9e bd f4 9d ed 3d
       -0.14441717 0.12503529 -0.0772139 0.11602393
0003a0 60 79 8f bc 88 d4 ad 3c dc be 07 3e 02 ce 0a be
       -0.01751393 0.021219507 0.13256401 -0.13555148
0003b0 0a 36 cb bd a8 e7 17 bd 3c fc ec 3d e0 7e 64 3c
       -0.099224165 -0.03708616 0.115715474 0.013946265
0003c0 64 2d 13 3e 00 1f 6e 3a 60 d2 b6 3d ec 3a 12 bd
       0.14372784 0.0009083599 0.089268446 -0.035700724
0003d0 4c 09 2c bd 38 90 a6 3d c4 11 39 bd 9a ca 08 be
       -0.042001054 0.08132976 -0.04518296 -0.13358536
0003e0 2c 89 9e 3d 70 f8 8a 3d 60 d1 2e 3e 54 eb 23 3e
       0.07741007 0.06785667 0.17072058 0.1600774
0003f0 44 18 c7 3d 30 c2 21 bc b8 9f d2 bc b8 65 a8 3d
       0.09721425 -0.009872958 -0.025710925 0.08222526

decoder.4.bias f4 [60]
000000 5b c6 0b be 44 72 9a 3d 3b 16 e9 bd 8e 15 32 be
       -0.13649885 0.07541326 -0.11381193 -0.17391035
000010 8c 69 90 3d 9a 47 9a bd 14 2c 1a 3e 39 66 df bd
       0.070513815 -0.07533188 0.15055877 -0.10908169
000020 7c be 93 3d 04 45 70 3d 6e bc 18 be 38 16 ad 3c
       0.072140664 0.05865957 -0.1491563 0.021128759
000030 64 b2 00 be 60 80 e5 bc ca 16 94 bd 80 3c 70 3b
       -0.1256805 -0.028015316 -0.07230909 0.0036657155
000040 c0 1e 0b bd ec 21 c5 3d 12 63 7b bd a0 c7 ff bc
       -0.033964872 0.09625611 -0.061373778 -0.031223118
000050 12 62 2a 3e 40 a0 82 bb 99 98 8d bd 19 53 0c be
       0.16638973 -0.0039863884 -0.06913871 -0.13703574
000060 ce 05 9d bd e8 93 df 3c c0 f4 12 bb 60 6d ac 3c
       -0.07667123 0.027292207 -0.0022423714 0.021048248
000070 88 23 27 3e cd 8b eb bd d8 29 38 3e 00 6f 72 3c
       0.16322148 -0.11501274 0.17984712 0.014796972
000080 bc 20 5e 3d 50 39 1b be 3c 0e a4 bd 52 5d 31 be
       0.054230437 -0.15158582 -0.080105275 -0.17320755
000090 1c 61 0b be 70 e1 6c 3d 6c 16 23 bd 66 9d ac bd
       -0.13611263 0.05783218 -0.039816305 -0.08428459
0000a0 d0 50 fd 3c 53 d8 cc bd 90 7b 0a 3e cc e8 1e 3e
       0.030922323 -0.10002198 0.13523698 0.15518492
0000b0 18 4f c5 3d 9c 90 10 3d d8 4c 05 3d c0 c8 d8 3b
       0.096342266 0.03529416 0.032543987 0.006615728
0000c0 a8 ee e9 3c 60 d1 62 3c 99 eb e8 bd 40 0d 01 3c
       0.028556183 0.013843864 -0.11373062 0.007876694
0000d0 88 28 e6 3c ac 95 24 bd d0 45 1c 3d c6 26 1b 3e
       0.028095499 -0.0401818 0.038152516 0.1515151
0000e0 99 e1 b2 bd dc 5a 18 3d 5e 4e 22 3e 85 c3 39 be
       -0.087344356 0.037196025 0.15850207 -0.18140991

decoder.6.weight f4 [118, 60]
000000 d8 dd f1 3d 68 cf 6f 3d e8 c3 e5 3d 70 dc 30 3c
       0.118098915 0.058547407 0.11219007 0.010794744
000010 d8 15 0d bc 30 33 e3 bd 16 f3 a3 bd 6a 2b e6 3d
       -0.008611165 -0.110937476 -0.08005349 0.11238749
000020 94 5a c4 bd 72 90 88 bd 58 9f 31 bd 3c bc 75 3d
       -0.09587589 -0.06668176 -0.043364853 0.059993967
000030 dd 1c fc bd 00 a5 12 3b 4a a3 03 be 6c d3 a4 3d
       -0.12310193 0.002237618 -0.12855259 0.08048138
000040 b0 25 55 bc 40 49 04 bc 40 fc ed 3c 6a 5c 65 bd
       -0.013009474 -0.008074105 0.029050946 -0.055996336
000050 de fa 8b bd 20 79 e6 bc 65 23 d1 bd 14 a9 fb bd
       -0.068349585 -0.028133929 -0.10211829 -0.122881085
000060 d6 1d cc 3d 20 b9 b7 bc 06 38 95 bd 00 a4 72 bc
       0.09966628 -0.022427142 -0.07286076 -0.014809608
000070 50 db f7 bd 60 d3 b1 3c 00 37 99 bd 90 65 df 3d
       -0.121023774 0.021707237 -0.074811935 0.109080434
000080 60 0a d1 3c 74 3e c0 3d 84 80 1e 3d b0 0e cf 3c
       0.025517642 0.09386912 0.03869678 0.025275558
000090 60 ff ac bc ce 1a b4 3d 9c 8d a7 3d 37 4d 82 bd
       -0.021117866 0.08794175 0.08181307 -0.06362384
0000a0 2a 0a eb 3d 6c a0 73 bd b0 f4 0d 3d 88 4b 6a 3d
       0.11476548 -0.059479162 0.03465718 0.05720094
0000b0 68 d6 aa 3c 00 53 48 3b 74 7c 78 3d d8 a9 d9 bd
       0.02085419 0.003056705 0.060665563 -0.10628098
0000c0 ee 9c b3 bd dc 75 1f 3d 30 06 02 be 1e 74 87 3d
       -0.08770166 0.03893076 -0.12697673 0.066139445
0000d0 58 02 d4 3d 38 8a dc bd 28 8b de 3d c8 55 72 bc
       0.103520095 -0.10768551 0.10866386 -0.01479096
0000e0 6c ac e0 3d 96 ae c5 3d 5e e0 f6 3d ec 4e d1 bc
       0.10970387 0.0965244 0.120545134 -0.025550328
0000f0 fc c7 a5 3d 02 d9 2f bd ac e4 be 3d 00 90 20 3b
       0.080947846 -0.042931564 0.093209594 0.0024499893
000100 12 2e 19 bd 59 e5 ef bd bc 90 68 3d 18 ba 5b 3d
       -0.03739745 -0.117136665 0.056778654 0.05364427
000110 44 51 ac 3d b7 15 f3 bd 86 1c 94 bd e0 5e 3b 3c
       0.08413938 -0.11869376 -0.07232003 0.011436194
000120 30 d6 27 3d e8 de 01 3d f4 12 ad bd 02 b9 9a bd
       0.04097575 0.03170672 -0.08450881 -0.07554819
000130 66 de d3 3d ec d8 ef bc fe d4 cc 3d 4e b8 90 bd
       0.103451535 -0.029278241 0.100015625 -0.07066403
000140 2f 2a 04 3e 98 eb c0 3c 70 f1 3b 3d 3e c9 e8 3d
       0.12906717 0.02354984 0.04588455 0.11366509
000150 20 a5 d7 3d 24 3d 09 3d 82 69 ba 3d 80 02 f3 3c
       0.10529542 0.033505574 0.09102155 0.029664278
000160 7c 62 7b 3d 57 65 9b bd d6 59 ad 3d 18 f6 b5 3c
       0.06137322 -0.075876884 0.084644005 0.022212073
000170 e8 7f 93 3c dc b9 f0 bd 94 07 ed bd 40 87 be 3b
       0.018005326 -0.117542 -0.11573711 0.005814463
000180 f0 99 0b 3c b8 64 ea 3c fe 8c d4 3d 2c f6 5e bd
       0.008520588 0.02861248 0.103784546 -0.054433987
000190 26 6c e0 bd 80 2b 73 3b f6 ff 93 bd d2 12 e2 bd
       -0.10958128 0.0037104785 -0.07226555 -0.11038746
0001a0 82 bd e3 3d 80 13 ee bc d4 ab c3 bd a8 d1 b8 3d
       0.1112013 -0.029062033 -0.09554258 0.09024364
0001b0 40 d9 c1 3d e9 4f d5 bd a2 63 89 bd 1e 17 dd bd
       0.09465265 -0.10415632 -0.067084566 -0.10795425
0001c0 80 92 ca bb 4e ce c0 3d 4b 7e f3 bd 82 44 ef 3d
       -0.006182015 0.094143495 -0.11889323 0.11682989
0001d0 08 72 3d bd d0 55 87 bd 24 9f a8 bc e4 8c 3b bd
       -0.046251327 -0.06608164 -0.020583697 -0.04578866
0001e0 bc d4 10 3d d2 08 c9 3d 30 b5 36 3c be 82 fb bd
       0.03535913 0.098161355 0.011151597 -0.122807965
0001f0 38 a2 08 3d cc e7 ad 3d b4 72 27 3d 52 21 bf bd
       0.03335783 0.08491477 0.040880874 -0.09332527
000200 b8 8f 5e bc d0 cb c8 bb 50 17 44 3d 05 26 c8 bd
       -0.01358407 -0.006127812 0.047873795 -0.09772877
000210 38 da b6 3d 60 7f 4f 3d d0 b4 dc 3c 08 ae 96 3c
       0.08928341 0.050658584 0.026941687 0.018393531
000220 04 06 89 bd b0 b0 b4 3d 88 c4 c9 bc e4 47 30 3d
       -0.066906005 0.08822763 -0.024629846 0.04303731
000230 be 84 ff 3d ff d3 d5 bd 88 83 db bc 07 6f e9 bd
       0.124764904 -0.10440826 -0.026796117 -0.1139813
000240 90 09 4a bc 58 7a cc 3c 50 9e 6c 3d 1c fb cf 3d
       -0.012331381 0.024960682 0.057768166 0.10155317
000250 2a d0 88 3d 90 88 bc bd e4 ff 62 3d 02 17 25 bd
       0.06680329 -0.09205735 0.055419818 -0.040305145
000260 78 1c bf bc 54 2f f5 bd e8 b5 ee 3c 76 b7 fd 3d
       -0.023329005 -0.11971918 0.029139474 0.12388508
000270 5e d7 dc bd 1e ed 62 bd b8 ad 4d bc 60 38 bf bc
       -0.107832655 -0.055401914 -0.012553625 -0.023342311
000280 18 8b cb 3d e6 4f 72 bd a0 26 35 3c 30 6d 09 3c
       0.099386394 -0.05915823 0.011056572 0.008387849
000290 18 de 5e bc 3d 47 8e bd 80 f6 17 bb 8a 25 ee 3d
       -0.013602756 -0.069471814 -0.0023187697 0.11628254
0002a0 4e 22 cf 3d c8 ae ea bd 26 e4 67 bd 4a df b3 bd
       0.10113965 -0.11459118 -0.056614064 -0.087828234
0002b0 c0 ce 11 3c 82 c1 50 bd a0 5d b4 3c 30 7f a1 bb
       0.008899391 -0.050965793 0.0220173 -0.004928492
0002c0 08 0c 68 3d 48 b8 56 bc 30 01 75 3d 24 75 90 bd
       0.0566521 -0.0131054595 0.059815586 -0.07053593
0002d0 9c 9e 8b 3d ee ed f2 bd dd 25 c7 bd 38 eb 69 bc
       0.06817362 -0.11861788 -0.09724019 -0.014277272
0002e0 91 ae f0 bd ea 42 a9 3d 00 c8 59 bd 00 f2 6f bd
       -0.11752046 0.08264716 -0.05316925 -0.0585804
0002f0 58 58 74 bd 58 29 88 bd e4 7a be bc 8c d6 d9 bd
       -0.059654564 -0.06648511 -0.023251958 -0.10636625
000300 e0 fe 91 3c f8 4b 27 3d 98 65 df 3c 30 81 78 3c
       0.01782173 0.040843934 0.027270123 0.015167519
000310 e8 db cd 3c 60 70 a8 3c ec 2c 6a bd 98 8a de 3c
       0.025129274 0.020561397 -0.057171747 0.027165696
000320 d8 82 96 3d 0e 66 b2 3d 94 53 06 3d 5c cb cc 3d
       0.07349175 0.08710872 0.03279455 0.09999725
000330 e0 5d 84 bb d2 89 84 bd c0 87 2a 3b ee b3 eb 3d
       -0.004039511 -0.064716 0.0026020855 0.11508928
000340 88 4b c0 bd a0 4c ec 3c 04 c5 e7 3d 80 71 89 3c
       -0.093894064 0.028845131 0.113168746 0.016777754
000350 e2 39 fb bd 00 1a 9b 3a 24 93 2e 3d ca 12 65 bd
       -0.122669 0.001183331 0.042620793 -0.05592612
000360 fb 36 c6 bd bc 2a b7 3d eb 76 03 be 00 08 b9 3a
       -0.096784554 0.08943698 -0.12838332 0.0014116764
000370 46 47 62 bd b4 eb 30 3d 1e 74 ab bd 7a c7 e0 3d
       -0.055243753 0.043193534 -0.08371757 0.10975547
000380 a2 52 c8 3d 67 a9 81 bd cd 0e a6 bd 44 e2 89 bc
       0.09781386 -0.06331139 -0.08108292 -0.016831525
000390 16 33 9d 3d 7c c9 f6 bd 06 60 e9 3d a4 0b 32 bd
       0.076757595 -0.12050149 0.11395268 -0.043468133
0003a0 86 ee ec bd ce 69 e4 3d 28 9a c1 3c b6 7c fa bd
       -0.11568932 0.11152993 0.023633078 -0.12230818
0003b0 76 67 a8 3d 4c d2 3f 3d 20 89 6a bc 5a eb 4c bd
       0.082228586 0.046831414 -0.01431492 -0.050029136
0003c0 98 76 cb 3c 20 e8 d3 3b 58 ad 3d 3d 32 48 ed 3d
       0.024836823 0.0064668804 0.04630789 0.11586036
0003d0 46 73 3d bd 80 b1 4a 3b 87 72 dd bd a0 7e b5 bc
       -0.04625251 0.0030928552 -0.1081286 -0.022155106
0003e0 2c c1 98 bd 90 3e 3c 3c 05 28 84 bd 80 c3 0f 3b
       -0.074587196 0.011489525 -0.064529456 0.0021936595
0003f0 c6 9c f5 3d 19 05 a3 bd 84 b6 17 bd 30 e3 73 3c
       0.11992793 -0.07959957 -0.037039295 0.014885709
