dagmm/models/167_194_dagmm.pth (torch_old, 78874 bytes, 22 tensors)

phi f4 [4]
0.3371594 0.16082427 0.17335473 0.32866156
00000000: 28a0 ac3e 1eaf 243e e783 313e 5446 a83e

mu f4 [4, 3]
0.35586205 1.0938245 0.080435686 0.3559139 1.0936164 0.08080299 0.3558959 1.0937184
0.08057387 0.3558596 1.0937458 0.080467574
00000000: 8d33 b63e 7102 8c3f 77bb a43d 593a b63e
00000010: 9ffb 8b3f 0a7c a53d fd37 b63e f7fe 8b3f
00000020: ea03 a53d 3b33 b63e ddff 8b3f 2fcc a43d

cov f4 [4, 3, 3]
0.0001438057 4.3763175e-05 0.00013362532 4.3763175e-05 0.000105697756 -6.1895604e-05 0.00013362532 -6.1895604e-05
0.00027386288 0.00014401265 4.476601e-05 0.00013336458 4.476601e-05 9.722507e-05 -4.9148468e-05 0.00013336458
-4.9148468e-05 0.00025672853 0.00014541305 4.440422e-05 0.00013327796 4.440422e-05 0.00010604276 -5.954636e-05
0.00013327796 -5.954636e-05 0.00026701085 0.00014433765 4.4284137e-05 0.00013248278 4.4284137e-05 0.00010493802
-6.074114e-05 0.00013248278 -6.074114e-05 0.00026990782
00000000: 8cca 1639 5a8e 3738 c61d 0c39 5a8e 3738
00000010: 0daa dd38 f3cd 81b8 c61d 0c39 f3cd 81b8
00000020: 4195 8f39 1a02 1739 23c3 3b38 c8d7 0b39
00000030: 23c3 3b38 50e5 cb38 c424 4eb8 c8d7 0b39
00000040: c424 4eb8 8599 8639 057a 1839 ab3e 3a38
00000050: 88c0 0b39 ab3e 3a38 4663 de38 6bc1 79b8
00000060: 88c0 0b39 6bc1 79b8 97fd 8b39 5859 1739
00000070: bbbd 3938 13eb 0a39 bbbd 3938 2c12 dc38
00000080: 4dc4 7eb8 13eb 0a39 4dc4 7eb8 6a82 8d39

encoder.0.weight f4 [60, 118]
-0.006441906 -0.068167545 -0.027309254 0.07422789 0.013308547 -0.017855689 -0.0020082965 -0.077086695
-0.082647376 0.011605941 -0.023210406 0.008316278 -0.07585153 -0.05098514 0.071475886 0.013119265
-0.006039664 0.06294749 -0.01296477 -0.03619626 0.0036203265 0.04741446 0.078606434 0.015057139
0.052497976 0.043865986 -0.0341719 0.031796172 0.017395824 -0.09170665 0.059233986 -0.06986513
-0.05702451 0.022476666 0.010369815 0.06340223 -0.077760875 0.059657477 0.015792415 -0.062084414
-0.06369123 0.031293966 -0.022828609 -0.0914105 -0.028189413 -0.044869635 -0.0312635 -0.029763177
0.09151768 -0.02849213 -0.08728536 0.090640195 -0.04398951 0.045185007 0.026138827 0.036083765
0.016531669 0.082628675 0.04069089 -0.0748505 -0.04934077 0.08181157 0.083380826 -0.072349206
0.08688889 -0.014812417 -0.08631997 0.008988373 -0.0018862858 -0.09163859 0.02324865 0.037271686
0.06315716 0.007595092 0.056895442 0.032574832 0.08014075 -0.028429084 0.05409514 0.029983416
0.079060815 -0.05104902 -0.07926558 -0.05656193 -0.01961866 0.06278924 0.077617966 0.035892524
-0.08072167 -0.043151144 -0.064252086 0.056261353 0.045541428 -0.05759512 -0.037843045 0.06605158
0.02740451 -0.010662496 -0.024255276 0.0032813326 -0.068514764 0.08827447 0.0093840435 -0.060544867
-0.08620577 -0.019780196 -0.07072037 0.047124542 0.04848487 -0.07881101 0.014161192 -0.009132981
0.061451323 -0.043339677 -0.020371713 -0.08749976 0.079740666 -0.061652847 0.0068967417 0.039273776
-0.067521945 0.077344306 -0.037478518 -0.09118574 -0.042861897 -0.04907804 0.0813876 0.07238684
0.048791267 -0.030648235 0.0024320483 0.08254505 0.085135736 0.013514958 0.034494244 -0.081804715
0.090512596 -0.014238574 0.07865525 0.051095314 0.08297921 0.039967857 0.039961882 -0.053507503
-0.030592322 -0.027720273 -0.081527315 0.01900965 0.0705285 -0.036120057 -0.05864285 -0.041672625
-0.0075954944 0.089303605 -0.06052057 0.034668498 0.064451374 -0.002213858 0.086487405 0.04989203
-0.068631105 -0.08970241 -0.08194209 -0.060966767 0.07833891 -0.008323759 0.07126247 0.078487
0.04897385 -0.090229556 -0.037282962 0.066058226 -0.005363941 0.010021463 -0.055400647 -0.041645706
0.07246307 0.07796831 0.07293289 0.047308348 -0.016792588 -0.049730264 0.03715206 -0.08119031
0.06481666 -0.0088415295 -0.032577682 -0.08881936 -0.08156788 0.029662535 -0.06707068 -0.064736046
0.044944383 -0.06555872 -0.007912755 0.075527005 -0.01883296 0.024776377 -0.014230572 -0.08156661
0.057392605 -0.07165424 -0.0070319995 0.009845868 0.051441737 -0.054004587 0.044511564 0.01669138
0.03559085 -0.033217758 -0.09045987 0.015019327 -0.06774382 -0.0816071 0.05554744 -0.022388272
0.061927028 -0.045780968 -0.083762944 -0.08242934 0.014352791 0.07818442 0.039744772 -0.048754103
-0.010485984 0.009204343 0.03608129 -0.0016829744 -0.07902573 0.004573159 -0.03424025 0.031525582
0.061118163 -0.015637167 -0.031218462 -0.08511569 0.08041512 0.0704368 -0.02291312 0.040132143
0.053797446 -0.041759506 0.03696712 0.01745136 -0.059238665 0.049409814 -0.059914768 -0.029891748
0.09065647 -0.011123352 0.08178414 0.08683836 -0.08045908 0.090665914 -0.08939452 0.043972127
00000000: a016 d3bb 6d9b 8bbd a8b7 dfbc cb04 983d
00000010: 180c 5a3c 1846 92bc a09d 03bb a1df 9dbd
00000020: 0743 a9bd d826 3e3c c023 bebc 0041 083c
00000030: 0c58 9bbd cbd5 50bd f361 923d 30f2 563c
00000040: 60e8 c5bb 9dea 803d 306a 54bc 8842 14bd
00000050: 0043 6d3b aa35 423d 69fc a03d 38b2 763c
00000060: 1e08 573d d2ac 333d d6f7 0bbd b43c 023d
00000070: b081 8e3c b2d0 bbbd 569f 723d 7315 8fbd
00000080: 8892 69bd fc20 b83c 28e6 293c 07d9 813d
00000090: 1841 9fbd 665b 743d 185f 813c 3a4c 7ebd
000000a0: 8c70 82bd 1a2e 003d 1003 bbbc 6e35 bbbd
000000b0: 7ced e6bc 39c9 37bd 280e 00bd e8d1 f3bc
000000c0: 9f6d bb3d 5468 e9bc abc2 b2bd 91a1 b93d
000000d0: 582e 34bd ea13 393d 1821 d63c 92cc 133d
000000e0: 6c6d 873c 3939 a93d 7eab 263d 384b 99bd
000000f0: 8c19 4abd d38c a73d 91c3 aa3d d22b 94bd
00000100: cdf2 b13d c8af 72bc 86c8 b0bd f843 133c
00000110: 403d f7ba 03ad bbbd f473 be3c 32aa 183d
00000120: 8b58 813d 40e0 f83b 320b 693d 306d 053d
00000130: d520 a43d 1ce4 e8bc de92 5d3d c89f f53c
00000140: a3ea a13d c718 51bd fe55 a2bd 7bad 67bd
00000150: 50b7 a0bc a597 803d 2bf6 9e3d 0a04 133d
00000160: 6751 a5bd 41bf 30bd 9996 83bd 4e72 663d
00000170: a689 3a3d dce8 6bbd 4f01 1bbd 0d46 873d
00000180: 6c7f e03c c0b1 2ebc 00b3 c6bc a00b 573b
00000190: 7851 8cbd 3fc9 b43d 88bf 193c e5fd 77bd
000001a0: a78c b0bd 140a a2bc d7d5 90bd aa05 413d
000001b0: 1298 463d ab67 a1bd 5804 683c 80a2 15bc
000001c0: 62b4 7b3d f284 31bd 94e2 a6bc 1333 b3bd
000001d0: 134f a33d b287 7cbd 10fe e13b 8add 203d
000001e0: f248 8abd b166 9e3d 1383 19bd 97bf babd
000001f0: f58f 2fbd 0e06 49bd 8bae a63d 8d3f 943d
00000200: 5ad9 473d 0212 fbbc 0063 1f3b 610d a93d
00000210: a55b ae3d d86d 5d3c d649 0d3d 3b89 a7bd
00000220: ab5e b93d e848 69bc 0116 a13d 5249 513d
00000230: 01f1 a93d 56b5 233d 12af 233d af2a 5bbd
00000240: c09c fabc a015 e3bc cbf7 a6bd 20ba 9b3c
00000250: 3f71 903d a0f2 13bd 7c33 70bd eab0 2abd
00000260: a0e3 f8bb cfe4 b63d 6be4 77bd 8e00 0e3d
00000270: 15ff 833d 6016 11bb 4f20 b13d 965b 4c3d
00000280: 778e 8cbd e6b5 b7bd 41d1 a7bd 4ab8 79bd
00000290: 2770 a03d 6060 08bc 0ff2 913d cbbd a03d
000002a0: ce98 483d 46ca b8bd 05b6 18bd 8949 873d
000002b0: 00c4 afbb 1031 243c caeb 62bd b094 2abd
000002c0: 8567 943d d9ad 9f3d d75d 953d 66c6 413d
000002d0: 9c90 89bc f6b1 4bbd c22c 183d 1b47 a6bd
000002e0: 99be 843d 10dc 10bc 2d70 05bd ede6 b5bd
000002f0: 100d a7bd d8fe f23c 5a5c 89bd 5594 84bd
00000300: 9a17 383d a643 86bd 80a4 01bc e7ad 9a3d
00000310: 9447 9abc d4f7 ca3c 5827 69bc 650c a7bd
00000320: 8214 6b3d 75bf 92bd b06c e6bb 9050 213c
00000330: 92b4 523d ea33 5dbd c251 363d 5cbc 883c
00000340: b6c7 113d 580f 08bd 0643 b9bd a013 763c
00000350: 46bd 8abd a021 a7bd b685 633d 9c67 b7bc
00000360: 32a7 7d3d d384 3bbd e88b abbd b7d0 a8bd
00000370: f827 6b3c 271f a03d 6acb 223d 62b2 47bd
00000380: 68cd 2bbc d0cd 163c fac9 133d 4097 dcba
00000390: 3ed8 a1bd 70da 953b 813f 0cbd f820 013d
000003a0: 0a57 7a3d 8419 80bc dcbd ffbc 2351 aebd
000003b0: afb0 a43d 2b41 903d 4cb4 bbbc 9a61 243d
000003c0: b65a 5c3d 040c 2bbd d66a 173d 28f6 8e3c
000003d0: 3ea4 72bd f261 4a3d 3069 75bd 8adf f4bc
000003e0: 19aa b93d b83e 36bc 717e a73d 4fd8 b13d
000003f0: bbc7 a4bd 0daf b93d 7914 b7bd 1e1c 343d

encoder.0.bias f4 [60]
0.09057734 -0.03848995 -0.00019798428 -0.08229771 -0.070096806 -0.042824224 0.004845619 -0.059633613
-0.01755444 -0.0119740665 0.007359028 0.019235253 0.050381668 0.042580582 -0.01775644 -0.07211137
0.08783179 -0.00435517 0.0005947873 -0.07219727 0.08886977 0.05652643 -0.023905575 0.032149196
0.042265333 -0.018078692 0.059332885 0.014995247 -0.06765571 0.0674612 0.07266066 0.004590459
0.013581164 0.083758526 0.005225703 -0.0677578 -0.056244656 -0.07425656 0.026910208 0.06712242
-0.057427388 0.056999274 0.072026156 -0.0023876578 0.054752447 -0.034753583 -0.0013605878 0.07793366
-0.082542524 -0.02914954 0.012247585 -0.02887106 0.035708107 0.015193723 -0.05051018 0.070703395
-0.033977058 0.03635349 0.050117783 -0.080131836
00000000: 9d80 b93d a3a7 1dbd 009a 4fb9 b48b a8bd
00000010: ea8e 8fbd 7468 2fbd 00c8 9e3b 6042 74bd
00000020: 54ce 8fbc e02e 44bc 0024 f13b 4093 9d3c
00000030: 025d 4e3d fa68 2e3d f475 91bc 20af 93bd
00000040: 27e1 b33d d0b5 8ebb 80eb 1b3a 2adc 93bd
00000050: 5b01 b63d 4288 673d a0d5 c3bc e0ae 033d
00000060: 6a1e 2d3d c419 94bc 0a07 733d a0ae 753c
00000070: 148f 8abd 1929 8a3d 1dcf 943d 906b 963b
00000080: 8883 5e3c 9789 ab3d 603c ab3b 9ac4 8abd
00000090: cc60 66bd d313 98bd cc72 dc3c 7b77 893d
000000a0: fb38 6bbd 1278 693d 7382 933d 407a 1cbb
000000b0: 1a44 603d c659 0ebd c055 b2ba af9b 9f3d
000000c0: 0e0c a9bd 04cb eebc 18aa 483c 0083 ecbc
000000d0: aa42 123d 18ef 783c c3e3 4ebd f1cc 903d
000000e0: 872b 0bbd 66e7 143d 4e48 4d3d 291c a4bd

encoder.2.weight f4 [30, 60]
-0.022247046 0.08830537 0.037280977 0.009948224 0.07780336 -0.028569616 0.067698345 -0.027577631
0.013670072 -0.1096549 -0.03799618 -0.03840635 0.12400569 0.11220582 0.0642623 -0.07317518
-0.095392376 0.12489681 0.04681027 0.084040344 -0.07813739 -0.111501224 -0.038496256 -0.071352586
-0.001234889 0.12731744 0.031506166 3.454089e-05 -0.09214158 -0.0951351 0.08816451 -0.061560042
-0.04091303 0.10839689 0.045530006 -0.047146305 0.030621022 -0.019090064 -0.11886784 -0.036986664
-0.102539375 -0.012246981 -0.12280701 -0.096565545 0.044320032 -0.081119165 -0.055641584 -0.07757883
0.12236132 -0.10588291 0.05767271 -0.07335056 0.00834091 -0.025750935 0.12702976 0.004758373
0.08230533 0.08578189 -0.072497815 0.10394366 0.086088896 0.07819767 -0.079733476 0.053862154
0.08053282 -0.020891234 -0.11843149 -0.08147236 -0.035763755 0.08426678 0.05021721 0.007739395
0.01796396 0.055131406 0.027431697 0.055089414 0.03403011 -0.053602546 0.07175496 0.056609526
-0.06667331 -0.025437444 0.10593426 -0.06256101 0.101843596 0.1194288 0.10738854 -0.010571338
-0.021693662 -0.11067014 -0.060401894 -0.01303599 0.06507096 -0.042384997 0.11235681 -0.12376447
-0.11503214 0.10430564 -0.12793276 0.04612805 0.07743403 0.12555687 0.06588513 0.008945882
0.0021436065 0.0126693845 0.08503704 -0.051128186 0.02244699 -0.09576653 -0.11939844 0.052647382
0.037981346 0.016718805 0.09646967 0.046885654 -0.047932126 -0.030249692 0.07485594 -0.024201065
0.008327961 0.023940265 0.08211501 -0.08362235 -0.0024008304 -0.065483145 -0.12104161 -0.123376034
0.12219791 -0.029235162 0.007880732 0.08072093 0.06062898 0.10509209 -0.089266025 -0.06098231
-0.014648937 0.022146374 0.091362 0.12439178 -0.124267675 0.056155324 0.09002024 0.079858124
0.05306822 0.021651044 0.077658 -0.01795657 0.00060744584 0.041592494 -0.11314674 0.05486934
-0.022097751 0.06880824 -0.12478687 0.014138639 0.08647041 -0.103496544 -0.073125996 0.12451179
-0.041864663 0.07365039 0.043659717 0.037342757 -0.0059524253 -0.10206035 -0.106023066 0.103559434
-0.021249585 -0.07242195 0.078798875 -0.027062781 0.079205155 0.052240014 0.029870003 -0.049529947
0.052909344 -0.110114396 -0.0725359 0.07211976 0.09537436 -0.08531071 -0.032352075 -0.12036213
0.044664875 -0.10877921 -0.08749501 0.012347043 -0.07566413 0.06987627 -0.013374522 0.058050543
-0.094494514 0.085492045 0.050384074 0.015373856 0.11532834 -0.083515145 0.12022109 0.07325451
0.032327622 -0.12034114 -0.09994183 0.03400445 -0.08229254 0.0401548 -0.09391089 0.041372016
-0.028721541 -0.045418456 0.07772851 0.010841772 -0.024794914 -0.10148832 0.016367853 0.045260295
0.04812652 -0.024933591 -0.0054714903 0.08843081 -0.08632782 0.10352881 0.07720393 -0.053659357
0.09037325 -0.12569578 0.006346196 0.033609718 -0.027568273 -0.12147099 0.09763752 0.05040583
0.049403757 -0.12840337 -0.09864651 -0.11262666 0.08698985 -0.10861287 -0.08726364 0.073133394
-0.080606714 0.12635215 0.10910195 0.04139115 0.055097237 -0.049836114 0.11184551 0.051268414
0.11127041 -0.02329062 0.0048930496 0.06950654 -0.074417174 0.12656523 -0.06619939 0.11911565
00000000: 703f b6bc 72d9 b43d f0b3 183d e0fd 223c
00000010: 5e57 9f3d d40a eabc 6ea5 8a3d 7cea e1bc
00000020: 70f8 5f3c c092 e0bd e2a1 1bbd fa4f 1dbd
00000030: b2f6 fd3d 2acc e53d f49b 833d dedc 95bd
00000040: 145d c3bd e6c9 ff3d 20bc 3f3d 581d ac3d
00000050: 7f06 a0bd c15a e4bd 40ae 1dbd 4e21 92bd
00000060: 00dc a1ba 815f 023e 9c0c 013d 00e0 1038
00000070: bab4 bcbd 31d6 c2bd 988f b43d 6226 7cbd
00000080: 6c94 27bd 30ff dd3d ac7d 3a3d 7c1c 41bd
00000090: f0d8 fa3c c462 9cbc fb70 f3bd 547f 17bd
000000a0: 2a00 d2bd 90a7 48bc 3e82 fbbd 28c4 c5bd
000000b0: ec88 353d ce21 a6bd 6ee8 63bd a6e1 9ebd
000000c0: 9298 fa3d 24d9 d8bd 383a 6c3d d238 96bd
000000d0: 50a8 083c a0f3 d2bc 1714 023e 20ec 9b3b
000000e0: b28f a83d 6aae af3d bc79 94bd 6ae0 d43d
000000f0: 604f b03d 1a26 a03d 4e4b a3bd 909e 5c3d
00000100: 64ee a43d 1824 abbc 368c f2bd fbda a6bd
00000110: 047d 12bd 1094 ac3d 90b0 4d3d c09a fd3b
00000120: 2829 933c 78d1 613d 70b8 e03c 70a5 613d
00000130: 2863 0b3d 588e 5bbd 44f4 923d 64df 673d
00000140: 048c 88bd 3062 d0bc 10f4 d83d fd1f 80bd
00000150: 6093 d03d 1697 f43d 86ee db3d 6833 2dbc
00000160: e8b6 b1bc 07a7 e2bd fa67 77bd e894 55bc
00000170: ec43 853d e49b 2dbd 541b e63d 3a78 fdbd
00000180: f895 ebbd 329e d53d ce00 03be c4f0 3c3d
00000190: bc95 9e3d fb91 003e c8ee 863d c091 123c
000001a0: c07b 0c3b 4093 4f3c e627 ae3d ca6b 51bd
000001b0: c0e2 b73c 3e21 c4bd 2b87 f4bd c8a4 573d
000001c0: 5492 1b3d e0f5 883c e491 c53d 2c0b 403d
000001d0: 7a54 44bd 34ce f7bc 124e 993d 5041 c6bc
000001e0: 0072 083c 601e c43c ea2b a83d 3242 abbd
000001f0: 4057 1dbb 071c 86bd aae4 f7bd 93ac fcbd
00000200: e642 fa3d 947e efbc 301e 013c 0451 a53d
00000210: 1856 783d 863a d73d 1bd1 b6bd 96c8 79bd
00000220: 1802 70bc 506c b53c 001c bb3d 1ec1 fe3d
00000230: 0d80 febd 2003 663d 885c b83d a88c a33d
00000240: 105e 593d 885d b13c 280b 9f3d a819 93bc
00000250: 003d 1f3a e45c 2a3d 7ab9 e7bd acbe 603d
00000260: 5806 b5bc 56eb 8c3d 4290 ffbd c0a5 673c
00000270: 6617 b13d fff5 d3bd 15c3 95bd 0a00 ff3d
00000280: 487a 2bbd 04d6 963d 88d4 323d b8f4 183d
00000290: 900c c3bb 0405 d1bd 9f22 d9bd f816 d43d
000002a0: 9c13 aebc f651 94bd 4e61 a13d c4b2 ddbc
000002b0: 5036 a23d a0f9 553d f0b1 f43c eadf 4abd
000002c0: 78b7 583d a883 e1bd b48d 94bd 86b3 933d
000002d0: a253 c33d 62b7 aebd 9c83 04bd 6c80 f6bd
000002e0: 84f2 363d a2c7 debd 9530 b3bd 404b 4a3c
000002f0: ccf5 9abd 4a1b 8f3d d020 5bbc 68c6 6d3d
00000300: 5786 c1bd 7416 af3d 885f 4e3d a0e2 7b3c
00000310: 4431 ec3d fd09 abbd 7a36 f63d 7606 963d
00000320: f869 043d 6a75 f6bd 4dae ccbd 4048 0b3d
00000330: fe88 a8bd 5c79 243d 5a54 c0bd b475 293d
00000340: 7049 ebbc b408 3abd 2030 9f3d b0a1 313c
00000350: b41e cbbc 1cd9 cfbd e015 863c dc62 393d
00000360: 5020 453d 8841 ccbc 304a b3bb 361b b53d
00000370: a4cc b0bd ea06 d43d 181d 9e3d eac9 5bbd
00000380: 9c15 b93d 65b6 00be c0f3 cf3b 58aa 093d
00000390: dcd6 e1bc c8c5 f8bd 2ef6 c73d 5876 4e3d
000003a0: 985b 4a3d 2c7c 03be 2e07 cabd cea8 e6bd
000003b0: bc27 b23d 6d70 debd 47b7 b2bd f6c6 953d
000003c0: 2215 a5bd 7562 013e d870 df3d c489 293d
000003d0: a4ad 613d f420 4cbd 420f e53d d4fe 513d
000003e0: bee1 e33d f8cb bebc e055 a03b 7259 8e3d
000003f0: 0868 98bd 519a 013e 8c93 87bd e8f2 f33d

encoder.2.bias f4 [30]
0.068403825 -0.036854297 -0.082455605 0.09278838 0.0110156685 0.10549115 -0.08485514 0.027005792
0.1224608 0.025042385 0.08517353 0.106086746 -0.100034244 0.010087609 0.006442532 0.004406601
0.018400893 -0.12451639 -0.019986004 -0.08157983 0.082714826 0.018253326 -0.08585143 0.046472862
-0.09461283 0.01204592 0.0029229075 0.031890467 0.12769862 0.034750655
00000000: 4e17 8c3d 88f4 16bd 7cde a8bd d607 be3d
00000010: 107b 343c be0b d83d 88c8 adbd 403b dd3c
00000020: bacc fa3d b025 cd3c 766f ae3d 0244 d93d
00000030: c1de ccbd 8046 253c e01b d33b 4065 903b
00000040: 78bd 963c 7302 ffbd b0b9 a3bc 5313 a7bd
00000050: 6466 a93d 0088 953c e0d2 afbd 545a 3e3d
00000060: 5fc4 c1bd 405c 453c 408e 3f3b 949f 023d
00000070: 6dc3 023e b456 0e3d

encoder.4.weight f4 [10, 30]
0.1216484 -0.13760987 0.04771833 -0.08454585 -0.065387554 -0.15042853 -0.099320404 0.11147502
0.120262116 -0.12949824 -0.009298459 -0.0020293742 -0.062470295 0.13654622 0.16823873 0.052608803
-0.042712778 -0.13905224 -0.01177375 -0.04131809 -0.13923694 -0.0037894398 -0.04720013 0.12452656
0.0120135695 0.13133708 0.08675161 0.025640026 0.13293025 0.16258892 -0.11671482 0.0062236935
0.097571135 0.16960865 0.07243177 -0.14537477 -0.060761698 0.13260499 0.14293072 0.14565009
-0.15117086 0.00094118714 0.090049654 0.009908095 0.10420367 -0.024099663 0.095326275 -0.059864216
-0.10069583 -0.045031324 -0.13872766 0.13132149 0.105866075 0.010286793 0.009199321 0.094329625
-0.010123774 0.18230015 0.13497663 0.011611223 0.004564762 0.11761072 -0.07068121 0.0481942
0.11034846 -0.14991298 0.103854656 0.084490836 0.037360877 -0.13374278 0.07642266 0.057100266
-0.17722484 0.09459373 -0.106681325 -0.12060924 0.16487798 -0.107253425 -0.11323578 -0.13779524
0.14492202 0.07149097 -0.087107345 0.1617851 0.14969033 -0.038376555 -0.07613321 -0.06340132
-0.10618816 0.12546882 -0.15053095 0.0143558085 -0.10236984 0.084343314 0.11479396 0.051602855
-0.013250411 0.08856329 0.08724865 -0.14640844 -0.13075793 0.023850858 0.17304096 0.08337811
-0.029441282 -0.02854754 -0.12807569 -0.058323413 -0.12024328 0.18210515 0.047860608 -0.13071975
0.042390943 0.108135104 -0.17183517 0.070794225 -0.06478435 -0.17748341 -0.1681084 0.083173186
0.1387929 0.07444668 -0.15870467 -0.048875257 0.016425982 -0.05417362 -0.030401736 0.027970672
-0.17963229 -0.113802336 0.091837674 0.11950451 0.13013023 0.13109821 -0.13486797 -0.090658665
0.16272962 -0.07938998 -0.09272923 -0.09033337 0.13817051 0.12339476 0.044083223 -0.09497194
-0.08174665 0.155788 -0.09576599 -0.14740978 0.087468386 0.064692736 -0.065402135 -0.07941088
0.17207444 0.16359049 -0.093416445 -0.15917522 0.11214849 0.021422505 0.013491467 -0.05426413
-0.10417222 0.078189224 0.03370391 0.10832363 0.16378194 0.11561027 -0.061098434 -0.068181075
0.13517874 -0.009574503 -0.09661762 -0.11445246 -0.15760098 -0.024228975 0.15159008 0.118718624
0.11441389 -0.01268442 0.12516385 0.13992772 -0.010683566 0.06663242 -0.046500236 0.0002451986
0.081379235 -0.06285157 0.036178827 0.0988875 0.05090499 0.06340195 0.07374647 -0.019186333
0.07215318 0.009840444 0.13475236 0.04949841 -0.08600636 -0.12254971 -0.06477743 -0.16259779
0.14633882 0.0012565106 0.117474794 0.07924825 -0.09177072 -0.048331037 0.0041084886 -0.16331947
-0.13497452 0.084991425 0.024216294 0.16808423 0.083675 0.10637465 -0.054834336 -0.06709196
-0.05398348 0.11463523 0.045318976 0.08841953 -0.11692789 0.028289959 0.13912803 -0.13467248
0.09045321 0.14777121 0.011067763 0.014928386 -0.18102443 0.14100969 0.005683467 -0.15529227
-0.042832047 -0.04832737 -0.11807395 -0.16854857 -0.003923908 0.012466729 0.17301247 -0.026332483
0.082737 0.13997442 0.009145543 -0.14801657 0.09665692 0.14281276 -0.099307284 -0.10619493
-0.07882633 0.16861078 -0.08092512 0.086413056 0.027803168 0.16765937 -0.14855278 -0.075555556
00000000: cc22 f93d 9ae9 0cbe 4c74 433d 6026 adbd
00000010: e9e9 85bd f009 1abe 7f68 cbbd 044d e43d
00000020: fc4b f63d 309b 04be 9058 18bc 40ff 04bb
00000030: dae0 7fbd c6d2 0b3e c646 2c3e 547c 573d
00000040: 98f3 2ebd b663 0ebe b0e6 40bc 283d 29bd
00000050: 2194 0ebe 4058 78bb ec54 41bd c807 ff3d
00000060: 90d4 443c 3a7d 063e d4aa b13d 080b d23c
00000070: de1e 083e b67d 263e 2e08 efbd 20f0 cb3b
00000080: 60d3 c73d e4ad 2d3e 1c57 943d 20dd 14be
00000090: 42e1 78bd 9ac9 073e 6e5c 123e 4c25 153e
000000a0: 89cc 1abe 00ba 763a f46b b83d 9055 223c
000000b0: bc68 d53d a86c c5bc 6c3a c33d 2e34 75bd
000000c0: 9e39 cebd c472 38bd a00e 0ebe 2479 063e
000000d0: 50d0 d83d f089 283c c0b8 163c e42f c13d
000000e0: 30de 25bc e4ac 3a3e 5037 0a3e 003d 3e3c
000000f0: 0094 953b e4dd f03d 4fc1 90bd 4867 453d
00000100: 60fe e13d ca82 19be c0b1 d43d 8809 ad3d
00000110: b807 193d def3 08be 7c83 9c3d f8e1 693d
00000120: 6e7a 35be 5cba c13d bd7b dabd fa01 f7bd
00000130: c6d5 283e afa7 dbbd 29e8 e7bd 321a 0dbe
00000140: 7066 143e dc69 923d 5665 b2bd feaa 253e
00000150: 6c48 193e bc30 1dbd baeb 9bbd 8dd8 81bd
00000160: 2e79 d9bd e67a 003e c924 1abe a034 6b3c
00000170: 47a7 d1bd 30bc ac3d 1819 eb3d 845d 533d
00000180: 4018 59bc ac60 b53d 6caf b23d 18ec 15be
00000190: 68e5 05be e062 c33c a631 313e 24c2 aa3d
000001a0: d82e f1bc 88dc e9bc 4626 03be 88e4 6ebd
000001b0: 1c42 f6bd c679 3a3e 7c09 443d 66db 05be
000001c0: 20a2 2d3d f075 dd3d 8ff5 2fbe 90fc 903d
000001d0: a8ad 84bd 36be 35be 9c24 2cbe b456 aa3d
000001e0: ba1f 0e3e 8077 983d 7a83 22be 6c31 48bd
000001f0: c88f 863c 28e5 5dbd 100d f9bc c022 e53c
00000200: 87f1 37be 3311 e9bd 6415 bc3d c8be f43d
00000210: dc40 053e 9c3e 063e d41a 0abe 40ab b9bd
00000220: 98a2 263e 3797 a2bd d3e8 bdbd b400 b9bd
00000230: 927c 0d3e 64b6 fc3d 9c90 343d a680 c2bd
00000240: ca6a a7bd e486 1f3e f620 c4bd 97f2 16be
00000250: a022 b33d a07d 843d 8ef1 85bd 2ca2 a2bd
00000260: 4834 303e 4484 273e 1f51 bfbd d4fe 22be
00000270: 1cae e53d 407e af3c 500b 5d3c 1044 5ebd
00000280: 3f58 d5bd ac21 a03d 1c0d 0a3d c8d8 dd3d
00000290: 74b6 273e 14c5 ec3d 5a42 7abd 85a2 8bbd
000002a0: 4c6c 0a3e 60de 1cbc 75df c5bd 0d66 eabd
000002b0: 2762 21be d87b c6bc 6e3a 1b3e c022 f33d
000002c0: d451 ea3d 50d2 4fbc f42a 003e 3649 0f3e
000002d0: 200a 2fbc 9476 883d 0877 3ebd 008e 8039
000002e0: 28aa a63d 53b8 80bd 4030 143d 8885 ca3d
000002f0: c081 503d e2d8 813d 6408 973d a82c 9dbc
00000300: 0cc5 933d d039 213c 86fc 093e d8be 4a3d
00000310: 1a24 b0bd 58fb fabd 07aa 84bd 0980 26be
00000320: d8d9 153e 80b1 a43a a096 f03d e84c a23d
00000330: 4af2 bbbd c4f6 45bd 80a0 863b 383d 27be
00000340: c336 0abe fc0f ae3d 4061 c63c 461e 2c3e
00000350: cc5d ab3d f4da d93d f899 60bd 8267 89bd
00000360: c81d 5dbd e0c5 ea3d 64a0 393d 4c15 b53d
00000370: e477 efbd 58c0 e73c 9477 0e3e 95e7 09be
00000380: 883f b93d 5651 173e 9055 353c 3096 743c
00000390: 785e 39be d864 103e 603c ba3b f004 1fbe
000003a0: a870 2fbd ecf2 45bd c1d0 f1bd ff97 2cbe
000003b0: 2094 80bb 4041 4c3c 2e2a 313e 38b7 d7bc
000003c0: 0472 a93d 7455 0f3e 30d7 153c a891 17be
000003d0: 10f4 c53d 823d 123e 9e61 cbbd ba7c d9bd
000003e0: b36f a1bd 4ea8 2c3e 12bc a5bd 54f9 b03d
000003f0: 78c3 e33c e6ae 2b3e 381e 18be dfbc 9abd

encoder.4.bias f4 [10]
-0.16393074 -0.13127454 0.039572567 -0.024027333 0.13669363 -0.08053567 0.105737746 0.16432548
-0.16962002 0.062308982
00000000: 76dd 27be d56c 06be d816 223d f8d4 c4bc
00000010: 6af9 0b3e e3ef a4bd 088d d83d f044 283e
00000020: dfb0 2dbe b437 7f3d

encoder.6.weight f4 [1, 10]
-0.27083808 -0.20876403 -0.053052664 -0.1654969 0.22511092 0.31091926 0.08638966 0.11375493
0.18647644 -0.28880164
00000000: 4aab 8abe 3dc6 55be c04d 59bd 0578 29be
00000010: 7a83 663e cf30 9f3e 10ed b03d 58f8 e83d
00000020: aef3 3e3e cfdd 93be

decoder.0.weight f4 [10, 1]
0.0711745 0.9662193 0.10190821 0.36987102 0.051716685 -0.29363763 -0.47068405 -0.8567759
-0.67031467 0.9005462
00000000: f0c3 913d 265a 773f 40b5 d03d bc5f bd3e
00000010: e0d4 533d ac57 96be 80fd f0be aa55 5bbf
00000020: be99 2bbf 328a 663f

decoder.0.bias f4 [10]
-0.16900945 0.9519924 -0.2425493 0.59815824 -0.50203407 -0.4870888 0.05435908 0.98496807
0.28978992 -0.4995439
00000000: d010 2dbe c6b5 733f d85e 78be e620 193f
00000010: 4e85 00bf b463 f9be a0a7 5e3d de26 7c3f
00000020: 585f 943e 38c4 ffbe

decoder.2.weight f4 [30, 10]
-0.19061829 0.16866875 -0.30511403 0.09111211 0.2267051 -0.18440898 -0.15777215 -0.18607792
-0.22242251 -0.03348562 0.002493173 -0.25432172 -0.25417888 -0.29453263 0.027626783 -0.26259142
-0.071544096 -0.055033892 -0.16905978 0.25990698 0.30970713 -0.25726607 0.012490392 0.115906954
0.24070677 -0.055015206 -0.04409027 -0.086603895 0.22198465 0.0034630895 -0.074000046 0.21186337
-0.23418784 -0.31308216 0.20818362 0.026730955 0.23257264 -0.3120297 0.20631614 0.058946997
-0.0073300004 -0.1337358 0.25510374 -0.23037744 -0.055744946 0.13107204 -0.035308927 0.15702525
-0.15946774 0.005402297 -0.20989537 0.14142817 -0.07460448 0.12858024 -0.08487511 0.09796792
0.09186855 -0.018029034 0.028221786 0.22155437 0.22418353 -0.27380696 -0.08548652 0.13277462
0.23948964 0.15104586 0.11683738 -0.055643976 -0.27021894 0.14314899 -0.05594054 0.018436223
-0.16414578 0.24177614 -0.1218382 -0.10746777 0.15206704 -0.0088535845 0.22440192 0.05588594
-0.00233531 0.19267216 0.07748827 -0.11391927 -0.034010053 -0.2884186 0.14691192 0.11342749
-0.011902511 -0.27384228 -0.09498766 0.26820204 0.19483659 -0.04430324 -0.16425405 0.11791292
0.21187887 -0.27454564 -0.018388748 0.20796111 0.12096918 -0.14205743 -0.16744536 -0.07403065
-0.18087192 -0.15647896 -0.29708517 -0.25291792 -0.12260112 0.30359265 -0.21586952 0.27559385
0.12030479 0.14332452 -0.21130985 0.18303904 -0.28731892 -0.14422673 0.24812755 -0.16759652
0.25526878 -0.15424825 0.24985477 -0.058835387 0.30768558 0.19471613 -0.045633346 0.0070762336
-0.029394686 0.045018017 0.1729508 0.017246008 0.15356427 -0.11822231 0.27272967 -0.24470341
-0.2423887 0.043750077 0.11147347 -0.29420513 0.21508291 -0.13756834 -0.07483639 -0.083485246
-0.06620759 0.3023738 0.29924425 0.14030233 -0.18712865 -0.2896509 0.030477166 -0.18897255
-0.3053085 0.09380153 -0.1916366 -0.26044822 0.07253301 0.20846161 -0.24861512 -0.119275644
-0.23597306 -0.3145298 0.08387756 -0.18244526 0.21134767 0.005839646 0.25884596 0.116185516
0.21213678 -0.21553421 -0.14508525 -0.30236498 0.28170076 -0.19445181 -0.0042571127 -0.3074384
-0.06441361 -0.015059501 -0.25728607 -0.02030161 -0.061947733 0.056783587 -0.0385848 0.141161
-0.14840905 0.18350813 -0.04691103 0.19233331 0.083631694 -0.14330937 -0.29152358 -0.299815
-0.3007288 0.067732036 0.00067812204 0.049452662 -0.2826133 0.2148929 0.13068959 0.022283047
0.0016345978 -0.18336982 0.28659734 0.11018151 -0.03234327 0.13189715 0.18156245 0.040122986
0.09049219 0.12725925 0.05074364 -0.23715597 0.27276865 -0.05948794 -0.12631114 0.27185085
0.0023679435 -0.12744752 0.21201506 -0.010028273 0.27174464 0.28452364 0.1908938 0.026423186
0.06923264 -0.16804938 0.0034807026 0.14629021 0.015069634 0.23764285 0.21399519 0.0033469498
-0.2082985 -0.3084655 -0.1355072 -0.21461698 0.13540322 0.20889595 0.23249444 0.08232838
-0.0708496 -0.039107442 0.30995968 -0.011063933 -0.28529197 -0.10416624 -0.23450992 0.14636165
0.30434027 -0.30607224 0.06545156 0.053210527 0.24074253 0.3017626 0.18842492 0.18569109
00000000: 7131 43be 80b7 2c3e e837 9cbe fc98 ba3d
00000010: 6225 683e b5d5 3cbe 068f 21be 368b 3ebe
00000020: bac2 63be 3828 09bd 8064 233b 7536 82be
00000030: bc23 82be fbcc 96be 9051 e23c 6272 86be
00000040: b685 92bd 386b 61bd 021e 2dbe 8712 853e
00000050: ef91 9e3e 61b8 83be 80a4 4c3c a060 ed3d
00000060: d67b 763e a057 61bd 0098 34bd 625d b1bd
00000070: f24f 633e 00f5 623b 568d 97bd b6f2 583e
00000080: f0ce 6fbe 4e4c a0be 162e 553e e0fa da3c
00000090: 8627 6e3e 5bc2 9fbe 8a44 533e 6872 713d
000000a0: 8030 f0bb 0af2 08be f59c 823e 10e8 6bbe
000000b0: d054 64bd c037 063e 18a0 10bd 3acb 203e
000000c0: 834b 23be c005 b13b d0ee 56be 8cd2 103e
000000d0: 3cca 98bd 8aaa 033e 00d3 adbd 68a3 c83d
000000e0: 9425 bc3d a0b1 93bc 6031 e73c 26df 623e
000000f0: 5e90 653e 6d30 8cbe 8e13 afbd 12f6 073e
00000100: c63c 753e c4ab 1a3e 7048 ef3d f0ea 63bd
00000110: 235a 8abe a695 123e e821 65bd 9007 973c
00000120: d515 28be 2a94 773e 4e86 f9bd 1018 dcbd
00000130: 76b7 1b3e a00e 11bc 9ec9 653e a8e8 643d
00000140: 000c 19bb da4b 453e 2cb2 9e3d 824e e9bd
00000150: 204e 0bbd 9aab 93be 1470 163e ac4c e83d
00000160: c002 43bc 0e35 8cbe e488 c2bd c751 893e
00000170: 3e83 473e 5077 35bd 3732 28be 547c f13d
00000180: c6f6 583e 3f91 8cbe 00a4 96bc c2f3 543e
00000190: b0be f73d 8177 11be cc76 2bbe 629d 97bd
000001a0: 7d36 39be 053c 20be 8c1b 98be 757e 81be
000001b0: 4c16 fbbd 7f70 9b3e e60c 5dbe a31a 8d3e
000001c0: 5c62 f63d aac3 123e 9c61 58be 966e 3b3e
000001d0: 771b 93be 2cb0 13be 2615 7e3e 6c9e 2bbe
000001e0: 97b2 823e 41f3 1dbe eed9 7f3e 60fd 70bd
000001f0: f788 9d3e aa63 473e 08ea 3abd c0df e73b
00000200: 20cd f0bc d064 383d 041a 313e 8047 8d3c
00000210: f43f 1d3e 8a1e f2bd 39a3 8b3e 8893 7abe
00000220: be34 78be 4833 333d 344c e43d 0ea2 96be
00000230: b23e 5c3e b7de 0cbe d243 99bd 50fa aabd
00000240: d897 87bd bdd0 9a3e 8b36 993e 6aab 0f3e
00000250: a79e 3fbe 1f4d 94be 40ab f93c 0582 41be
00000260: 6551 9cbe 041b c03d 633c 44be 7859 85be
00000270: 308c 943d f676 553e f694 7ebe ca46 f4bd
00000280: eca2 71be 0d0a a1be 00c8 ab3d eed2 3abe
00000290: 866b 583e 805a bf3b 7587 843e acf2 ed3d
000002a0: 623a 593e 00b5 5cbe 3a91 14be 95cf 9abe
000002b0: 153b 903e 601e 47be 407f 8bbb 9168 9dbe
000002c0: 48eb 83bd 20bc 76bc 00bb 83be 904f a6bc
000002d0: e8bc 7dbd e895 683d 180b 1ebd 828c 103e
000002e0: 8bf8 17be 8ee9 3b3e c825 40bd 06f3 443e
000002f0: 1847 ab3d b1bf 12be 9442 95be 5a81 99be
00000300: 20f9 99be 18b7 8a3d 00c4 313a e08e 4a3d
00000310: b1b2 90be e20c 5c3e 7ed3 053e f08a b63c
00000320: 0040 d63a 4cc5 3bbe e3bc 923e d8a6 e13d
00000330: 607a 04bd 0c10 073e 82eb 393e 0058 243d
00000340: f853 b93d 4050 023e 90d8 4f3d 04d9 72be
00000350: 55a8 8b3e a0a9 73bd b557 01be 0930 8b3e
00000360: 802f 1b3b 9a81 02be 7a1a 593e a04d 24bc
00000370: 1d22 8b3e 15ad 913e aa79 433e 7075 d83c
00000380: d8c9 8d3d 2315 2cbe 801c 643b 1acd 153e
00000390: a0e6 763c a658 733e 8e21 5b3e 8058 5b3b
000003a0: 344c 55be 31ef 9dbe 66c2 0abe 8ec4 5bbe
000003b0: 24a7 0a3e d2e8 553e 0613 6e3e c89b a83d
000003c0: 9819 91bd 202f 20bd 09b3 9e3e 8045 35bc
000003d0: ca11 92be 1c55 d5bd 5e23 70be d4df 153e
000003e0: 7dd2 9b3e 80b5 9cbe 780b 863d 48f3 593d
000003f0: 3685 763e a180 9a3e 76f2 403e ce25 3e3e

decoder.2.bias f4 [30]
-0.10594426 -0.3140607 -0.15545271 0.1825333 0.009863764 0.16579798 0.17112294 -0.0427759
-0.22035195 -0.14563152 -0.10239239 -0.05260706 0.06876272 -0.014393806 -0.025256395 0.22574154
-0.0644052 -0.081140995 0.24508521 0.2145746 0.23195663 0.09030929 -0.15406606 0.12974182
-0.23273355 0.08790925 0.22646824 0.064645946 -0.27896863 -0.24450555
00000000: 4ef9 d8bd 90cc a0be ff2e 1fbe 02ea 3a3e
00000010: a09b 213c f2c6 293e da3a 2f3e c835 2fbd
00000020: f1a3 61be 6e20 15be 1ab3 d1bd 807a 57bd
00000030: 78d3 8c3d 00d4 6bbc 80e6 cebc ca28 673e
00000040: e0e6 83bd 402d a6bd 9ef7 7a3e 72b9 5b3e
00000050: 0a86 6d3e 14f4 b83d 7ec3 1dbe 0adb 043e
00000060: b451 6ebe c409 b43d 4ae7 673e 1865 843d
00000070: fad4 8ebe aa5f 7abe

decoder.4.weight f4 [60, 30]
-0.010459542 0.06443322 0.078852415 -0.1434271 0.10759434 -0.16770302 0.13656873 -0.0021546483
-0.05857995 -0.14324135 0.08466712 -0.16653384 0.124310434 -0.048708096 -0.17112868 -0.15044644
-0.017591923 0.14026007 -0.03079687 -0.023384586 0.07689166 -0.11885471 0.16712391 -0.10574307
0.15398201 -0.09536415 -0.13041401 0.086779475 0.10724771 0.1509566 -0.16396794 0.13844079
-0.1236016 -0.102867045 0.045825496 -0.14165011 0.025898695 -0.11984902 -0.104376175 0.09231046
0.021724537 -0.18081291 0.12056181 0.14915356 0.16973662 -0.06800613 0.0038337559 0.12239933
-0.10484285 0.08472958 -0.09379537 -0.15758568 0.077512324 0.034455195 0.02192621 -0.09994859
0.1373131 -0.18204635 -0.1521033 -0.019486308 -0.13103458 -0.10723447 -0.09866993 -0.15157028
0.15290555 0.15639469 0.14160675 0.017144859 -0.05621411 -0.14468965 -0.025572509 0.14112946
-0.065273724 0.060206354 0.10845852 -0.13667516 -0.028642789 -0.08647635 0.17700574 -0.14538002
0.03462392 0.17700252 0.07960531 0.16337568 0.035907224 0.082591146 0.16288099 -0.08326736
-0.043933958 -0.0150105655 0.08736467 0.05802235 0.04100038 -0.047314763 -0.022597909 -0.15122794
-0.16698506 -0.07730916 -0.13602728 0.17514467 0.0617788 0.16480324 0.1682441 -0.15165004
0.06995174 -0.1758231 -0.044293344 0.013687864 0.041138828 0.14361632 -0.13485691 -0.13919254
-0.074853756 -0.16156062 0.17191827 0.08716068 -0.0579063 0.047784567 -0.03321545 -0.002109766
0.09606367 -0.17238723 0.08486679 -0.040413216 -0.064599395 0.100523055 -0.15798032 -0.09713936
-0.11843413 -0.014193848 -0.031117737 -0.099927634 0.082960814 0.002801448 0.09280634 -0.086092465
-0.050635308 -0.14036967 -0.10295554 -0.00037933886 0.08597183 0.04609877 0.1300982 -0.05207768
0.024413764 0.009925321 -0.15604295 -0.08207852 0.13874751 -0.0693571 -0.023899809 0.026714116
-0.026422977 0.022549719 0.16512272 0.13874844 -0.020559356 -0.14183971 -0.022269025 -0.1669487
0.1290307 -0.08818349 0.09309837 -0.08579442 0.049518436 -0.010654911 -0.09252227 -0.049282357
0.08299184 0.12224832 -0.17815457 -0.15191728 -0.061375022 -0.06624749 0.11043799 -0.15077077
0.10593733 -0.02461411 0.041366026 0.048585474 0.111658186 0.15803611 0.18084389 -0.17298408
0.13884538 0.1291787 0.17774346 0.16947171 -0.1296617 -0.17030752 -0.014849111 -0.113189206
0.1818667 -0.098734 0.13132292 -0.08639682 0.15958065 0.11625418 0.034612954 -0.064708866
-0.046376526 -0.12861139 -0.12295641 -0.08564768 0.08114776 -0.13191076 -0.13568255 0.09476048
-0.16238281 -0.11277796 0.11922437 -0.13864581 0.07752743 0.045908332 0.047353238 -0.06123507
0.13568434 -0.047153562 0.036044344 -0.039481 -0.025364742 0.16464952 0.09368691 -0.1755981
-0.15993738 0.107467294 0.11760542 -0.18237571 -0.008485377 0.07092577 0.07186839 0.06484343
-0.05447851 0.08046773 0.035323977 0.15119171 -0.1694882 -0.055230603 0.16161627 0.07449323
-0.043652594 0.0387315 0.053555593 -0.14763688 -0.029345393 -0.03519568 0.058095455 0.06293595
0.04466784 0.017435595 0.09649122 0.026354045 -0.013318613 0.043130323 -0.17796388 0.04185106
00000000: 805e 2bbc 90f5 833d 607d a13d 8ede 12be
00000010: 6c5a dc3d 57ba 2bbe acd8 0b3e 0035 0dbb
00000020: 88f1 6fbd dcad 12be f465 ad3d d987 2abe
00000030: 7896 fe3d 2482 47bd 5b3c 2fbe a20e 1abe
00000040: f01c 90bc 56a0 0f3e b849 fcbc 0891 bfbc
00000050: 6079 9d3d 196a f3bd 8822 2b3e d38f d8bd
00000060: 76ad 1d3e 484e c3bd 408b 05be 70b9 b13d
00000070: b0a4 db3d 5e94 1a3e 36e7 27be 6cc3 0d3e
00000080: d622 fdbd f5ab d2bd 84b3 3b3d ba0c 11be
00000090: 8029 d43c 6773 f5bd 2dc3 d5bd 440d bd3d
000000a0: a8f7 b13c 0527 39be 1ce9 f63d b6bb 183e
000000b0: 70cf 2d3e cc46 8bbd c03f 7b3b 80ac fa3d
000000c0: d9b7 d6bd b486 ad3d c917 c0bd 245e 21be
000000d0: c8be 9e3d e420 0d3d 989e b33c d9b1 ccbd
000000e0: ce9b 0c3e 5c6a 3abe f8c0 1bbe c0a1 9fbc
000000f0: ee2d 06be bf9d dbbd 7613 cabd 3d35 1bbe
00000100: 4693 1c3e ee25 203e 5c01 113e 6073 8c3c
00000110: c440 66bd 8629 14be 707d d1bc 3e84 103e
00000120: 3bae 85bd f09a 763d 801f de3d 93f4 0bbe
00000130: 48a4 eabc 831a b1bd fe40 353e 80de 14be
00000140: d0d1 0d3d 2640 353e 1c08 a33d f44b 273e
00000150: 7413 133d 8c25 a93d 46ca 263e 1488 aabd
00000160: 18f4 33bd e0ee 75bc 40ec b23d d8a8 6d3d
00000170: 04f0 273d 20cd 41bd 401f b9bc 7fdb 1abe
00000180: 22fe 2abe 4454 9ebd bc4a 0bbe 2059 333e
00000190: c40b 7d3d 2ec2 283e 2e48 2c3e 264a 1bbe
000001a0: dc42 8f3d f90a 34be f06c 35bd 1043 603c
000001b0: 3081 283d 2810 133e ee17 0abe 7d88 0ebe
000001c0: ed4c 99bd 2670 25be 580b 303e 4c81 b23d
000001d0: 282f 6dbd c0b9 433d ec0c 08bd 0044 0abb
000001e0: 08bd c43d 4786 30be a4ce ad3d 5488 25bd
000001f0: b04c 84bd 08df cd3d 98c5 21be 00f1 c6bd
00000200: 988d f2bd 508d 68bc a0ea febc dca6 ccbd
00000210: 5ce7 a93d 8098 373b 4011 be3d 3f51 b0bd
00000220: f866 4fbd 11bd 0fbe 5bda d2bd 00e2 c6b9
00000230: 0012 b03d 10d2 3c3d 7638 053e 684f 55bd
00000240: 60ff c73c d09d 223c b9c9 1fbe c818 a8bd
00000250: d413 0e3e 180b 8ebd 88c9 c3bc 90d7 da3c
00000260: 0075 d8bc 30ba b83c ee15 293e 1214 0e3e
00000270: 186c a8bc 6e3e 11be 886d b6bc 9af4 2abe
00000280: a020 043e 8c99 b4bd 5caa be3d fcb4 afbd
00000290: d8d3 4a3d f091 2ebc 517c bdbd 4cdc 49bd
000002a0: a0f7 a93d 545d fa3d 276e 36be 3490 1bbe
000002b0: 6064 7bbd c4ac 87bd 502d e23d a763 1abe
000002c0: acf5 d83d 88a3 c9bc 6c6f 293d 9001 473d
000002d0: 0cad e43d 38d4 213e 242f 393e bd22 31be
000002e0: 7c2d 0e3e 6c47 043e 6202 363e fe89 2d3e
000002f0: 09c6 04be 1865 2ebe b049 73bc becf e7bd
00000300: 443b 3a3e 0d35 cabd 8479 063e d1f0 b0bd
00000310: 1c69 233e ac16 ee3d 50c6 0d3d 1586 84bd
00000320: 50f5 3dbd b4b2 03be 92d0 fbbd 0d68 afbd
00000330: cc30 a63d 9d13 07be 5ef0 0abe c811 c23d
00000340: ae47 26be 22f8 e6bd e82b f43d 2bf9 0dbe
00000350: b4c6 9e3d 600a 3c3d 78f5 413d a0d1 7abd
00000360: d6f0 0a3e 1824 41bd 3ca3 133d d4b6 21bd
00000370: b8c9 cfbc e299 283e ecde bf3d fdcf 33be
00000380: a0c6 23be d017 dc3d 1cdb f03d b3c0 3abe
00000390: 4006 0bbc 8841 913d bc2f 933d a2cc 843d
000003a0: dc24 5fbd 44cc a43d e0af 103d 00d2 1a3e
000003b0: 518e 2dbe 7c39 62bd bc7e 253e e88f 983d
000003c0: 10cd 32bd eca4 1e3d 1c5d 5b3d 1f2e 17be
000003d0: c065 f0bc 5829 10bd 80f5 6d3d 90e4 803d
000003e0: a0f5 363d 18d5 8e3c 309d c53d 70e4 d73c
000003f0: 5036 5abc 6ca9 303d 2a3c 36be 046c 2b3d

decoder.4.bias f4 [60]
0.08175078 0.063223064 0.004330471 0.14064643 -0.088275336 -0.083079055 0.09079 0.002507776
0.048031196 0.0081115365 -0.054577425 -0.07689361 0.05363074 -0.1699132 0.15633225 -0.17669336
-0.03597437 -0.17382051 -0.1274988 0.17298552 0.025537178 -0.14860283 -0.1359166 -0.10211865
0.022874162 -0.1234227 0.14805949 0.14217618 -0.17240354 -0.167478 0.15086544 -0.047410518
0.13710222 -0.05099669 -0.10608034 0.08220929 0.07793519 0.110621065 -0.10325452 0.123561144
0.17062789 -0.13638091 -0.041285247 0.15258157 -0.16731876 -0.040838957 -0.08462403 0.13329348
-0.12387167 0.020439833 -0.032863796 -0.0138392 -0.03318779 0.057023555 -0.15004158 -0.18054101
0.111252844 -0.07079284 -0.042853698 -0.078494094
00000000: f46c a73d 187b 813d a0e6 8d3b 9e05 103e
00000010: b3c9 b4bd 5a25 aabd 1cf0 b93d 8059 243b
00000020: 5cbc 443d 40e6 043c 948c 5fbd 667a 9dbd
00000030: e8ab 5b3d bafd 2dbe 9015 203e 1bef 34be
00000040: dc59 13bd 01fe 31be 0c8f 02be 1e23 313e
00000050: 5833 d13c 572b 18be b92d 0bbe 9523 d1bd
00000060: 9862 bb3c 0ac5 fcbd e89c 173e a296 113e
00000070: 8e8a 30be 5a7f 2bbe 787c 1a3e 8831 42bd
00000080: 8664 0c3e e8e1 50bd a640 d9bd 585d a83d
00000090: 7c9c 9f3d 4c8d e23d 1b77 d3bd a00d fd3d
000000a0: 14b9 2e3e 70a7 0bbe b81a 29bd 583e 1c3e
000000b0: 9c55 2bbe c046 27bd 5d4f adbd 167e 083e
000000c0: 6eb0 fdbd 7071 a73c 309c 06bd d0bd 62bc
000000d0: ecef 07bd 8891 693d 80a4 19be bedf 38be
000000e0: 88d8 e33d d6fb 90bd 5c87 2fbd 83c1 a0bd

decoder.6.weight f4 [118, 60]
-0.009187683 -0.05520682 -0.08496921 0.09387152 -0.00054228306 0.09848885 0.12190406 0.023344144
-0.09430425 -0.029511333 -0.11036645 0.08429217 -0.08849296 0.12449093 0.016113728 0.08300157
-0.09174893 0.04972057 -0.08910714 -0.12322602 0.03094843 -0.040019557 -0.07123821 -0.042331666
-0.11561406 -0.091962405 -0.057925716 0.11255251 0.086901635 -0.11958394 -0.123182 -0.06441232
-0.11492811 0.10993713 0.018313065 -0.12130496 -0.06614031 0.12173395 0.11790733 0.12511535
-0.028269343 -0.053977557 -0.122335576 -0.10217804 -0.03384821 -0.010334238 0.07360344 0.11927092
0.045614615 -0.018253103 -0.024878316 -0.0432508 0.047388673 0.041878015 -0.0901718 0.028114408
0.052848577 0.06046824 -0.07620174 0.1094037 0.12211721 -0.11345792 -0.043301105 0.09276657
-0.08373116 0.09369522 0.021502882 -0.07885216 0.09203693 -0.045426875 -0.08950777 0.07886924
0.06600392 0.07358469 0.0032742023 0.11075115 0.12900205 -0.11118707 0.07613613 0.04445517
0.08251865 -0.072959214 0.029694304 -0.123915434 -0.11712583 0.015765369 -0.018718429 -0.09472583
-0.07805736 0.100301564 -0.009759396 -0.102370314 0.06441888 -0.06170266 0.11387451 0.03936115
0.071398914 0.04030919 0.005146891 0.037602708 0.12832324 -0.023640908 0.035580784 -0.04296556
-0.0073686615 0.11418365 0.021120861 0.12490223 -0.04140032 -0.124634415 -0.0071481243 0.115506485
0.09778413 0.08199091 -0.04266286 -0.11761867 0.06598288 0.0067852437 -0.045260437 0.032825157
-0.004853204 0.034929454 0.062314153 -0.025738575 -0.10398935 0.010348439 0.057832733 -0.015230261
-0.012888722 -0.07129896 0.014847428 -0.105450794 0.11673857 -0.051964514 -0.014004566 0.0389674
0.08889544 0.09523806 -0.11443605 -0.026631586 0.05073172 -0.05514632 0.062722325 -0.08042532
-0.11144745 0.12520485 0.056491166 -0.04602786 0.07712376 0.12039341 0.08076158 -0.017869234
-0.105285004 -0.09751239 -0.05481036 -0.0028063506 0.108565345 -0.1140459 -0.0999189 -0.012029327
7.595122e-05 -0.060114674 0.09784238 -0.115300335 0.08736098 -0.06959712 0.03210607 0.106674954
0.036033288 -0.10907346 -0.056505814 -0.00703007 0.042938054 -0.044974938 -0.08011444 -0.09224204
0.025401011 -0.018094435 -0.03475844 -0.12787801 0.085171714 0.012019187 0.03455156 0.09230633
-0.03511241 0.09108849 -0.12218449 -0.01615759 0.07183856 0.01216352 -0.060963087 0.100998774
0.058486238 0.04000956 -0.09461212 0.043771744 -0.053925447 0.052106306 0.04800619 0.12791641
-0.11480486 0.026249409 -0.039461277 0.06917678 0.017827243 -0.120600015 0.106188744 -0.09969844
-0.012185469 0.038487315 0.050396472 -0.08926201 0.0828851 0.034755707 -0.078630716 0.049542695
0.02768378 -0.10137001 0.0028744787 0.03879173 -0.1105515 -0.066500045 -0.04776416 -0.056164958
0.007671699 -0.12889603 -0.05573178 0.005315259 -0.019111998 -0.07195018 0.016116932 0.036921695
-0.10313179 -0.09149617 0.082523525 -0.110315174 0.056452483 0.02369468 -0.09907445 -0.038040332
0.07895337 0.070659295 0.004087925 0.084894404 -0.014199205 0.034379527 -0.020867027 -0.12649076
0.0813005 0.08953081 -0.1206942 -0.033417545 -0.03764312 0.031499624 -0.018036619 0.09492667
00000000: f087 16bc 8c20 62bd 5604 aebd b63f c03d
00000010: 0028 0eba 86b4 c93d d6a8 f93d 383c bf3c
00000020: 9622 c1bd c0c1 f1bc ce07 e2bd 60a1 ac3d
00000030: cc3b b5bd 1af5 fe3d f000 843c bafc a93d
00000040: dde6 bbbd cca7 4b3d ce7d b6bd ec5d fcbd
00000050: 9087 fd3c 8ceb 23bd 57e5 91bd f863 2dbd
00000060: 10c7 ecbd c956 bcbd 8443 6dbd ee81 e63d
00000070: 7cf9 b13d 6de8 f4bd d846 fcbd 9bea 83bd
00000080: 6e5f ebbd b826 e13d 4805 963c bc6e f8bd
00000090: 9274 87bd a64f f93d 6679 f13d 3d1e 003e
000000a0: 1c95 e7bc 9217 5dbd 138b fabd b842 d1bd
000000b0: 6ca4 0abd f050 29bc 66bd 963d 5044 f43d
000000c0: 64d6 3a3d 8887 95bc 9ccd cbbc c027 31bd
000000d0: a01a 423d 4888 2b3d feab b8bd 3050 e63c
000000e0: c077 583d 8cad 773d a80f 9cbd 0c0f e03d
000000f0: 9618 fa3d a05c e8bd 805c 31bd 66fc bd3d
00000100: 3e7b abbd 48e3 bf3d d026 b03c 3e7d a1bd
00000110: dc7d bc3d 8811 3abd da4f b7bd 3286 a13d
00000120: 102d 873d 92b3 963d 0094 563b 80d1 e23d
00000130: 1d19 043e 0cb6 e3bd 42ed 9b3d a016 363d
00000140: 8aff a83d a46b 95bd 7841 f33c 60c7 fdbd
00000150: abdf efbd 6026 813c 6457 99bc 9eff c1bd
00000160: 8adc 9fbd e86a cd3d e0e5 1fbc 87a7 d1bd
00000170: 0cee 833d eebb 7cbd 0a37 e93d 2839 213d
00000180: 9839 923d 401b 253d 40a7 a83b 4c05 1a3d
00000190: 2b67 033e 94aa c1bc 28bd 113d a8fc 2fbd
000001a0: d074 f1bb 1ed9 e93d a805 ad3c becc ff3d
000001b0: 6293 29bd 5440 ffbd d03a eabb aa8e ec3d
000001c0: 0c43 c83d daea a73d 40bf 2ebd 0fe2 f0bd
000001d0: 0822 873d c056 de3b 0263 39bd ac73 063d
000001e0: a007 9fbb 3012 0f3d 203d 7f3d b4d9 d2bc
000001f0: 5ef8 d4bd 808c 293c 04e2 6c3d 5888 79bc
00000200: 382b 53bc 3005 92bd a042 733c 96f6 d7bd
00000210: a214 ef3d bed8 54bd 6873 65bc 489c 1f3d
00000220: d00e b63d 2c0c c33d 735d eabd 7c2a dabc
00000230: 10cc 4f3d 1ce1 61bd 9074 803d 08b6 a4bd
00000240: 903e e4bd b335 003e 4863 673d b687 3cbd
00000250: 10f3 9d3d d290 f63d 5466 a53d 8062 92bc
00000260: aa9f d7bd 93b4 c7bd d480 60bd c0ea 37bb
00000270: 8257 de3d e690 e9bd 48a2 ccbd a816 45bc
00000280: 0048 9f38 ce3a 76bd 9661 c83d 9522 ecbd
00000290: 50ea b23d ef88 8ebd a881 033d 6678 da3d
000002a0: a497 133d e861 dfbd a472 67bd 805c e6bb
000002b0: d0df 2f3d a437 38bd 0a13 a4bd 65e9 bcbd
000002c0: c815 d03c c83a 94bc de5e 0ebd 74f2 02be
000002d0: 826e ae3d 20ec 443c f085 0d3d 1a0b bd3d
000002e0: 08d2 0fbd 9a8c ba3d dd3b fabd ec5c 84bc
000002f0: 1820 933d 8049 473c 6eb4 79bd 72d8 ce3d
00000300: 448f 6f3d 10e1 233d 00c4 c1bd 004a 333d
00000310: eee0 5cbd 6c6d 553d 24a2 443d 85fc 023e
00000320: cf1e ebbd 0009 d73c 26a2 21bd 8eac 8d3d
00000330: 700a 923c 24fd f6bd 7c79 d93d b22e ccbd
00000340: 90a5 47bc e0a4 1d3d 886c 4e3d 00cf b6bd
00000350: aabf a93d 005c 0e3d 2409 a1bd 48ed 4a3d
00000360: 18c9 e23c 149b cfbd c061 3c3b 14e4 1e3d
00000370: d368 e2bd 2d31 88bd 5aa4 43bd 3a0d 66bd
00000380: e062 fb3b 52fd 03be 0247 64bd a02b ae3b
00000390: c490 9cbc 9e5a 93bd a807 843c 343b 173d
000003a0: c336 d3bd 5862 bbbd 1802 a93d ecec e1bd
000003b0: b83a 673d 581b c23c 8ce7 cabd 2ed0 1bbd
000003c0: 4eb2 a13d d2b5 903d 00f4 853b 1edd ad3d
000003d0: c8a3 68bc 8cd1 0c3d 54f1 aabc cb86 01be
000003e0: e080 a63d ee5b b73d 852e f7bd d6e0 08bd
000003f0: ac2f 1abd c005 013d 88c1 93bc ea68 c23d

decoder.6.bias f4 [118]
-0.04505241 0.03196171 0.025354221 -0.002108872 0.04045677 0.12044661 -0.016871743 -0.058826804
0.051073045 0.035284713 0.055440605 0.030180365 -0.06187495 0.083415195 -0.0012155324 -0.121639796
0.08874951 0.10551573 -0.06138829 -0.09241567 -0.12855938 -0.046628684 0.09412962 -0.02121596
0.09936066 0.061170265 0.08556683 0.12785922 0.09128447 0.056349844 0.009671181 -0.12767896
-0.03708473 -0.01928804 0.050204664 -0.10064305 0.07304323 0.079688475 0.046572685 -0.055160232
0.017329648 0.00878568 -0.0675225 0.078281775 0.0419212 -0.048280537 0.10785659 -0.014424168
0.120818615 -0.025895871 0.037449196 0.016073748 0.03461565 -0.11962622 -0.060858928 0.08944954
-0.0728734 -0.072724 0.10652533 0.03807302 0.0056746155 0.019067422 -0.110173725 -0.100122094
0.033124804 0.06818305 -0.09299854 0.08275071 0.085491925 0.12818567 -0.10491867 0.08373378
0.11183703 -0.016888581 -0.0012182593 -0.009344503 -0.054104075 -0.038637407 -0.064955324 -0.09912156
0.03166592 -0.013707638 -0.10956133 0.111560196 -0.030063659 0.09462638 -0.08274773 0.09709689
-0.10433203 0.07806805 -0.03597053 -0.103841476 0.004791975 0.03904806 -0.11984272 0.058177873
-0.049140938 0.033903062 0.032163948 0.043924868 -0.007916667 -0.021737598 -0.11979356 -0.016430065
0.010164067 -0.029702649 0.11460106 0.07364592 0.1279137 -0.020818964 0.070715636 -0.061667815
0.055432096 -0.08312941 0.12082945 -0.029487759 -0.04713232 0.019253537
00000000: e088 38bd 48ea 023d a8b3 cf3c 0035 0abb
00000010: 00b6 253d b6ac f63d 9c36 8abc 60f4 70bd
00000020: f831 513d b486 103d b015 633d d03c f73c
00000030: 9670 7dbd 96d5 aa3d 8052 9fba 491e f9bd
00000040: 4ec2 b53d a218 d83d 4a72 7bbd 6d44 bdbd
00000050: 12a5 03be b8fd 3ebd 08c7 c03d 18cd adbc
00000060: 9a7d cb3d ac8d 7a3d aa3d af3d 87ed 023e
00000070: 5af3 ba3d 18cf 663d e073 1e3c 46be 02be
00000080: 28e6 17bd f401 9ebc 68a3 4d3d f21d cebd
00000090: b097 953d b633 a33d 00c3 3e3d b2ef 61bd
000000a0: e8f6 8d3c d0f1 0f3c 3d49 8abd 3252 a03d
000000b0: 90b5 2b3d d0c1 45bd eae3 dc3d 5853 6cbc
000000c0: c06f f73d 9423 d4bc 5464 193d 18ad 833c
000000d0: 24c9 0d3d 97fe f4bd 3647 79bd 5231 b73d
000000e0: a63e 95bd 52f0 94bd f429 da3d 74f2 1b3d
000000f0: 20f2 b93b 4833 9c3c c3a2 e1bd d00c cdbd
00000100: e0ad 073d 8ea3 8b3d 0576 bebd 3479 a93d
00000110: 6416 af3d 1b43 033e 9adf d6bd 9e7c ab3d
00000120: d00a e53d ec59 8abc 00ae 9fba b019 19bc
00000130: 3c9c 5dbd 4242 1ebd 4c07 85bd 3f00 cbbd
00000140: 20b4 013d 0096 60bc b161 e0bd ac79 e43d
00000150: 1048 f6bc 7acb c13d a477 a9bd bcda c63d
00000160: 08ac d5bd 24e2 9f3d d655 13bd d7aa d4bd
00000170: 0006 9d3b dcf0 1f3d 1a70 f5bd ec4b 6e3d
00000180: 0248 49bd f0dd 0a3d 58be 033d 90ea 333d
00000190: e8b4 01bc 0c13 b2bc 5356 f5bd 5898 86bc
000001a0: 3087 263c f852 f3bc f6b3 ea3d acd3 963d
000001b0: cffb 023e 888c aabc 5cd3 903d 6497 7cbd
000001c0: c40c 633d c13f aabd 6e75 f73d 5090 f1bc
000001d0: d20d 41bd 98b9 9d3c

estimation.0.weight f4 [10, 3]
0.08863956 -0.4392389 -0.11116478 -0.0981473 -0.35865307 0.40185302 -0.33491474 -0.5200418
-0.43963212 -0.5216203 0.5497619 -0.22060326 0.47430515 0.15725839 0.47561014 -0.0022440553
0.31723237 0.33276427 -0.18505254 -0.20294937 -0.45764267 -0.17771539 0.4636333 -0.19255087
0.0975278 0.32901174 -0.21144429 -0.37755027 -0.32793897 -0.04244274
00000000: a888 b53d ece3 e0be 5caa e3bd 7401 c9bd
00000010: 60a1 b7be aebf cd3e f279 abbe 7621 05bf
00000020: 7617 e1be e888 05bf 32bd 0c3f d2e5 61be
00000030: 20d8 f23e 5808 213e 2c83 f33e 0011 13bb
00000040: 486c a23e 1460 aa3e 6a7e 3dbe f6d1 4fbe
00000050: 2450 eabe 06fb 35be 5861 ed3e 0e2c 45be
00000060: a8bc c73d 3a74 a83e da84 58be 454e c1be
00000070: 9ee7 a7be 70d8 2dbd

estimation.0.bias f4 [10]
-0.2811825 0.22756034 0.46832705 -0.15006468 0.560061 0.3141063 -0.0013850331 -0.5542501
0.3153785 0.16684413
00000000: 27f7 8fbe 9405 693e 90c8 ef3e 8eaa 19be
00000010: 2860 0f3f 8ad2 a03e 008a b5ba 56e3 0dbf
00000020: 4a79 a13e 30d9 2a3e

estimation.3.weight f4 [4, 10]
-0.2803985 -0.23047122 0.0511553 -0.23722348 0.12870404 0.04444343 -0.16613258 0.10492256
0.18754616 -0.028850853 0.04934138 0.099689126 -0.22745243 -0.25309935 -0.27994192 0.24112752
0.03088814 -0.2546008 -0.3027051 0.14208648 -0.03993061 0.31035456 -0.20878111 -0.08550702
-0.18227136 -0.15763396 -0.3139748 0.2862353 -0.0965403 0.080135345 -0.116648525 -0.02663654
-0.2548582 0.1845899 0.21659335 0.098547995 0.011056155 0.22495988 0.25353298 -0.2871917
00000000: 6490 8fbe a600 6cbe 3888 513d b6ea 72be
00000010: feca 033e 500a 363d a91e 2abe a4e1 d63d
00000020: 1a0c 403e a058 ecbc 301a 4a3d d029 cc3d
00000030: 4ae9 68be 3d96 81be 8c54 8fbe 22ea 763e
00000040: 2009 fd3c 095b 82be 2afc 9abe 1e7f 113e
00000050: 488e 23bd cbe6 9e3e b7ca 55be 4e1e afbd
00000060: 58a5 3abe cc6a 21be 4ec1 a0be 6f8d 923e
00000070: ecb6 c5bd 001e a43d 6ce5 eebd e034 dabc
00000080: c67c 82be 2205 3d3e a6ca 5d3e 88d3 c93d
00000090: e024 353c e25b 663e 13cf 813e ca0a 93be

estimation.3.bias f4 [4]
0.07559466 -0.0019642413 0.031808943 -0.13456611
00000000: 60d1 9a3d 80ba 00bb 184a 023d b3cb 09be
