dagmm/models/197_66_dagmm.pth (torch_old, 80810 bytes, 22 tensors)

phi f4 [4]
0.29422414 0.2158682 0.24762309 0.24228452
00000000: 8ca4 963e 8e0c 5d3e e890 7d3e 6f19 783e

mu f4 [4, 3]
0.096773 1.1317737 0.005709981 0.09682754 1.1318661 0.0060180663 0.09677562 1.1321851
0.0054308353 0.09669977 1.1322529 0.005258852
00000000: ec30 c63d f6dd 903f cb1a bb3b 844d c63d
00000010: fde0 903f 3333 c53b 4c32 c63d 71eb 903f
00000020: 26f5 b13b 870a c63d aaed 903f 7352 ac3b

cov f4 [4, 3, 3]
0.00030985483 -0.00017404932 0.00010598069 -0.00017404932 0.0005711739 -0.00064704113 0.00010598069 -0.00064704113
0.002181844 0.00031027864 -0.00017057171 0.00010113373 -0.00017057171 0.00057175197 -0.000662905 0.00010113373
-0.000662905 0.0022219408 0.00031487393 -0.00017150787 0.00010917405 -0.00017150787 0.00057667063 -0.0006676371
0.00010917405 -0.0006676371 0.0022356776 0.00031255238 -0.00017170091 0.00010411555 -0.00017170091 0.0005758325
-0.00064973184 0.00010411555 -0.00064973184 0.002175913
00000000: 0374 a239 0281 36b9 f341 de38 0281 36b9
00000010: d5ba 153a 329e 29ba f341 de38 329e 29ba
00000020: 45fd 0e3b e5ac a239 7fdb 32b9 c217 d438
00000030: 7fdb 32b9 a0e1 153a cdc6 2dba c217 d438
00000040: cdc6 2dba fb9d 113b aa15 a539 cbd6 33b9
00000050: 5ff4 e438 cbd6 33b9 b62b 173a 5e04 2fba
00000060: 5ff4 e438 5e04 2fba 7284 123b 12de a339
00000070: 9d0a 34b9 9c58 da38 9d0a 34b9 77f3 163a
00000080: c452 2aba 9c58 da38 c452 2aba c399 0e3b

encoder.0.weight f4 [60, 122]
0.047851965 -0.065580286 -0.0027776435 -0.006286122 0.06629795 -0.06658571 0.038154766 0.030305304
0.046716332 -0.07736123 -0.08846687 -0.075206965 0.010220498 -0.043732967 -0.0720568 -0.006529063
0.06161025 -0.04879822 0.06637168 -0.05126051 0.0001699403 -0.08105312 -0.080500625 0.05020231
-0.079764 0.056649566 -0.07214721 0.06445275 0.059155345 -0.0746485 0.034102783 -0.04103165
-0.0063648 -0.05816515 -0.017423294 -0.08906564 0.0053156614 -0.07442643 0.04123278 -0.018932246
-0.042819504 -0.047809888 0.01971154 -0.089856476 -0.012467802 -0.07198282 -0.06659877 -0.040599294
0.049820736 -0.038262967 -0.08050688 -0.07559452 -0.077732295 0.02759181 -0.07530217 0.056498364
-0.049903877 0.019431017 0.050423846 -0.034743544 -0.083638385 -0.05282011 -0.050058085 -0.07392282
-0.08549374 0.024438769 -0.08307744 -0.0054289475 0.0032401308 -0.052433956 -0.012646012 -0.017771706
0.060827285 0.06795712 -0.049272634 0.04767637 -0.07587534 -0.0472269 0.05676791 0.065398514
0.020099305 0.04152459 -0.08310877 0.044935882 -0.06633754 -0.020913713 0.026844986 -0.07777475
-0.08417443 -0.05689378 0.05418724 -0.07592789 0.084003985 0.06390689 -0.06816009 0.066646785
-0.059140574 -0.033996288 -0.052109 -0.05522306 -0.042651076 0.02200032 -0.05397235 0.07431528
-0.06872134 0.041687086 0.089615434 -0.05594055 0.034619987 -0.06554489 -0.05176766 -0.040749833
0.050847083 0.016746439 -0.05831518 0.07499538 -0.048027165 -0.027774185 0.065088436 0.074190035
-0.011312649 -0.0815417 -0.001321882 0.0682382 -0.034622155 -0.012227751 -0.036223825 0.07169679
0.03308831 -0.05003434 0.049694568 -0.022601388 0.029914275 -0.08974583 -0.07133883 -0.026140496
-0.045678414 -0.00095538795 -0.039604045 0.027140886 -0.030736804 0.019175693 0.04112917 -0.06681142
-0.06683449 -0.037318412 -0.0440158 -0.014286667 -0.044210546 0.032336466 -0.08546894 0.0197957
0.062387988 -0.032914266 -0.072793156 0.07113749 0.08624366 0.046098217 0.036411703 -0.036862202
-0.07300476 -0.032817584 0.08454585 0.07848635 0.030570336 -0.020853698 -0.056680128 -0.005273193
-0.037023954 0.033674017 0.042910025 -0.02852713 -0.04275887 -0.018207707 -0.030149985 -0.02132313
-0.05424863 -0.07609797 0.069439456 -0.07041286 0.08599816 0.0089416355 -0.039577484 0.035704672
0.076930374 0.07018988 -0.08203745 0.021615528 0.014430888 -0.08549558 -0.0888836 0.026579522
-0.014210522 -0.08238261 0.0063721836 -0.007881358 0.054667056 -0.033959754 0.022206642 0.04658474
-0.048810318 0.02654671 0.052953333 -0.051773563 0.03466615 0.012516804 0.049865067 0.017813094
-0.0053120404 0.090492204 -0.08258945 -0.038595285 0.083514765 -0.040538512 -0.06381054 -0.028321948
-0.052897923 -0.04691131 0.020490669 -0.058537565 -0.051637057 -0.0009447932 -0.027610347 0.018640742
0.060982406 0.027070858 -0.087112404 0.01072295 0.080172405 -0.029895332 0.021854132 -0.008325987
-0.0786024 0.023073338 0.0440861 0.08048192 0.073578596 -0.08760861 0.0271921 -0.011843674
-0.011599384 -0.0142128095 0.043039814 0.04040824 -0.020787843 0.038583234 -0.026308656 -0.030493539
-0.02185084 0.0685913 -0.0053132996 0.025739193 -0.01221969 -0.02426906 0.04394065 0.03158492
00000000: 6c00 443d f54e 86bd 2009 36bb d0fb cdbb
00000010: 38c7 873d 175e 88bd 2c48 1c3d d442 f83c
00000020: a059 3f3d 916f 9ebd 1e2e b5bd 1c06 9abd
00000030: e073 273c 5721 33bd 8492 93bd c0f1 d5bb
00000040: 085b 7c3d a4e0 47bd e0ed 873d 8af6 51bd
00000050: 0032 3239 2eff a5bd 83dd a4bd f0a0 4d3d
00000060: 4f5b a3bd 6009 683d ebc1 93bd ceff 833d
00000070: e04c 723d 50e1 98bd 5caf 0b3d ce10 28bd
00000080: d08f d0bb 953e 6ebd 4cbb 8ebc 0c68 b6bd
00000090: 002f ae3b e26c 98bd b4e3 283d cc17 9bbc
000000a0: 8163 2fbd 4dd4 43bd 187a a13c ac06 b8bd
000000b0: c045 4cbc bb6b 93bd f064 88bd 724b 26bd
000000c0: d410 4c3d a1b9 1cbd cbe0 a4bd 4dd1 9abd
000000d0: 1c32 9fbd 3808 e23c 0638 9abd d46a 673d
000000e0: 0268 4cbd cc2d 9f3c 3c89 4e3d 3f4f 0ebd
000000f0: 9a4a abbd e659 58bd b509 4dbd d964 97bd
00000100: 5817 afbd d033 c83c 8124 aabd 50e5 b1bb
00000110: 6058 543b fdc4 56bd 3831 4fbc f895 91bc
00000120: 0826 793d 1a2d 8b3d 1ad2 49bd 4c48 433d
00000130: 8864 9bbd fe70 41bd 7885 683d a8ef 853d
00000140: 4ca7 a43c b015 2a3d ee34 aabd b00e 383d
00000150: fadb 87bd 3c53 abbc 04ea db3c 5e48 9fbd
00000160: a563 acbd 7409 69bd 70f3 5d3d 1580 9bbd
00000170: 480a ac3d 9ee1 823d 8497 8bbd 1c7e 883d
00000180: 633d 72bd b13f 0bbd 3f70 55bd 9331 62bd
00000190: e5b2 2ebd 043a b43c 1c12 5dbd 9c32 983d
000001a0: c6bd 8cbd 14c0 2a3d 4c88 b73d eb21 65bd
000001b0: b0cd 0d3d 663c 86bd 530a 54bd 4ce9 26bd
000001c0: 0845 503d d42f 893c e6db 6ebd 2e97 993d
000001d0: 22b8 44bd b086 e3bc 164d 853d f2f0 973d
000001e0: b058 39bc 56ff a6bd 0043 adba 78c0 8b3d
000001f0: f6cf 0dbd e856 48bc 6f5f 14bd c4d5 923d
00000200: 9c87 073d cff0 4cbd 888c 4b3d 8c26 b9bc
00000210: c80e f53c a9cc b7bd 181a 92bd 9824 d6bc
00000220: 4a19 3bbd 0073 7aba da37 22bd 9056 de3c
00000230: c0cb fbbc 5816 9d3c 1077 283d 6dd4 88bd
00000240: 85e0 88bd 31db 18bd e949 34bd a012 6abc
00000250: 1e16 35bd 3e73 043d 570a afbd 982a a23c
00000260: 8c8a 7f3d 1cd1 06bd 9414 95bd 88b0 913d
00000270: 84a0 b03d 7cd1 3c3d 7024 153d d2fc 16bd
00000280: 8583 95bd bb6b 06bd 6026 ad3d 74bd a03d
00000290: a46e fa3c 60d5 aabc 6c29 68bd c0ca acbb
000002a0: 6ea6 17bd c4ed 093d 6cc2 2f3d bab1 e9bc
000002b0: ed23 2fbd 5428 95bc 1afd f6bc d8ad aebc
000002c0: d033 5ebd 41d9 9bbd 4636 8e3d 9e34 90bd
000002d0: ce1f b03d f07f 123c 001c 22bd 103f 123d
000002e0: ac8d 9d3d b6bf 8f3d 4003 a8bd 0c13 b13c
000002f0: 886f 6c3c 4f18 afbd 9b08 b6bd 4cbd d93c
00000300: 40d3 68bc 37b8 a8bd c0cd d03b d020 01bc
00000310: 90ea 5f3d 6219 0bbd b4ea b53c a4cf 3e3d
00000320: 54ed 47bd 7c78 d93c 98e5 583d 8410 54bd
00000330: 18fe 0d3d 4813 4d3c 503f 4c3d c4ec 913c
00000340: a010 aebb fa53 b93d a824 a9bd 1716 1ebd
00000350: ca09 ab3d b60b 26bd 1aaf 82bd 6e03 e8bc
00000360: 7eab 58bd 1326 40bd 0cdc a73c 16c5 6fbd
00000370: 6181 53bd 00ac 77ba 182f e2bc 78b4 983c
00000380: b0c8 793d b4c3 dd3c fd67 b2bd 50af 2f3c
00000390: 6e31 a43d 0ee7 f4bc 7007 b33c b869 08bc
000003a0: 4cfa a0bd 4c04 bd3c a093 343d b4d3 a43d
000003b0: 60b0 963d 256c b3bd f8c1 de3c f80b 42bc
000003c0: 580b 3ebc d8dc 68bc 844a 303d 1c83 253d
000003d0: 444b aabc 7409 1e3d 4085 d7bc 96cd f9bc
000003e0: 8800 b3bc 9879 8c3d 301b aebb 00db d23c
000003f0: 1835 48bc e8cf c6bc 1cfb 333d 305f 013d

encoder.0.bias f4 [60]
0.010212921 -0.014685489 0.01514554 -0.0077208057 -0.052512605 0.070646405 0.027429767 0.083009765
0.088326156 0.07178973 0.08783424 0.0098756775 0.023654602 0.075096056 0.044286042 -0.0072997957
0.026566938 -0.06063761 -0.0045127496 -0.044841602 0.016468778 0.05862458 -0.00648883 0.07043779
-0.03394022 -0.029959686 -0.035934474 -0.080666155 0.008078411 -0.05925693 0.00442262 0.022050783
-0.006113313 -0.05446931 0.066020414 -0.07499407 0.04520428 0.05980675 -0.05416284 0.0295197
0.062959835 0.019492447 -0.010063872 0.053360566 0.031385995 0.015866868 -0.05613608 -0.02820009
0.070076436 0.040989414 0.04419726 -0.08929951 0.08862218 -0.01935453 0.05528575 0.0048192665
-0.026943237 0.03174711 0.01333867 0.080266654
00000000: 1854 273c 689b 70bc 0025 783c d0fe fcbb
00000010: 7517 57bd 10af 903d 64b4 e03c 0601 aa3d
00000020: 58e4 b43d 7e06 933d 70e2 b33d 98cd 213c
00000030: 4cc7 c13c f6cb 993d 4865 353d 2033 efbb
00000040: e8a2 d93c 245f 78bd b0df 93bb d4ab 37bd
00000050: 88e9 863c 5420 703d 40a0 d4bb b041 903d
00000060: e604 0bbd 046e f5bc 0730 13bd 4c34 a5bd
00000070: 505b 043c 65b7 72bd a0eb 903b d8a3 b43c
00000080: 3052 c8bb 361b 5fbd b635 873d 7e96 99bd
00000090: 2028 393d ecf7 743d dbd9 5dbd 4cd3 f13c
000000a0: 16f1 803d a0ae 9f3c f0e2 24bc 9c90 5a3d
000000b0: 9a8e 003d 3cfb 813c f2ee 65bd e003 e7bc
000000c0: 3c84 8f3d 84e4 273d 3008 353d a9e2 b6bd
000000d0: 8c7f b53d 648d 9ebc 5073 623d f0ea 9d3b
000000e0: 10b8 dcbc 4209 023d 708a 5a3c d862 a43d

encoder.2.weight f4 [30, 60]
-0.08545153 -0.101513654 0.095305935 0.08934264 0.098642975 0.105210096 -0.024133094 -0.026619658
-0.06588348 -0.043704122 -0.10614503 -0.05935403 -0.12184319 0.072373256 0.08271982 0.057512462
0.06135221 0.09619841 0.07199544 0.014224961 -0.049321525 -0.08463717 0.065594226 0.116229355
0.06631805 0.029133618 -0.009505495 -0.0459169 0.074242726 0.009176135 -0.022351287 -0.097344175
-0.065774955 0.0014439076 0.030222088 0.04613462 0.011725634 -0.10253371 0.11641893 -0.07392295
-0.12616691 0.06825079 0.115395784 0.08458941 -0.0011020154 0.027730271 0.11691953 -0.08409034
-0.04795581 -0.06508586 0.070458815 -0.105437145 -0.02166599 -0.07180598 -0.12810917 -0.014707863
0.031492323 0.085273534 -0.116377376 -0.020972647 -0.025260508 0.04932463 -0.08682172 0.008987755
0.016051516 0.068701416 0.082417235 -0.09008346 -0.030563816 -0.08616417 0.04461801 -0.09493965
-0.06718595 -0.077587575 -0.1085111 0.004684657 0.007661432 -0.051853463 0.061390683 -0.044266313
-0.11268924 -0.031083114 0.10566883 -0.11856554 0.117718816 0.05086243 -0.08730656 0.052050263
0.1053803 -0.06868951 0.010741666 -0.059221506 0.0062036067 -0.12727404 0.06715232 -0.0042616203
-0.051470473 -0.031012028 0.11140117 -0.100991294 0.04583049 -0.061354354 0.043714583 -0.09552123
-0.11585197 -0.06544364 0.07202752 -0.084642455 0.024338856 0.11106855 -0.008051679 0.12731601
0.120674446 -0.12192166 0.072267726 -0.046852656 0.030633003 -0.090585046 0.08227903 0.020390525
0.116375536 0.0005915016 -0.08375426 0.031659737 0.12866719 0.100789085 0.042185664 0.06436893
0.082991764 0.01711917 0.119108126 -0.046412855 -0.026894443 0.02569379 -0.04037445 -0.12125896
0.04465671 -0.037847154 -0.04830213 -0.07754126 0.11830531 0.12505095 -0.10942088 -0.04063134
0.052144304 0.057180107 -0.115490735 0.06159714 -0.05095531 -0.07774007 -0.039617546 0.07775022
-0.07438221 0.07770623 0.004370436 -0.006885439 -0.09758698 -0.12829165 0.07223846 0.11693512
-0.122308135 0.042881638 -0.02944865 0.03260708 -0.116483286 -0.06922173 -0.029310532 0.08162972
-0.087526925 0.017196715 -0.033912353 -0.026225448 -0.0041207075 0.031198815 0.05999036 0.10124184
0.106690094 -0.091291204 0.08129795 -0.102727436 -0.09073654 0.103192076 -0.11650486 0.05105537
-0.109211445 0.08791402 -0.1139695 0.083717555 -0.053321533 -0.025598295 0.11085723 -0.07078053
0.12324624 0.09777889 -0.06429014 -0.010628693 -0.074308366 0.12399672 0.046674713 0.051429167
0.05936706 0.12386362 0.05683489 -0.08187494 0.009007007 -0.006956503 0.067558914 0.11401008
0.0409725 0.12784396 -0.015139505 0.033549428 -0.057973623 0.025742829 0.09511669 0.03694883
-0.0010461658 -0.0013873577 -0.009921789 0.08663635 0.10920413 -0.07479147 0.08709039 0.070322484
-0.0052706227 0.00850524 0.05195211 0.090934485 -0.0022526234 -0.106217146 -0.12224085 0.08659862
0.053301945 0.03834437 0.012728125 0.097314596 -0.019613847 0.076076835 0.111058354 0.044438317
0.0077119768 0.12492843 0.11179218 -0.12282514 0.102805555 0.011781499 -0.066149496 0.051968962
-0.01556582 -0.020819992 0.019223943 -0.011414483 -0.11218345 -0.055289216 -0.058817245 0.09767242
00000000: 3601 afbd 64e6 cfbd c22f c33d 46f9 b63d
00000010: 5405 ca3d 6478 d73d c4b2 c5bc 7811 dabc
00000020: ebed 86bd 1803 33bd 9162 d9bd 361d 73bd
00000030: ec88 f9bd 6e38 943d 0269 a93d 3092 6b3d
00000040: 744c 7b3d ac03 c53d 5872 933d d00f 693c
00000050: 5e05 4abd 4156 adbd 4456 863d a809 ee3d
00000060: c2d1 873d a0a9 ee3c f0bc 1bbc 5c13 3cbd
00000070: 920c 983d 8057 163c 0c1a b7bc 625c c7bd
00000080: 05b5 86bd 8041 bd3a 5094 f73c a8f7 3c3d
00000090: e01c 403c 32fd d1bd 0c6d ee3d ea64 97bd
000000a0: e631 01be 12c7 8b3d a054 ec3d 363d ad3d
000000b0: 8071 90ba 982a e33c 8273 ef3d 8e37 acbd
000000c0: 506d 44bd bc4b 85bd b64c 903d 6eef d7bd
000000d0: e07c b1bc 030f 93bd 0d2f 03be 40f9 70bc
000000e0: 18fe 003d e4a3 ae3d 4357 eebd d4ce abbc
000000f0: 20ef cebc a008 4a3d 96cf b1bd 6041 133c
00000100: 787e 833c 54b3 8c3d 5eca a83d ad7d b8bd
00000110: f860 fabc d776 b0bd 60c1 363d b86f c2bd
00000120: ca98 89bd 3ce6 9ebd 113b debd c081 993b
00000130: c00c fb3b 4c64 54bd cc74 7b3d 9850 35bd
00000140: 9ec9 e6bd 04a2 febc e668 d83d 7dd2 f2bd
00000150: 9016 f13d 2055 503d c8cd b2bd a832 553d
00000160: a0d1 d73d 16ad 8cbd d0fd 2f3c 4092 72bd
00000170: a047 cb3b 2054 02be 2887 893d 10a5 8bbb
00000180: b4d2 52bd f00c febc 4c26 e43d 86d4 cebd
00000190: c0b8 3b3d b44e 7bbd 100e 333d a2a0 c3bd
000001a0: cc43 edbd 5107 86bd 2a83 933d 0659 adbd
000001b0: 4862 c73c e877 e33d 30eb 03bc 215f 023e
000001c0: 2a24 f73d 10b2 f9bd 1a01 943d 92e8 3fbd
000001d0: 10f2 fa3c a784 b9bd e881 a83d 080a a73c
000001e0: 4c56 ee3d 000f 1b3a 5a87 abbd a4ad 013d
000001f0: 55c1 033e 826a ce3d e0ca 2c3d dcd3 833d
00000200: 96f7 a93d 803d 8c3c f6ee f33d 681b 3ebd
00000210: bc51 dcbc c87b d23c ae5f 25bd 9e56 f8bd
00000220: f4e9 363d 9e05 1bbd 74d8 45bd f4cd 9ebd
00000230: 0e4a f23d 5b0d 003e 0e18 e0bd 0c6d 26bd
00000240: 4495 553d b035 6a3d 6886 ecbd 484d 7c3d
00000250: 84b6 50bd 3036 9fbd 0246 22bd 823b 9f3d
00000260: b355 98bd 7224 9f3d e035 8f3b 409f e1bb
00000270: afdb c7bd e35e 03be c2f1 933d ae7b ef3d
00000280: b07c fabd a8a4 2f3d 4c3e f1bc 008f 053d
00000290: ca8e eebd 1fc4 8dbd a41c f0bc 7c2d a73d
000002a0: 5141 b3bd 20e0 8c3c aee7 0abd c0d6 d6bc
000002b0: 0007 87bb a894 ff3c 74b8 753d e257 cf3d
000002c0: 5680 da3d e2f6 babd 8a7f a63d c362 d2bd
000002d0: 14d4 b9bd 5e56 d33d 1a9a eebd 701f 513d
000002e0: 40aa dfbd 440c b43d d768 e9bd 1c74 ab3d
000002f0: ae67 5abd 84b3 d1bc 1e09 e33d 62f5 90bd
00000300: 8668 fc3d 4c40 c83d 8daa 83bd f823 2ebc
00000310: fc2e 98bd fef1 fd3d fc2d 3f3d 64a7 523d
00000320: e02a 733d 36ac fd3d b4cb 683d 0cae a7bd
00000330: 2092 133c 60f3 e3bb 545c 8a3d 1e7e e93d
00000340: c8d2 273d 87e9 023e b00b 78bc 206b 093d
00000350: c075 6dbd a0e2 d23c 8acc c23d a857 173d
00000360: 801f 89ba 00d8 b5ba 008f 22bc 666e b13d
00000370: 6aa6 df3d 452c 99bd 725c b23d 3c05 903d
00000380: 30b5 acbb 9059 0b3c bccb 543d dc3b ba3d
00000390: c0a0 13bb 6088 d9bd 6959 fabd 9e5a b13d
000003a0: 2453 5a3d fc0e 1d3d a089 503c e04c c73d
000003b0: 38ad a0bc 2cce 9b3d 9072 e33d f404 363d
000003c0: c0b4 fc3b 7ada ff3d 4cf3 e43d bf8b fbbd
000003d0: b88b d23d 3007 413c 6379 87bd 68dd 543d
000003e0: c807 7fbc b08e aabc 887b 9d3c d003 3bbc
000003f0: 70c0 e5bd f276 62bd 5aea 70bd 7a08 c83d

encoder.2.bias f4 [30]
-0.07250354 0.0538823 -0.009112425 0.11295396 -0.009108394 -0.04845792 0.100562364 0.040935382
-0.010861158 0.049658 -0.07680774 0.12366898 -0.06434373 -0.06879786 -0.12539 -0.017019868
-0.094615445 0.05887042 -0.10822603 0.055619225 -0.0024880916 -0.10289211 0.030819774 0.1126415
-5.1930547e-05 -0.02209898 -0.018117286 -0.0638063 -0.08068398 0.06085278
00000000: bc7c 94bd b0b3 5c3d 484c 15bc 6854 e73d
00000010: 603b 15bc d07b 46bd a4f3 cd3d dcab 273d
00000020: 00f3 31bc 3066 4b3d 604d 9dbd 2a46 fd3d
00000030: a5c6 83bd e4e5 8cbd 3c66 00be 406d 8bbc
00000040: bec5 c1bd 1c22 713d 9ca5 ddbd fcd0 633d
00000050: 400f 23bb 19b9 d2bd c079 fc3c 96b0 e63d
00000060: 00d0 59b8 ec08 b5bc b46a 94bc e1ac 82bd
00000070: a43d a5bd c440 793d

encoder.4.weight f4 [10, 30]
-0.10195711 0.019208401 -0.18032156 -0.049048796 0.054322064 0.13987848 0.1202836 0.12030837
-0.09026738 0.053671762 -0.023901388 -0.08490921 -0.077618964 0.0047649294 0.08660096 0.16786334
-0.13990259 -0.05890028 0.107681334 -0.1732382 0.13081655 -0.072739914 -0.008383945 0.13532683
-0.045341328 -0.12111078 0.06317291 -0.109687135 -0.16196916 -0.062772825 0.12020147 -0.13215528
0.13046089 0.10840896 0.1550624 -0.17805152 -0.13693377 -0.026168674 -0.06557795 -0.13115361
-0.0064697713 -0.15709987 0.1549719 -0.12732527 0.07354885 -0.1797772 -0.071448214 -0.120497584
-0.14000463 0.17569348 0.0064520985 -0.16613418 0.17381409 0.16867831 -0.09700176 0.12237877
-0.010544717 -0.010056332 -0.05235848 0.052280813 0.16533029 0.06878978 -0.006656289 -0.13459706
0.015082613 -0.07071085 -0.087721646 -0.16276114 -0.15575238 -0.15839395 -0.0031312853 0.05342117
0.03377956 -0.057261676 0.025096118 -0.0458228 0.032231674 -0.050670743 0.019848838 -0.10876106
0.040678576 0.16747713 0.10448763 -0.17876165 0.1245856 -0.112176105 0.16431484 -0.16112635
0.13461816 0.14434317 -0.031224236 0.13691798 0.12662086 -0.11790721 0.031379074 0.023421437
-0.15230152 -0.1426568 0.066901445 0.14147541 0.0035914779 0.0038828999 0.12422842 0.11111358
-0.04078032 -0.06870475 -0.16899128 0.06219402 -0.060439646 -0.04153253 0.1371445 -0.15581825
0.009084851 -0.16086599 0.1779975 0.015435368 -0.14545745 -0.026403502 0.08130321 -0.15356858
-0.08087831 0.17220184 -0.13594967 0.052330375 0.15261742 0.13728264 0.06944445 0.16561562
0.095207304 -0.10619138 -0.16710833 -0.13041519 0.14017406 -0.121431634 0.14375046 0.096120864
0.1401563 0.113164276 -0.11850038 0.13628232 0.14384589 -0.02575837 0.06730457 -0.116521984
0.09451282 0.16621497 -0.018263325 -0.16606507 -0.0780516 0.01473999 -0.17788085 -0.11686946
0.0067254603 -0.03737496 0.062351644 -0.15200746 0.1299755 -0.12063004 -0.011030376 0.1295811
0.09635857 -0.061478093 -0.021840438 -0.029226854 0.086656064 0.051503778 0.15398893 -0.038888007
0.08527711 0.16722947 0.019432038 0.16152662 -0.055657133 0.16410184 -0.016074046 -0.1411861
-0.0799445 0.13122281 -0.08745431 -0.116893984 0.06851801 -0.042445228 -0.027246654 0.10691661
0.17398593 -0.1048044 0.10805589 -0.14690113 0.0024781376 0.058470145 0.02203165 -0.03379345
0.013308674 0.12501734 -0.17517601 0.07641959 -0.023483396 -0.12318729 -0.051602826 0.09766653
-0.12852198 -0.0776128 -0.014773414 0.10413653 -0.12769014 -0.09060027 -0.15384266 0.013312891
-0.06044946 -0.12722015 0.019364372 -0.14626104 -0.11063281 0.049653396 -0.025268257 0.05762492
-0.12143572 -0.11228667 0.059749216 -0.004861042 -0.056071997 0.038303614 0.101180136 -0.04702194
-0.08070036 -0.15669528 0.06946179 -0.15298155 -0.16045353 -0.046554238 0.041216403 0.06028834
0.09942818 -0.055797502 -0.08488631 -0.11221761 -0.01394476 -0.025228098 0.13926065 -0.16064976
-0.07901219 -0.13213715 -0.12502035 -0.04014595 0.00743033 0.10861546 0.12107307 0.009508535
0.1003657 -0.1511427 0.08792174 -0.07060973 -0.15900974 0.056007907 0.091525644 0.14670777
00000000: e4ce d0bd f05a 9d3c 37a6 38be 64e7 48bd
00000010: d080 5e3d 4e3c 0f3e 4057 f63d 3c64 f63d
00000020: 1bde b8bd ecd6 5b3d d8cc c3bc e1e4 adbd
00000030: b1f6 9ebd 2023 9c3b d85b b13d 5ee4 2b3e
00000040: a042 0fbe 6c41 71bd 0888 dc3d 5b65 31be
00000050: c6f4 053e aaf8 94bd d05c 09bc 1e93 0a3e
00000060: d4b7 39bd ee08 f8bd cc60 813d a6a3 e0bd
00000070: 3edb 25be 0a8f 80bd 302c f63d b753 07be
00000080: 8a97 053e 8405 de3d aec8 1e3e 2353 36be
00000090: 5e38 0cbe b05f d6bc bb4d 86bd 224d 06be
000000a0: 6000 d4bb cade 20be f4b0 1e3e 8e61 02be
000000b0: c8a0 963d 8417 38be 7153 92bd 70c7 f6bd
000000c0: 605d 0fbe fee8 333e 206c d33b 141f 2abe
000000d0: 52fc 313e 02ba 2c3e dca8 c6bd b8a1 fa3d
000000e0: c0c3 2cbc 50c3 24bc d875 56bd 6824 563d
000000f0: 584c 293e a8e1 8c3d 001d dabb d0d3 09be
00000100: 101d 773c dad0 90bd 68a7 b3bd dbaa 26be
00000110: 8d7d 1fbe 0632 22be 4036 4dbb 28d0 5a3d
00000120: 705c 0a3d 388b 6abd 6096 cd3c b0b0 3bbd
00000130: 5c05 043d 208c 4fbd 089a a23c 1ebe debd
00000140: 949e 263d 207f 2b3e 9cfd d53d 4b0d 37be
00000150: bc26 ff3d 96bc e5bd 2642 283e 4efe 24be
00000160: 58d9 093e b2ce 133e f8c9 ffbc 3a34 0c3e
00000170: e6a8 013e 5679 f1bd 5887 003d 50de bf3c
00000180: eef4 1bbe a014 12be a003 893d eede 103e
00000190: 005f 6b3b 4078 7e3b 786b fe3d 848f e33d
000001a0: 4409 27bd 13b5 8cbd 0d0c 2dbe 28bf 7e3d
000001b0: 908f 77bd 041e 2abd 9c6f 0c3e d28e 1fbe
000001c0: a0d8 143c 0eba 24be fa44 363e a0e4 7c3c
000001d0: ccf2 14be 284c d8bc 4c82 a63d 1541 1dbe
000001e0: 87a3 a5bd ae55 303e 6436 0bbe 6058 563d
000001f0: be47 1c3e d293 0c3e e438 8e3d 2497 293e
00000200: 0cfc c23d de7a d9bd 721e 2bbe 8f8b 05be
00000210: ca89 0f3e 26b1 f8bd 5233 133e 04db c43d
00000220: 2285 0f3e acc2 e73d 54b0 f2bd 988d 0b3e
00000230: 564c 133e 3803 d3bc fad6 893d 14a3 eebd
00000240: f08f c13d 4234 2a3e f89c 95bc f60c 2abe
00000250: 84d9 9fbd 0080 713c 6626 36be 4159 efbd
00000260: 4061 dc3b 7c16 19bd 7064 7f3d d8a7 1bbe
00000270: 4c18 053e e20c f7bd c0b8 34bc e8b0 043e
00000280: a457 c53d 74d0 7bbd b8ea b2bc 286d efbc
00000290: bc78 b13d a0f5 523d 46af 1d3e 0849 1fbd
000002a0: c4a5 ae3d 343e 2b3e f02f 9f3c 3c67 253e
000002b0: bcf8 63bd 500a 283e b8ad 83bc 1793 10be
000002c0: f1b9 a3bd 465f 063e 3f1b b3bd 1d66 efbd
000002d0: 2c53 8c3d 0cdb 2dbd 6034 dfbc 18f7 da3d
000002e0: 5e29 323e b0a3 d6bd 684c dd3d 406d 16be
000002f0: 4068 223b 647e 6f3d b87b b43c 006b 0abd
00000300: a00c 5a3c 8c04 003e 5761 33be e081 9c3d
00000310: 4060 c0bc 9e49 fcbd 7c5d 53bd 6405 c83d
00000320: 449b 03be 76f3 9ebd 300c 72bc 8845 d53d
00000330: 34c1 02be a28c b9bd ee88 1dbe 501e 5a3c
00000340: da99 77bd 0046 02be 08a2 9e3c 74c5 15be
00000350: 7493 e2bd 5c61 4b3d 60ff cebc 1c08 6c3d
00000360: 4ab3 f8bd 8ef6 e5bd 98bb 743d 6049 9fbb
00000370: c0ab 65bd 40e4 1c3d 8837 cf3d 149a 40bd
00000380: 3b46 a5bd ba74 20be fc41 8e3d 32a7 1cbe
00000390: ee4d 24be a8af 3ebd 88d2 283d e8f0 763d
000003a0: 00a1 cb3d ec8b 64bd e0d8 adbd 59d2 e5bd
000003b0: 9078 64bc 28ab cebc 589a 0e3e 5f81 24be
000003c0: 25d1 a1bd f64e 07be 5605 00be 1470 24bd
000003d0: 207a f33b c871 de3d 28f5 f73d b0c9 1b3c
000003e0: 888c cd3d 27c5 1abe 5010 b43d d69b 90bd
000003f0: 73d3 22be 8c68 653d cc71 bb3d 903a 163e

encoder.4.bias f4 [10]
-0.1034746 -0.10870427 0.076381445 -0.01649049 -0.0318622 0.03501244 0.0074619055 0.091875374
-0.032481357 0.07402632
00000000: 7eea d3bd 58a0 debd e06d 9c3d 1017 87bc
00000010: f081 02bd 3469 0f3d 0083 f43b 2829 bc3d
00000020: 2c0b 05bd 1c9b 973d

encoder.6.weight f4 [1, 10]
0.17523652 0.09008762 0.07146892 -0.105492994 0.010742694 0.30251673 -0.22284804 -0.041083187
-0.021848232 0.15214723
00000000: 3471 333e dc7f b83d 4c5e 923d b60c d8bd
00000010: 2002 303c 79e3 9a3e 4732 64be d846 28bd
00000020: 10fb b2bc 7ccc 1b3e

decoder.0.weight f4 [10, 1]
0.14844084 0.8139453 -0.087551 0.12886858 -0.6908243 0.120729566 0.5782474 -0.5229949
0.8978591 -0.5166075
00000000: e000 183e b85e 503f f04d b3bd 20f6 033e
00000010: dcd9 30bf 1041 f73d 0608 143f fee2 05bf
00000020: 18da 653f 6440 04bf

decoder.0.bias f4 [10]
0.41760218 0.16044629 0.81840885 -0.98226106 -0.71937716 0.6218394 -0.48137867 0.762673
0.9632547 0.35075736
00000000: f4cf d53e 084c 243e 3e83 513f 7675 7bbf
00000010: 1a29 38bf de30 1f3f 4477 f6be 8a3e 433f
00000020: dc97 763f 7896 b33e

decoder.2.weight f4 [30, 10]
0.19757596 0.2179052 0.069645464 0.03758332 0.093013465 -0.07562457 -0.084122926 0.04443711
-0.08980104 0.26702246 0.24192306 -0.060266435 -0.30766603 0.30906507 0.19932458 -0.004908502
0.20326868 0.050790787 0.29651794 0.30596778 -0.0003066063 -0.17954928 0.06678513 0.19440618
0.0076392293 -0.060883075 0.30873492 -0.13965665 -0.17597482 -0.27100354 -0.1771777 -0.13842602
-0.30233386 -0.19447593 -0.20877436 0.21211252 -0.21558185 -0.1303173 0.25252125 -0.22946134
0.20037124 -0.29036868 -0.17491096 0.21986517 0.08145332 0.036106676 -0.19369638 0.2133033
0.30050626 0.14780828 -0.11671503 -0.10199238 0.19648686 -0.2670956 -0.21031287 -0.29683316
0.22737327 -0.108115554 0.28413084 0.010573983 -0.0060216784 0.17623425 0.08435905 -0.24393919
0.19070336 0.15883628 0.30010328 -0.3000098 -0.08036454 -0.034077495 0.035636574 -0.15346381
-0.032025278 0.21311316 0.055299908 -0.010987729 0.06668651 0.1519809 0.29539385 -0.31232658
-0.064042 0.22431973 0.22271004 0.24173805 0.0931409 -0.19146615 0.2586753 -0.1529964
-0.19805114 -0.30478588 -0.31022364 -0.18373929 0.1593838 0.016468287 -0.17742337 0.2725667
-0.14127149 -0.30628836 0.14080349 0.08693123 0.11315006 -0.15820745 0.07450047 0.25828376
-0.29142225 -0.29260343 -0.28767467 -0.06400314 0.23415753 0.24373534 0.24592838 0.14834389
-0.11401118 -0.23579773 0.0282166 -0.115843505 -0.02598843 -0.015618205 0.21817061 0.23161283
-0.07897605 0.17129779 -0.28588355 -0.23562708 -0.20157072 -0.29650438 0.21532884 0.24317947
0.27037343 -0.15059383 0.22526714 -0.06472379 0.13815996 0.27414247 -0.29952857 0.030013144
-0.14769344 0.2968085 0.2264094 0.105361104 -0.102506354 -0.29180315 0.07242492 0.13732335
0.2474173 -0.15103538 -0.064111054 -0.23665316 -0.26318684 -0.06146267 -0.01266098 -0.30951154
0.12733325 -0.01819104 -0.0034256577 -0.17799841 -0.18671413 -0.017914653 0.025107384 -0.10443053
0.034925222 -0.21831162 -0.03481254 -0.14702587 0.20910397 -0.05580604 -0.13217765 0.06443393
-0.0776767 0.031967938 0.046670288 0.01932311 0.11713448 -0.052408576 -0.1093809 -0.11516012
-0.09767525 0.23892596 -0.018153965 -0.29962248 0.16382936 -0.0006454289 0.25418612 -0.29826713
0.10992354 0.28677294 0.26717082 0.22725156 -0.02658087 -0.11556175 0.10862309 -0.17543334
-0.18137982 0.033264875 0.09216425 -0.2701983 0.15404153 0.27078304 0.05035019 0.058470875
-0.08931129 0.10870993 -0.3104291 -0.13534348 -0.104273304 -0.28638354 0.1754393 -0.060502857
0.0525198 -0.28972635 0.03954652 0.05232504 -0.27272314 -0.2845321 0.28969154 -0.060396403
0.2157115 -0.21547732 -0.12857765 -0.30724165 -0.1436696 -0.09378949 -0.17395979 -0.14211135
0.049278915 0.11382669 -0.20513794 -0.24409476 0.2496669 -0.27501705 -0.09607674 0.036294013
-0.13956673 -0.19440547 0.28707287 -0.066449836 -0.29089975 -0.06583941 0.15407473 0.2735462
0.113827854 0.12821892 -0.2819716 -0.23282723 0.21921077 0.29859862 0.27019486 0.12095401
0.11210197 -0.3105068 0.041942894 0.1735402 0.2755321 -0.14835876 -0.24617589 -0.16758348
00000000: 5a51 4a3e 8a22 5f3e 48a2 8e3d f8f0 193d
00000010: d87d be3d 0ee1 9abd a448 acbd b003 363d
00000020: 9ce9 b7bd 2bb7 883e aeba 773e f0d9 76bd
00000030: 6786 9dbe c73d 9e3e be1b 4c3e 80d7 a0bb
00000040: aa25 503e 000a 503d 33d1 973e cfa7 9c3e
00000050: 00c0 a0b9 c4db 37be a4c6 883d 6a12 473e
00000060: 8052 fa3b 8860 79bd 8112 9e3e 2702 0fbe
00000070: be32 34be fac0 8abe 126e 35be 8dbf 0dbe
00000080: 81cb 9abe b324 47be f2c8 55be 0634 593e
00000090: 7dc1 5cbe e671 05be 774a 813e eaf7 6abe
000000a0: 1e2e 4d3e 34ab 94be dc1b 33be 5624 613e
000000b0: 00d1 a63d 98e4 133d 5858 46be 2e6c 5a3e
000000c0: f5db 993e 0e5b 173e 4a08 efbd 62e1 d0bd
000000d0: da33 493e c1c0 88be 425c 57be 84fa 97be
000000e0: 8ad4 683e b06b ddbd 9979 913e 803e 2d3c
000000f0: 8051 c5bb c076 343e 70c4 ac3d 32cb 79be
00000100: be47 433e faa5 223e 23a7 993e e29a 99be
00000110: 2a96 a4bd d894 0bbd a8f7 113d 9e25 1dbe
00000120: f02c 03bd 563a 5a3e 2882 623d e005 34bc
00000130: f092 883d e2a0 1b3e dd3d 973e 45e9 9fbe
00000140: 7428 83bd 12b4 653e 1a0e 643e 2e8a 773e
00000150: a8c0 be3d b40f 44be 1771 843e 17ab 1cbe
00000160: ebcd 4abe e50c 9cbe a2d5 9ebe 2726 3cbe
00000170: 8235 233e 80e8 863c 79ae 35be dd8d 8b3e
00000180: 79a9 10be d4d1 9cbe ca2e 103e 0009 b23d
00000190: 38bb e73d 2201 22be b493 983d c53d 843e
000001a0: 4c35 95be 1ed0 95be 184a 93be 1414 83bd
000001b0: fec6 6f3e c295 793e a6d4 7b3e 76e7 173e
000001c0: b27e e9bd f674 71be 8026 e73c 5c3f edbd
000001d0: b0e5 d4bc 80e3 7fbc 1e68 5f3e ea2b 6d3e
000001e0: 32be a1bd b068 2f3e 545f 92be 3a48 71be
000001f0: 8e68 4ebe 6ccf 97be 2a7f 5c3e 0a04 793e
00000200: 636e 8a3e 4535 1abe 6eac 663e e88d 84bd
00000210: ce79 0d3e 675c 8c3e cf5b 99be 20de f53c
00000220: f33c 17be 49f7 973e ded7 673e 90c7 d73d
00000230: daee d1bd 3967 95be 8453 943d 7e9e 0c3e
00000240: f65a 7d3e 05a9 1abe a84c 83bd 3555 72be
00000250: 6dc0 86be 48c0 7bbd 0070 4fbc 4c78 9ebe
00000260: a663 023e 6005 95bc 0081 60bb 3745 36be
00000270: fd31 3fbe c0c1 92bc 00ae cd3c acdf d5bd
00000280: c00d 0f3d 158d 5fbe 9897 0ebd f38d 16be
00000290: 5a1f 563e e094 64bd 9459 07be f0f5 833d
000002a0: f614 9fbd d0f0 023d 5829 3f3d 804b 9e3c
000002b0: 34e4 ef3d 60aa 56bd 1803 e0bd 12d9 ebbd
000002c0: f609 c8bd 02a9 743e a0b7 94bc 1e68 99be
000002d0: e2c2 273e 0032 29ba af24 823e 78b6 98be
000002e0: 981f e13d e7d3 923e 9dca 883e a2b4 683e
000002f0: 20c0 d9bc a4ab ecbd c875 de3d cca4 33be
00000300: a2bb 39be c040 083d 9cc0 bc3d 6e57 8abe
00000310: 10bd 1d3e 13a4 8a3e 003c 4e3d 287f 6f3d
00000320: d6e8 b6bd 50a3 de3d 90f0 9ebe 7b97 0abe
00000330: 3e8d d5bd dda0 92be 5ca6 333e d8d1 77bd
00000340: 001f 573d 0357 94be 88fb 213d c852 563d
00000350: 5ea2 8bbe 31ae 91be 7352 943e 3862 77bd
00000360: 7ae3 5c3e 16a6 5cbe dca9 03be c74e 9dbe
00000370: 201e 13be b414 c0bd 8422 32be a385 11be
00000380: b0d8 493d f81d e93d ae0f 52be faf3 79be
00000390: aea8 7f3e 09cf 8cbe e2c3 c4bd 08a9 143d
000003a0: 95ea 0ebe 3a12 47be 37fb 923e da16 88bd
000003b0: d0f0 94be d0d6 86bd c4c5 1d3e 3f0e 8c3e
000003c0: 941e e93d d24b 033e 955e 90be 436a 6ebe
000003d0: ca78 603e ebe1 983e fb56 8a3e bcb6 f73d
000003e0: b895 e53d bffa 9ebe 50cc 2b3d 86b4 313e
000003f0: 8b12 8d3e 5ceb 17be 8815 7cbe 019b 2bbe

decoder.2.bias f4 [30]
-0.18123838 -0.023464024 0.28016874 -0.18577087 0.16170165 -0.29305246 -0.15565073 -0.231543
0.27346703 -0.24907607 -0.25645468 -0.2515662 -0.00034850836 -0.20424634 0.07129842 0.2787629
0.10211921 -0.250853 -0.013018191 -0.10157576 -0.28857288 -0.18885934 -0.15653564 0.11502454
0.11411145 -0.02515605 0.2077947 -0.07961418 0.1165643 0.023047656
00000000: 8e96 39be a037 c0bc 4772 8f3e b83a 3ebe
00000010: 1e95 253e f90a 96be e862 1fbe 9c19 6dbe
00000020: df03 8c3e cc0d 7fbe 074e 83be 49cd 80be
00000030: 00b8 b6b9 f425 51be e804 923d 03ba 8e3e
00000040: e023 d13d ce6f 80be 404a 55bc f406 d0bd
00000050: d3bf 93be 5864 41be e14a 20be fc91 eb3d
00000060: 44b3 e93d 1014 cebc 22c8 543e c20c a3bd
00000070: 44b9 ee3d 70ce bc3c

decoder.4.weight f4 [60, 30]
-0.1493947 -0.16962418 -0.17744301 0.17260647 0.033852473 -0.16046697 -0.1679141 0.14225116
0.14545023 -0.09157179 0.082086205 -0.18037908 0.12035623 -0.10731565 0.052867502 -0.12118661
0.025997087 0.11299446 0.046311602 0.118219525 -0.058217093 0.08642 -0.0710807 0.042373076
-0.082083195 0.049536005 0.16457516 -0.15278035 0.12671444 -0.10137441 -0.055602193 -0.11477312
-0.05713877 0.14569917 0.10267541 -0.025436223 0.027595043 -0.15836687 0.08665067 -0.064861506
-0.046939924 -0.030605838 0.10265568 -0.14430033 -0.14157307 0.11990324 0.004160732 0.077566475
0.082814515 0.13831133 0.08547458 -0.09206881 -0.16836914 0.16558853 0.052464426 0.13318631
-0.14963228 -0.16676992 -0.031771854 0.11341116 0.08768773 0.004509419 0.09494364 0.15350515
-0.182365 -0.090105385 0.17835048 -0.0069456547 0.168354 -0.05370839 -0.11443499 0.15978175
0.16002515 -0.11700673 0.12103239 0.16114035 -0.066672005 0.042050526 -0.0007452816 -0.17965809
-0.10130346 0.17163432 0.11401546 0.16253269 0.020987943 0.1574156 -0.033260852 -0.10984859
0.07804096 -0.12117581 0.026412547 0.08969 0.08967483 -0.15552637 -0.052727357 -0.11063624
-0.1663091 0.112600416 -0.17374755 0.14995345 -0.05673772 0.17482498 -0.17740193 -0.0917433
-0.071056865 0.10983184 0.16623929 0.09029934 0.02208522 0.15152967 0.022768497 -0.03654459
0.043076903 -0.021376625 0.0687626 0.116191536 0.020265728 -0.14773588 -0.098299734 -0.097620964
-0.13622665 -0.093023464 -0.045731843 0.076532006 -0.036643967 -0.1427187 -0.10905046 -0.09678049
0.16897216 0.061704278 -0.030561998 0.16153449 0.018179163 -0.00590539 0.010866448 0.12318671
-0.10765448 0.1718322 0.04606177 0.1120826 0.12858689 -0.13149986 -0.029305458 -0.11390167
-0.17266741 -0.0017416626 0.12046921 0.09347585 -0.16789846 0.038729146 0.07602531 -0.13821071
0.17296624 -0.12560722 -0.15336137 -0.10687254 0.06742217 0.03378512 -0.15689129 -0.13707152
0.17334658 -0.042334095 0.06065266 0.0891172 -0.096992254 -0.118100375 -0.12868285 -0.10810048
-0.15638396 0.05618657 -0.12863375 -0.10981877 -0.11663732 -0.11375099 0.081713974 0.10518572
-0.1445943 -0.0799812 -0.04038112 -0.07472643 -0.16921578 -0.1315325 0.07408729 0.15379333
0.043807834 0.1290169 0.18047899 0.014309555 -0.1144211 -0.17538975 -0.027265444 -0.06789167
0.15492252 0.070215106 -0.077338636 0.06241983 -0.045533672 -0.07189162 0.01531066 0.11632699
-0.0887912 0.16956359 -0.08223226 -0.14578508 -0.0014558882 0.036570147 -0.02983971 -0.16848633
0.082229674 0.046585992 0.13892758 0.033747092 -0.07692093 0.036881387 0.030270338 -0.17407313
0.010765806 0.037004918 -0.027990073 -0.15474376 0.17403153 -0.1440894 -0.03465955 -0.03321889
-0.03015408 -0.09645575 -0.14874199 -0.026527733 0.15207541 0.108801275 0.17774951 -0.11511567
0.10099158 0.09363261 -0.15992783 -0.15766263 -0.02224636 -0.0908848 -0.011916548 -0.17123604
-0.16771902 0.045240074 0.035403505 0.043125406 0.023579046 -0.01639764 -0.04110433 -0.12991434
0.0010727495 -0.10819509 0.1748442 -0.18050684 -0.14955352 0.16526955 0.15729663 0.05155641
00000000: edfa 18be f6b1 2dbe 9fb3 35be c0bf 303e
00000010: e4a8 0a3d 7451 24be adf1 2bbe 4aaa 113e
00000020: e8f0 143e fe89 bbbd d01c a83d 4bb5 38be
00000030: 547d f63d 4fc8 dbbd 988b 583d af30 f8bd
00000040: d8f7 d43c a469 e73d 3cb1 3d3d 141d f23d
00000050: 0c75 6ebd f8fc b03d c292 91bd 648f 2d3d
00000060: 3c1b a8bd 44e6 4a3d 6486 283e 7472 1cbe
00000070: 6ec1 013e 639d cfbd 20bf 63bd 2b0e ebbd
00000080: 580a 6abd 2a32 153e 7c47 d23d a05f d0bc
00000090: 000f e23c ed2a 22be e875 b13d 1cd6 84bd
000000a0: 1444 40bd 18b9 fabc 243d d23d 77c3 13be
000000b0: 88f8 10be d48f f53d c056 883b 2cdb 9e3d
000000c0: a89a a93d 7ca1 0d3e 4c0d af3d 928e bcbd
000000d0: f668 2cbe 0a90 293e f0e4 563d fe61 083e
000000e0: 3439 19be bcc5 2abe 3423 02bd 1c44 e83d
000000f0: a095 b33d c0c3 933b d071 c23d 7430 1d3e
00000100: e4bd 3abe 2c89 b8bd 82a1 363e 6098 e3bb
00000110: fe64 2c3e 54fd 5bbd e45c eabd d49d 233e
00000120: a2dd 233e 39a1 efbd d4df f73d fa01 253e
00000130: 558b 88bd 2c3d 2c3d 005f 43ba 4af8 37be
00000140: 3078 cfbd e8c0 2f3e f080 e93d f86e 263e
00000150: e8ee ab3c 8e31 213e 883c 08bd 4cf8 e0bd
00000160: f0d3 9f3d 062b f8bd 205f d83c 64af b73d
00000170: 70a7 b73d 4e42 1fbe a4f8 57bd 4195 e2bd
00000180: ef4c 2abe 0c9b e63d e1ea 31be 668d 193e
00000190: d065 68bd 5205 333e daa8 35be e9e3 bbbd
000001a0: 4386 91bd 84ef e03d a23a 2a3e dcee b83d
000001b0: 10ec b43c 982a 1b3e 0085 ba3c c8af 15bd
000001c0: 6871 303d 081e afbc 68d3 8c3d d4f5 ed3d
000001d0: 5004 a63c 1348 17be 5f51 c9bd 80ed c7bd
000001e0: 007f 0bbe 1683 bebd 5051 3bbd d0bc 9c3d
000001f0: fc17 16bd da24 12be d955 dfbd d934 c6bd
00000200: 0a07 2d3e a0bd 7c3d 285d fabc 4c69 253e
00000210: 78ec 943c 0082 c1bb 3009 323c 5049 fc3d
00000220: f479 dcbd c8f4 2f3e 44ab 3c3d 908b e53d
00000230: 48ac 033e e6a7 06be 0012 f0bc 4745 e9bd
00000240: bacf 30be 8048 e4ba 90b8 f63d 4470 bf3d
00000250: 93ed 2bbe 74a2 1e3d 28b3 9b3d 1c87 0dbe
00000260: 101e 313e 2e9f 00be c30a 1dbe fedf dabd
00000270: a214 8a3d 4462 0a3d 1ca8 20be 7a5c 0cbe
00000280: c481 313e 8466 2dbd ec6e 783d 1483 b63d
00000290: e0a3 c6bd 9cde f1bd 70c5 03be c963 ddbd
000002a0: 1e23 20be e423 663d 91b8 03be aae8 e0bd
000002b0: 8cdf eebd 47f6 e8bd a859 a73d 9c6b d73d
000002c0: 8710 14be 2fcd a3bd ac66 25bd 2c0a 99bd
000002d0: e746 2dbe 75b0 06be 14bb 973d 007c 1d3e
000002e0: d86f 333d 021d 043e 7ccf 383e a072 6a3c
000002f0: 9c55 eabd 5f99 33be c85b dfbc ca0a 8bbd
00000300: 02a4 1e3e f0cc 8f3d b863 9ebd f0ab 7f3d
00000310: 8481 3abd ea3b 93bd 90d9 7a3c d83c ee3d
00000320: 29d8 b5bd 14a2 2d3e 6369 a8bd af48 15be
00000330: 80d3 beba 94ca 153d 6872 f4bc ae87 2cbe
00000340: 0868 a83d f4d0 3e3d 0843 0e3e 643a 0a3d
00000350: b888 9dbd f010 173d 80f9 f73c 3a40 32be
00000360: 1063 303c 7892 173d 704b e5bc 2675 1ebe
00000370: 5235 323e 2c8c 13be 2cf7 0dbd 8810 08bd
00000380: b005 f7bc 988a c5bd d24f 18be b050 d9bc
00000390: a8b9 1b3e 34d3 de3d f803 363e c4c1 ebbd
000003a0: acd4 ce3d 74c2 bf3d 1fc4 23be 5072 21be
000003b0: 003e b6bc cf21 babd a03d 43bc 8058 2fbe
000003c0: 89be 2bbe a84d 393d 4403 113d 44a4 303d
000003d0: d828 c13c 5854 86bc 045d 28bd 4408 05be
000003e0: 809b 8c3a 6395 ddbd 5c0a 333e c9d6 38be
000003f0: 8f24 19be 6c3c 293e 5e12 213e d02c 533d

decoder.4.bias f4 [60]
-0.16607302 0.0031362474 0.07189652 -0.12278793 0.16867363 -0.10923792 -0.109668724 0.053003445
-0.06901215 0.1346575 0.16055453 0.17206854 0.18033454 -0.03669758 -0.12826625 -0.018302709
0.0019857138 -0.08522651 -0.05315353 -0.031953305 0.019936666 -0.0797935 -0.04462485 -0.019177541
-0.082231 0.13941625 -0.1610481 -0.14165479 0.02717857 -0.017983705 0.077887386 0.15484753
-0.18081069 0.07969636 0.03215559 -0.061932147 0.072632045 0.0638372 -0.12172003 -0.09432966
-0.13151899 0.1484823 -0.08277942 0.00094361603 0.04828742 -0.16464199 0.08034772 0.08655301
0.14992219 0.002094075 -0.0032914132 0.051660374 -0.13786525 0.0175654 -0.023444131 -0.14577183
0.012761772 0.15207905 0.12777302 0.1682463
00000000: 0c0f 2abe 8089 4d3b 7c3e 933d 3d78 fbbd
00000010: c8b8 2c3e 21b8 dfbd ff99 e0bd 241a 593d
00000020: 3e56 8dbd a8e3 093e 6868 243e bc32 303e
00000030: 9ea9 383e 3450 16bd 3a58 03be 90ef 95bc
00000040: c022 023b 3d8b aebd 84b7 59bd 78e1 02bd
00000050: 3852 a33c c66a a3bd 8cc8 36bd 381a 9dbc
00000060: ba68 a8bd 22c3 0e3e cbe9 24be f40d 11be
00000070: 98a5 de3c 9052 93bc 6c83 9f3d 5a90 1e3e
00000080: 7026 39be d837 a33d 94b5 033d 90ac 7dbd
00000090: 1cc0 943d 14bd 823d 5a48 f9bd e92f c1bd
000000a0: eaac 06be be0b 183e 4288 a9bd 005d 773a
000000b0: 08c9 453d e997 28be 588d a43d b442 b13d
000000c0: 3485 193e c03c 093b c0b4 57bb d499 533d
000000d0: 8c2c 0dbe 50e5 8f3c e80d c0bc 3645 15be
000000e0: c016 513c 9cba 1b3e eed6 023e c248 2c3e

decoder.6.weight f4 [122, 60]
-0.07785582 0.07421501 0.014540672 0.021910518 -0.034715816 0.045098543 0.08520116 0.03447093
-0.061241224 0.030252203 -0.03702589 0.03421901 -0.028524123 0.059052125 0.060272858 0.037142932
-0.087256685 0.046977416 0.044468597 0.12467073 0.02365771 0.04421833 -0.081876725 0.10993725
-0.10030569 -0.07017958 0.052759975 0.059837446 0.024542019 -0.043449067 0.049636394 0.00977543
-0.07365012 0.048719987 0.031591296 0.031828433 0.05409661 -0.0822051 0.09040129 0.10424423
0.06605187 0.053900078 -0.006884314 -0.12207619 0.07577774 0.02446419 -0.097792774 0.018394813
0.075551465 0.11633916 -0.12748902 -0.056401223 -0.032520838 -0.08146998 0.09893766 -0.00745441
0.11815494 0.08718914 -0.034578294 -0.07770817 -0.09923202 0.032953486 -0.08055723 -0.026547357
-0.022008814 -0.0332489 -0.11334509 0.11121753 -0.012796938 0.10802753 -0.012522787 -0.08687867
-0.040127747 -0.05981593 -0.038405456 -0.0033529252 0.08564927 -0.10802964 -0.118608534 -0.039792836
0.04875548 -0.032537103 -0.112765804 -0.09126489 -0.10755514 -0.08207783 -0.040209733 0.07005642
-0.091360815 -0.05239945 0.07999691 0.014218301 -0.017761104 -0.06863408 -0.058134243 0.09359674
0.07918687 0.013714835 -0.081287265 -0.10417393 0.045267463 0.01095812 -0.04852359 -0.023653977
0.09805387 -0.076098084 0.068602175 0.10821436 0.12792553 -0.08819972 0.024092913 -0.112330504
0.017722115 -0.08446825 -0.07759148 0.11753294 -0.1263469 -0.026936613 -0.023611896 0.10652332
-0.0601222 0.01862815 -0.11793395 0.09316039 -0.020526692 -0.028690413 -0.1023293 -0.03403257
0.02579467 -0.020882182 -0.009749316 0.025281101 0.065677926 -0.12709765 0.018405885 -0.12066511
0.06955807 0.08004409 -0.0033394694 0.04408592 0.083271936 0.04159084 0.08264211 0.03175983
-0.04105243 -0.07559918 -0.09672687 -0.09169561 0.12881337 0.035165116 -0.007975824 -0.076411724
-0.11926106 -0.03904581 -0.11483305 0.041925177 0.12829484 0.022623181 -0.0578861 -0.019706875
-0.025818944 0.11500184 0.08805281 -0.09112817 0.04116182 0.12193878 0.054740533 -0.054860868
0.004329115 0.1086881 -0.12820391 0.112117216 -0.11497632 0.012582958 0.06350534 0.062490612
-0.00072950125 0.011606246 -0.106522314 -0.09131892 -0.0644662 -0.045481414 -0.06294738 -0.02326712
-0.10510495 0.018185347 0.0957474 -0.037588283 0.020221129 0.024846375 0.056239113 0.03955567
0.07851064 -0.013685994 -0.06636645 -0.12055875 -0.12225059 0.09753752 0.054886103 0.002193004
0.04910718 0.029412284 0.03663911 -0.035899498 0.024849102 0.12664662 0.0031840503 -0.08917095
0.08228801 0.09610468 0.10295926 -0.067618765 0.10309303 -0.09149799 -0.12586842 -0.03141492
-0.026649974 0.09222756 0.04294987 0.02952756 0.031117484 -0.059433028 -0.08264725 -0.07052791
-0.12733866 -0.0011940598 0.09171337 -0.05614946 0.032387584 0.016229019 0.118665844 0.014020488
-0.10254274 -0.1237121 -0.010266557 0.11695838 0.07864547 0.0302383 -0.102120124 -0.008554772
0.12325381 -0.013988666 -0.036107533 0.006906301 0.11727063 0.06656556 -0.013185903 0.0550842
-0.12682335 0.0623748 -0.109296784 -0.1285103 0.024740338 -0.0080623925 -0.0060603246 0.0038304776
00000000: df72 9fbd 0afe 973d 003c 6e3c b07d b33c
00000010: 2c32 0ebd 40b9 383d f27d ae3d 6431 0d3d
00000020: 14d8 7abd 78d3 f73c 76a8 17bd 3c29 0c3d
00000030: 6cab e9bc a4e0 713d ace0 763d 3023 183d
00000040: a2b3 b2bd 646b 403d b424 363d 5e53 ff3d
00000050: d0cd c13c 481e 353d fcae a7bd c826 e13d
00000060: 126d cdbd 50ba 8fbd d81a 583d 1c18 753d
00000070: 580c c93c a6f7 31bd 884f 4b3d 2029 203c
00000080: e0d5 96bd 9c8e 473d e065 013d 885e 023d
00000090: 6894 5d3d 265b a8bd 5024 b93d 007e d53d
000000a0: 3446 873d 54c6 5c3d d095 e1bb 1503 fabd
000000b0: 5c31 9b3d 2069 c83c 9447 c8bd b8b0 963c
000000c0: baba 9a3d 3a43 ee3d 7b8c 02be f804 67bd
000000d0: 9234 05bd bcd9 a6bd d49f ca3d 2044 f4bb
000000e0: 38fb f13d 3890 b23d f8a1 0dbd 7625 9fbd
000000f0: 283a cbbd 3cfa 063d 30fb a4bd d879 d9bc
00000100: d44b b4bc 0030 08bd 7821 e8bd 04c6 e33d
00000110: 40aa 51bc 8a3d dd3d 602c 4dbc 72ed b1bd
00000120: fe5c 24bd 8c01 75bd 0a4f 1dbd c0bc 5bbb
00000130: e268 af3d a53e ddbd 08e9 f2bd d0fd 22bd
00000140: d4b3 473d a045 05bd c2f1 e6bd 16e9 babd
00000150: df45 dcbd 6c18 a8bd f6b2 24bd be79 8f3d
00000160: 611b bbbd cea0 56bd 6cd5 a33d e0f3 683c
00000170: bc7f 91bc 0690 8cbd 2c1e 6ebd a6af bf3d
00000180: ba2c a23d 30b4 603c f079 a6bd 2459 d5bd
00000190: 606a 393d b089 333c acc0 46bd fcc5 c1bc
000001a0: 78d0 c83d 50d9 9bbd 4c7f 8c3d 7e9f dd3d
000001b0: e9fe 023e 0ea2 b4bd 805e c53c 890d e6bd
000001c0: f82d 913c b1fd acbd 48e8 9ebd 1cb5 f03d
000001d0: 1561 01be 2caa dcbc bc6d c1bc e628 da3d
000001e0: b242 76bd 109a 983c 5b87 f1bd e0ca be3d
000001f0: 9827 a8bc 2808 ebbc 0692 d1bd bc65 0bbd
00000200: 584f d33c 1c11 abbc 98bb 1fbc 501a cf3c
00000210: 2682 863d e325 02be f0c7 963c 451f f7bd
00000220: 7674 8e3d 28ee a33d 00db 5abb 7093 343d
00000230: 7a8a aa3d 285b 2a3d 4440 a93d 9816 023d
00000240: 9826 28bd bed3 9abd bd18 c6bd e8ca bbbd
00000250: a7e7 033e 4c09 103d 08ad 02bc c07d 9cbd
00000260: 253f f4bd 80ee 1fbd 972d ebbd bcb9 2b3d
00000270: b95f 033e 4054 b93c fa19 6dbd 5070 a1bc
00000280: 4082 d3bc 1686 eb3d 0855 b43d 68a1 babd
00000290: 4c99 283d 0abb f93d 9c37 603d cab5 60bd
000002a0: 40db 8d3b de97 de3d e347 03be b69d e53d
000002b0: b478 ebbd c028 4e3c 160f 823d 28f6 7f3d
000002c0: 003c 3fba 2028 3e3c 5f28 dabd 6a05 bbbd
000002d0: db06 84bd b84a 3abd 8eea 80bd b09a bebc
000002e0: 4441 d7bd 70f9 943c 3617 c43d 2cf6 19bd
000002f0: c8a6 a53c a08a cb3c fc5a 663d 2005 223d
00000300: 30ca a03d 383b 60bc 22eb 87bd 82e7 f6bd
00000310: 845e fabd c0c1 c73d 40d0 603d 80b8 0f3b
00000320: 9c24 493d 08f2 f03c e412 163d 5a0b 13bd
00000330: 5890 cb3c a7af 013e 80ab 503b 429f b6bd
00000340: 9e86 a83d 88d2 c43d 4edc d23d b57b 8abd
00000350: 7022 d33d 4c63 bbbd a7e3 00be eeac 00bd
00000360: 0c51 dabc cee1 bc3d 34ec 2f3d c8e3 f13c
00000370: 18ea fe3c 0c70 73bd f642 a9bd f070 90bd
00000380: 1165 02be 0082 9cba 38d4 bb3d fafc 65bd
00000390: d8a8 043d b8f2 843c 1407 f33d 30b6 653c
000003a0: ee01 d2bd c55c fdbd 1035 28bc e087 ef3d
000003b0: e010 a13d 50b6 f73c 5b24 d1bd 5029 0cbc
000003c0: 7e6c fc3d b830 65bc 7ee5 13bd 404e e23b
000003d0: 962b f03d 8653 883d b009 58bc f89f 613d
000003e0: fbdd 01be b87c 7f3d fed6 dfbd 3498 03be
000003f0: 40ac ca3c 2018 04bc b095 c6bb c008 7b3b

decoder.6.bias f4 [122]
-0.10951538 -0.11178098 -0.06856495 -0.013527647 -0.063232936 0.07150404 0.069982275 0.11583191
-0.09239055 -0.12718116 -0.078318775 0.0821394 0.04138711 0.004763201 0.087754264 0.078751996
0.010649532 -0.01585041 -0.033071175 0.0037990063 -0.06178344 0.04959847 -0.098836824 0.04229836
0.1080852 -0.058835007 0.06631255 -0.115787834 -0.05967532 0.12731354 0.032554537 0.11204548
-0.10365362 -0.06317047 -0.089742884 -0.09013733 -0.015547276 -0.005456567 0.009147331 0.10218717
-0.08331543 0.06843951 -0.0011142641 -0.0987559 0.11235316 0.08996911 -0.04646706 -0.05976417
0.09028022 -0.044095203 -0.012024827 -0.098915294 0.046060383 0.12709804 0.022010446 0.12393652
-0.039959185 -0.005867861 -0.08260843 0.095569074 0.1263931 -0.12672041 -0.08077766 0.018226862
0.07751942 -0.08011824 0.07166992 -0.05623509 0.09934898 0.11375344 0.02011852 -0.042262554
0.0004568696 -0.059913002 -0.057448678 0.00659959 -0.069155626 0.04916379 -0.022905752 0.04095833
-0.06850925 -0.039472006 0.05508408 2.0444393e-05 -0.055088796 0.08963978 0.04779342 0.1264744
-0.03463608 -0.08791228 0.12592171 -0.09136382 -0.041552342 -0.08758515 0.0033738315 -0.109517515
0.12794144 -0.047625765 -0.06934092 0.07875176 0.11962417 -0.0931779 -0.034908466 0.0008289367
-0.12547626 -0.124571875 -0.12560922 0.117011085 0.096533775 -0.010756813 0.103547215 0.06597713
0.030674636 -0.020028122 0.008334473 0.11336821 7.984042e-05 0.06552711 0.023242056 -0.04631222
0.0012979358 0.040044606
00000000: 9949 e0bd 6ded e4bd c86b 8cbd 10a3 5dbc
00000010: 4580 81bd b670 923d de52 8f3d 4839 ed3d
00000020: 4237 bdbd c73b 02be 9865 a0bd b438 a83d
00000030: 8885 293d a014 9c3b 82b8 b33d ba48 a13d
00000040: 607b 2e3c b8d8 81bc a475 07bd c0f8 783b
00000050: a210 7dbd c427 4b3d f66a cabd 0c41 2d3d
00000060: c65b dd3d fafc 70bd e0ce 873d 2c22 edbd
00000070: 1c6e 74bd 7b5e 023e e857 053d 1a78 e53d
00000080: 5948 d4bd 855f 81bd 1ecb b7bd ec99 b8bd
00000090: 00ba 7ebc 00cd b2bb b0de 153c 8247 d13d
000000a0: 48a1 aabd 042a 8c3d 800c 92ba 8940 cabd
000000b0: 6a19 e63d ba41 b83d 3e54 3ebd 46cb 74bd
000000c0: d6e4 b83d 2c9d 34bd c803 45bc 1a94 cabd
000000d0: d0a9 3c3d fd25 023e 404f b43c 6ed2 fd3d
000000e0: 3eac 23bd 3047 c0bb 9c2e a9bd b8b9 c33d
000000f0: 316d 013e ffc2 01be c26e a5bd 8050 953c
00000100: 80c2 9e3d 0815 a4bd aec7 923d c456 66bd
00000110: 7a77 cb3d 90f7 e83d 98cf a43c 801b 2dbd
00000120: 0088 ef39 5667 75bd 4e4f 6bbd 6041 d83b
00000130: 77a1 8dbd f85f 493d d8a4 bbbc ecc3 273d
00000140: 944e 8cbd 66ad 21bd d89f 613d 0080 ab37
00000150: caa4 61bd 1095 b73d 08c3 433d 8182 013e
00000160: 90de 0dbd 5a0b b4bd 9ff1 003e f41c bbbd
00000170: ca32 2abd d85f b3bd 801b 5d3b b84a e0bd
00000180: 1503 033e 3c13 43bd 9d02 8ebd 9a48 a13d
00000190: 84fd f43d 0ed4 bebd 2efc 0ebd 004d 593a
000001a0: d97c 00be 8a1f ffbd b49f 00be 82a3 ef3d
000001b0: 80b3 c53d 583d 30bc 9010 d43d 041f 873d
000001c0: 6049 fb3c 0412 a4bc 508d 083c 982d e83d
000001d0: 0070 a738 1433 863d 2066 be3c e2b1 3dbd
000001e0: 801f aa3a d005 243d

estimation.0.weight f4 [10, 3]
-0.39723623 -0.5419051 0.5161855 0.2849877 0.13332719 -0.068667054 0.52825284 0.1376028
0.2676016 -0.4805902 0.029159486 0.52806056 -0.48888022 -0.5099365 -0.1882194 0.09250444
-0.45472887 -0.14434361 -0.33329582 0.42630243 0.06782782 -0.20207879 -0.46399045 0.39403045
-0.5596429 -0.19204506 -0.006087184 -0.1368872 -0.45609677 0.40611768
00000000: 8c62 cbbe 4bba 0abf bc24 043f e8e9 913e
00000010: ec86 083e 50a1 8cbd 943b 073f c0e7 0c3e
00000020: 1403 893e eb0f f6be e0df ee3c fa2e 073f
00000030: 824e fabe 338b 02bf 96bc 40be f872 bd3d
00000040: 39d2 e8be d0ce 13be c0a5 aabe 5044 da3e
00000050: 50e9 8a3d beed 4ebe 2890 edbe 5cbe c93e
00000060: c244 0fbf 76a7 44be 0077 c7bb 282c 0cbe
00000070: 8485 e9be a8ee cf3e

estimation.0.bias f4 [10]
-0.44027036 0.101073146 -0.02079761 -0.32479635 0.54901636 -0.5110608 0.0069604516 0.34191155
0.36791348 -0.15795285
00000000: 1e6b e1be 70ff ce3d c05f aabc b54b a6be
00000010: 568c 0c3f e1d4 02bf 8014 e43b 080f af3e
00000020: 285f bc3e 64be 21be

estimation.3.weight f4 [4, 10]
0.31101486 0.17453256 0.035983294 -0.105118096 0.2833883 0.027451813 0.18822005 0.11387622
-0.0799268 -0.044933558 0.19299844 -0.17874153 0.15906253 0.20054081 -0.1383604 -0.09466663
0.13354018 0.03061375 0.1596357 0.045865268 -0.015454203 -0.1137211 -0.10324992 0.081006944
-0.2581027 -0.2652503 -0.24633485 0.0035806894 -0.25404063 0.15532333 0.14853677 -0.24325502
-0.24867332 0.2798352 -0.2206516 -0.07512553 0.051223874 -0.049508125 -0.15518315 -0.19748884
00000000: 573d 9f3e aab8 323e 3863 133d 2848 d7bd
00000010: 4518 913e a0e2 e03c c2bc 403e f037 e93d
00000020: aab0 a3bd 400c 38bd 62a1 453e 0508 37be
00000030: 4ae1 223e 925a 4d3e 59ae 0dbe 94e0 c1bd
00000040: c2be 083e b0c9 fa3c 8a77 233e 38dd 3b3d
00000050: a033 7dbc 9ce6 e8bd b274 d3bd f8e6 a53d
00000060: 0926 84be e3ce 87be 343f 7cbe 00aa 6a3b
00000070: 9d11 82be 140d 1f3e 061a 183e d817 79be
00000080: 38a4 7ebe 8f46 8f3e 7ef2 61be 6adb 99bd
00000090: 20d0 513d 08c9 4abd 55e8 1ebe 843a 4abe

estimation.3.bias f4 [4]
0.12373704 -0.16928035 -0.08984175 -0.08034566
00000000: d869 fd3d d457 2dbe f4fe b7bd 448c a4bd
