dagmm/models/2_124_dagmm.pth (torch_old, 80824 bytes, 22 tensors)

phi f4 [4]
0	0x3ec7d9b7	0.3903329
1	0x3e82dab2	0.25557476
2	0x3e2721c9	0.16321482
3	0x3e437566	0.19087753

mu f4 [4, 3]
0	0x3e30fbcb	0.17283551
1	0x3f8bddf9	1.0927116
2	0x3d0cffd0	0.03442365
3	0x3e323c36	0.17405781
4	0x3f8c1a1a	1.0945466
5	0x3d2e9b0e	0.04262834
6	0x3e327bde	0.17430064
7	0x3f8bb3f2	1.091429
8	0x3d360024	0.044433728
9	0x3e30796c	0.17233819
10	0x3f8bc8e7	1.0920686
11	0x3d121c5f	0.035671588

cov f4 [4, 3, 3]
0	0x39cc1863	0.00038928082
1	0xb8d63023	-0.00010213281
2	0x3a022d22	0.0004965832
3	0xb8d63023	-0.00010213281
4	0x3a2d9c23	0.00066226925
5	0xbab5ad4d	-0.0013860852
6	0x3a022d22	0.0004965832
7	0xbab5ad4d	-0.0013860852
8	0x3b8d0800	0.004303932
9	0x39e4e1c1	0.0004365575
10	0xb8c8e663	-9.579656e-05
11	0x3a2c09fd	0.00065627677
12	0xb8c8e663	-9.579656e-05
13	0x3a5f121b	0.0008509473
14	0xbab1a2c9	-0.0013552542
15	0x3a2c09fd	0.00065627677
16	0xbab1a2c9	-0.0013552542
17	0x3b981e02	0.004642249
18	0x39b3dd89	0.00034306597
19	0xb90a1cc8	-0.00013171427
20	0x3a1dedd2	0.00060245127
21	0xb90a1cc8	-0.00013171427
22	0x3a790538	0.0009499374
23	0xbaf6220d	-0.0018778458
24	0x3a1dedd2	0.00060245127
25	0xbaf6220d	-0.0018778458
26	0x3bbce163	0.005764173
27	0x39d4763a	0.00040523877
28	0xb905bcdf	-0.00012754228
29	0x3a1759ce	0.0005773575
30	0xb905bcdf	-0.00012754228
31	0x3a3deef2	0.00072453835
32	0xbaca94af	-0.0015455688
33	0x3a1759ce	0.0005773575
34	0xbaca94af	-0.0015455688
35	0x3b9964c6	0.0046812026

encoder.0.weight f4 [60, 122]
0	0x3da2b7b8	0.07945198
1	0xbd161db2	-0.036649413
2	0xbc4279c0	-0.011869848
3	0xbc0a2208	-0.008430965
4	0xbc93d8bc	-0.018047683
5	0xbda1ba99	-0.07896919
6	0xbd898fa8	-0.067168534
7	0xbd990520	-0.07471681
8	0x3d2622a0	0.040560365
9	0xbcf09d48	-0.029371873
10	0x3db17772	0.086653605
11	0xbd7d236a	-0.06180135
12	0x3d00799c	0.031365976
13	0xbc190e98	-0.009341858
14	0x3d1d781c	0.038444623
15	0xbca2f390	-0.01989153
16	0xbc8fbefc	-0.017547123
17	0xbd3a4434	-0.0454752
18	0x3c5c7098	0.013454579
19	0x3d6ece98	0.058302492
20	0x3cbe2be8	0.023214296
21	0xbd8eca6a	-0.06972201
22	0xbd2fffce	-0.042968564
23	0x3d46e758	0.04856047
24	0xbcd55048	-0.026039258
25	0xbd8e7638	-0.06956142
26	0x3d0579ca	0.03258685
27	0xbd199b00	-0.037501335
28	0x3dad8b40	0.084738255
29	0xbd722d43	-0.059125196
30	0x3d980582	0.074229255
31	0xbc7fda08	-0.015615948
32	0x3cd5dff8	0.026107773
33	0xbd81b9bc	-0.06334254
34	0xbd8e2135	-0.069399275
35	0x3d85a1a0	0.06524968
36	0x3cb84048	0.02249159
37	0x3d8d47dc	0.06898472
38	0x3c487268	0.012234308
39	0xbb8abc10	-0.0042338446
40	0xbc9af7cc	-0.018916987
41	0x3da4dd14	0.0804998
42	0xbcbe56ac	-0.023234688
43	0x3af77ec0	0.0018882379
44	0xbce0f170	-0.027458876
45	0x3d86d200	0.06583023
46	0x3db7eea6	0.089810655
47	0xbd2cbfa2	-0.042174943
48	0x3cfa953c	0.030588739
49	0xbd9fa80e	-0.07795726
50	0xbdb6c78a	-0.08924778
51	0xbda6ce1d	-0.08144782
52	0xbdae994a	-0.08525331
53	0x3d37260c	0.04471402
54	0xbbb216d0	-0.0054348484
55	0xbd8d9465	-0.0691307
56	0xbb117020	-0.0022192076
57	0xbd328324	-0.043582097
58	0xbd5bb07d	-0.05363511
59	0x3d2cd488	0.042194873
60	0xbcffde3a	-0.031233896
61	0xbdaa29f8	-0.08308786
62	0x3d093caa	0.03350512
63	0xbda1f7ac	-0.07908568
64	0xbc35c6f8	-0.011094801
65	0x3d910a02	0.07081987
66	0x3d896102	0.06707956
67	0x3d89cc84	0.067284614
68	0xbda992bc	-0.082799405
69	0xbc792b78	-0.015208118
70	0x3dac74d8	0.08420724
71	0x3d9eb9c2	0.07750274
72	0xbdb67771	-0.089095004
73	0xbbc15810	-0.0059003904
74	0xbd806221	-0.062687166
75	0xbd9c411d	-0.07629607
76	0xbce9d014	-0.028541602
77	0xbd89251b	-0.066965304
78	0x3d717aec	0.058955118
79	0x3d9439a8	0.072375596
80	0xbbe72ce0	-0.00705491
81	0xbdb8e801	-0.09028626
82	0x3c976644	0.018481381
83	0xbd8e63b4	-0.069526106
84	0x3d6ea238	0.058260173
85	0x3d8ce6d0	0.068799615
86	0x3d6f188c	0.05837302
87	0xbd2ca01b	-0.042144876
88	0xbd7246d6	-0.059149586
89	0x3c0479d8	0.00808569
90	0xbc4a3db8	-0.012343816
91	0xbc173fb0	-0.009231493
92	0xbd161eb1	-0.036650363
93	0x3dae8e42	0.08523227
94	0x3d42f780	0.047599316
95	0x3bc88990	0.0061199144
96	0x3c472028	0.012153663
97	0x3ce21058	0.027595684
98	0x3b426e80	0.0029667914
99	0xbcd3d504	-0.02585841
100	0x3cf03bf0	0.029325455
101	0x3befce20	0.007318273
102	0x3d8ae994	0.06782833
103	0x3db69228	0.08914596
104	0x3da026e2	0.07819916
105	0xbd9fa6ea	-0.07795508
106	0xbcd9c624	-0.026583739
107	0xbd01f8e5	-0.031731505
108	0xbc9967ec	-0.018726312
109	0x3d71bed0	0.059019864
110	0x3d977e06	0.07397084
111	0x3cd7534c	0.026284836
112	0xbcaeca74	-0.021336772
113	0x3d93b8e0	0.072129965
114	0xbcc6d648	-0.0242721
115	0xbd6f473d	-0.058417547
116	0x3c681ad8	0.014166556
117	0xbd4d038f	-0.050052222
118	0xbd2367d9	-0.03989396
119	0x3cdac624	0.026705809
120	0xbda3c754	-0.07997003
121	0xbcda3b8c	-0.026639722
122	0xbd86e7ba	-0.06587167
123	0x3d826fe4	0.06368998
124	0xbd87d449	-0.06632287
125	0x3db2e76c	0.087355465
126	0x3d2f3cfc	0.04278277
127	0x3d675cec	0.0564851
128	0xbd0ac4ed	-0.03387921
129	0xbd5edefe	-0.05441188
130	0x3d913b68	0.07091409
131	0x3da82ca4	0.082116395
132	0xbd63c46a	-0.055607237
133	0x3d8041b2	0.062625304
134	0x3bb14760	0.00541012
135	0xbcd2a594	-0.02571372
136	0xbc61d908	-0.013784654
137	0xbcf9ce6c	-0.030493937
138	0xbd5ac9bf	-0.053415056
139	0x3d90b7be	0.07066296
140	0x3d45ea7c	0.048319325
141	0x3d03349a	0.032032587
142	0x3c232f68	0.009960033
143	0xbd49119a	-0.04908905
144	0x3c43c2f0	0.011948332
145	0xbdb3901b	-0.0876772
146	0x3ca21c30	0.019788831
147	0x3d6c082c	0.05762498
148	0x3d4dc2bc	0.05023454
149	0xbdb12e8a	-0.08651455
150	0xbd88e6c8	-0.06684643
151	0xbc33c700	-0.010972738
152	0x3caa64bc	0.020799987
153	0xbbc8a940	-0.006123692
154	0xbd9988bb	-0.074967824
155	0xbd21fa5e	-0.03954541
156	0x3d5fcb60	0.054637313
157	0x3d5f60e8	0.054535776
158	0x3d0172ec	0.03160374
159	0xbc0b6ac8	-0.008509345
160	0xbd8ced5a	-0.06881209
161	0xbd5074f6	-0.050892793
162	0x3d797144	0.060899034
163	0xbd5d1c68	-0.05398217
164	0xb9d44100	-0.0004048422
165	0x3d15bccc	0.036557004
166	0x3cb102f4	0.021607853
167	0xbd28aeca	-0.041182317
168	0xbc7d9200	-0.015476704
169	0xbd923df9	-0.071407266
170	0x3d3ce648	0.04611805
171	0x3db8866a	0.090100124
172	0x3b96f5c0	0.0046069324
173	0x3d2a5b58	0.04159102
174	0xbd826166	-0.063662335
175	0xbcfaa39c	-0.030595593
176	0x3c48c228	0.012253322
177	0xbbba4320	-0.0056842715
178	0x3daf0da0	0.08547521
179	0x3d8abc1e	0.06774162
180	0xbdae2736	-0.08503573
181	0xbcae7750	-0.021297127
182	0x3ba2d7a0	0.004969552
183	0xbc9b5f78	-0.018966421
184	0xbd252453	-0.040317845
185	0xbbf76490	-0.00754983
186	0xbdb879a0	-0.09007573
187	0xbd92b711	-0.071638234
188	0xbd8a99f9	-0.06767649
189	0xbda256cb	-0.07926711
190	0x3c90a57c	0.017657034
191	0xbd7bd18c	-0.061479136
192	0x3da32922	0.0796683
193	0xbd520835	-0.051277358
194	0xba14db80	-0.000567846
195	0xbd74d416	-0.059772573
196	0x3d60d6b8	0.05489227
197	0x3ce1ab34	0.027547456
198	0x3d9fd5cc	0.078044504
199	0x3c3020a0	0.010749966
200	0x3d951362	0.072790876
201	0x3d226b84	0.039653316
202	0x3db946a4	0.09046677
203	0x3c97c8b8	0.018528327
204	0x3da45c04	0.08025363
205	0x3d9ede30	0.07757223
206	0x3d93b228	0.07211715
207	0xbda17f9b	-0.07885667
208	0xbd9cd614	-0.0765802
209	0xbcc58ccc	-0.024114989
210	0x3d87837a	0.06616874
211	0x3c92a1d0	0.017899424
212	0xbca0eef8	-0.0196452
213	0xbd8b3a65	-0.06798247
214	0xbd4c5b98	-0.049892038
215	0x3d0e4794	0.03473623
216	0x3d7a5f94	0.061126307
217	0xbc471290	-0.012150422
218	0x3d2e7554	0.04259236
219	0x3d5aef80	0.05345106
220	0x3b147600	0.0022653341
221	0xbcdcc220	-0.026948035
222	0x3c2b20c0	0.01044482
223	0xbc96e2fc	-0.018418781
224	0x3da9bc78	0.08287901
225	0x3d3e3ec8	0.04644659
226	0x3a701700	0.00091587007
227	0xbda40d9f	-0.080104105
228	0xbdabff91	-0.08398355
229	0x3d88e43a	0.06684156
230	0x3cf05240	0.029336095
231	0xbd81a29c	-0.063298434
232	0x3d93ec12	0.07222761
233	0x3d26db48	0.040736467
234	0x3b73ba80	0.003719002
235	0xbd9527f8	-0.07283014
236	0x3d65acfc	0.056073174
237	0x3c106320	0.008812696
238	0xba9a5f40	-0.0011777654
239	0x3db515d0	0.08842051
240	0x3d028e22	0.03187383
241	0x3d1dec00	0.038555145
242	0x3d1c9c78	0.038235158
243	0x3d9adfb0	0.07562196
244	0xbdb8c83d	-0.090225674
245	0x3d592254	0.053011253
246	0xbda48e5c	-0.080349654
247	0xbc89a438	-0.016801938
248	0xbd005a2c	-0.031335995
249	0xbd6b4114	-0.05743511
250	0xbd25af88	-0.040450603
251	0xbdac986d	-0.084275104
252	0x3caa8470	0.020815104
253	0x3d6c4844	0.057686105
254	0xbd710de6	-0.058851145
255	0xbd9e3945	-0.07725767

encoder.0.bias f4 [60]
0	0x3da70d52	0.081568375
1	0xbd03b666	-0.03215637
2	0x3b8e0e30	0.0043351874
3	0xbd9d29dc	-0.07674
4	0x3d195d4c	0.03744249
5	0xbdb8b6c2	-0.09019233
6	0xbca3cb78	-0.019994482
7	0x3d8c5dcc	0.06853828
8	0x3d157770	0.036490858
9	0x3db952f8	0.09049028
10	0xbd8694fd	-0.06571386
11	0x3a2c3f80	0.00065707415
12	0x3c1541a8	0.009109892
13	0xbd66efc6	-0.05638101
14	0xbd508ecc	-0.05091743
15	0xbd799f35	-0.060942847
16	0x3c26bb68	0.010176517
17	0xbd149469	-0.036274347
18	0xbd0cc8ec	-0.0343713
19	0x3d4f6cb0	0.05064076
20	0x3d7553d0	0.059894383
21	0xbcfd44fe	-0.030916687
22	0xbd1a4d9e	-0.037671678
23	0xbcaeef6c	-0.0213544
24	0xba454580	-0.000752531
25	0xbd414688	-0.047186404
26	0xbd078009	-0.03308109
27	0xbd267399	-0.040637586
28	0x3d99b8d2	0.07505955
29	0x3d86522e	0.06558643
30	0x3d4b0290	0.04956299
31	0x3da559b0	0.08073747
32	0xbd6549de	-0.05597865
33	0x3cdadd20	0.026716769
34	0xbcfe396a	-0.031033237
35	0x3daf059a	0.0854599
36	0xbd42351e	-0.047413938
37	0x3d24ad44	0.0402043
38	0x3d96b506	0.07358746
39	0x3d55ba70	0.052179754
40	0x3d2b16e4	0.041769877
41	0xbcaedbdc	-0.021345071
42	0x3cb22454	0.021745838
43	0x3d0be1e8	0.034150988
44	0xbd6a93ee	-0.057269983
45	0x3da9e54e	0.082956895
46	0x3c93ff88	0.018066183
47	0xbd337165	-0.043809313
48	0x3d3b1070	0.045669973
49	0x3d9ba524	0.075998574
50	0xbd8e554a	-0.06949861
51	0x3d209ce4	0.039212123
52	0xbd3e90e7	-0.04652491
53	0xbc48bcb0	-0.012252018
54	0x3db5fe5c	0.08886406
55	0x3d83928a	0.064244345
56	0x3c7e0c88	0.015505917
57	0xbd490697	-0.04907855
58	0x3ca970b0	0.020683616
59	0x3d4a95a8	0.04945913

encoder.2.weight f4 [30, 60]
0	0x3dc44cec	0.09584984
1	0xbc33d3c0	-0.010975778
2	0x3dedef52	0.11617912
3	0x3ced9598	0.029001996
4	0xbda80c8f	-0.0820552
5	0xbdc43cd6	-0.09581916
6	0xbd8b2ff4	-0.06796256
7	0xbcf25dd0	-0.029585749
8	0xbdd3b278	-0.103367746
9	0x3d42be8c	0.047545
10	0x3df701f4	0.120609194
11	0xbdc21306	-0.09476285
12	0x3def81a4	0.11694649
13	0x3c5fc3d0	0.013657525
14	0xbd307aa0	-0.043085694
15	0x3dea4da6	0.114405915
16	0x3de6b2f6	0.11264603
17	0x3c9a0ee0	0.018805921
18	0x3d8c304e	0.06845151
19	0x3e007e5b	0.12548201
20	0x3da8a3fc	0.082344025
21	0xbd5206a8	-0.05127588
22	0x3d9fd14e	0.078035936
23	0x3d9ad1ea	0.07559569
24	0xbde7eef7	-0.11324876
25	0xbd8427b8	-0.06452888
26	0xbca00c94	-0.019537248
27	0xbdb0841b	-0.08618947
28	0x3c23a7a0	0.009988695
29	0xbd51ee4a	-0.05125264
30	0x3def8380	0.116950035
31	0xbba387c0	-0.004990548
32	0xbdfb8540	-0.12281275
33	0x3dbc764a	0.09202249
34	0xbddc309e	-0.107514605
35	0xbddb98eb	-0.10722526
36	0xbd32b958	-0.04363379
37	0xbb803cc0	-0.003913492
38	0x3d950fba	0.0727839
39	0xbcdb4704	-0.026767261
40	0x3df79ec2	0.120908275
41	0x3d93f2dc	0.07224056
42	0xbd6cf648	-0.05785206
43	0xbdbaba54	-0.091175705
44	0xbcb30a60	-0.021855533
45	0x3db1aa40	0.08675051
46	0x3d00e3e0	0.03146732
47	0xbd936eca	-0.07198866
48	0x3d033edc	0.03204237
49	0x3ddfa180	0.109194756
50	0xba91b980	-0.0011117905
51	0x3daf9494	0.08573261
52	0x3d94b626	0.072613046
53	0x3d64a530	0.055821598
54	0x3d7e5338	0.062091082
55	0xbd40fd70	-0.047116697
56	0xbd7deb48	-0.06199196
57	0x3de39c40	0.11113787
58	0x3dadabac	0.084800094
59	0xbd9a5594	-0.07535854
60	0xbdc80170	-0.09765899
61	0x3cd0e380	0.025499105
62	0x3c168b20	0.009188443
63	0x3dfaf302	0.12253381
64	0xbdea4272	-0.11438455
65	0xbdc4803c	-0.09594771
66	0x3becc4a0	0.007225588
67	0x3de510ca	0.11184843
68	0x3dce6e60	0.10079646
69	0xbd257818	-0.040397733
70	0xbd0aa1ec	-0.033845827
71	0xbcf003d0	-0.029298693
72	0xbd47c39e	-0.04877054
73	0xbdacc432	-0.08435859
74	0x3d086868	0.033302695
75	0xbdd2fbb2	-0.10301913
76	0xbdf00903	-0.11720469
77	0xba5d0a00	-0.0008431971
78	0x3de47b9a	0.111563876
79	0x3cbed470	0.023294657
80	0xbd6f62b8	-0.058443755
81	0xbdb516f9	-0.08842272
82	0xbdb1c5a9	-0.08680279
83	0x3d5b2884	0.053505436
84	0xbd91de20	-0.07122445
85	0x3dd3d792	0.10343851
86	0xbdba3202	-0.090915695
87	0x3bc373e0	0.005964741
88	0x3dbc2090	0.09185898
89	0xbdce320f	-0.10068142
90	0xbd64bd54	-0.05584462
91	0xbde7f77a	-0.11326499
92	0x3bf5f540	0.0075060427
93	0xbd9a041e	-0.075203165
94	0x3d589178	0.052873105
95	0xbd91901e	-0.07107566
96	0x3da29764	0.07939032
97	0xbc8d13dc	-0.017221384
98	0xbb5f8300	-0.0034105182
99	0xbd1394f8	-0.03603074
100	0xbda413d2	-0.08011593
101	0xbdc75e88	-0.09734827
102	0x3d15d370	0.036578596
103	0x3d89d1a2	0.067294374
104	0x3d84691a	0.06465359
105	0x3d7ccca8	0.061718613
106	0xbb252800	-0.0025200844
107	0x3d8782fa	0.06616779
108	0x3dbc10b6	0.09182875
109	0xbcc8f854	-0.024532475
110	0x3db0f416	0.08640306
111	0xbdf7a0be	-0.12091206
112	0xbdc841c2	-0.09778167
113	0x3d8fd768	0.07023507
114	0x3d9d72f4	0.07687941
115	0x3da610ce	0.08108674
116	0x3b5a3c40	0.0033300072
117	0xbdf31e15	-0.11870972
118	0xbd5bf85e	-0.05370366
119	0x3d74cfb8	0.05976841
120	0x3d8b621e	0.06805824
121	0xbd7a04aa	-0.061039604
122	0xbdd402c3	-0.10352089
123	0x3e02cbf1	0.1277311
124	0x3ba94000	0.0051651
125	0x3e03dde5	0.12877615
126	0x3dbdd0fe	0.09268378
127	0x3df34082	0.11877538
128	0xbd192af0	-0.037394464
129	0xbde1eda8	-0.110316575
130	0x3dcd487e	0.100235924
131	0x3cf95970	0.030438155
132	0xbddd407a	-0.108033136
133	0xbd92ef5a	-0.07174559
134	0x3bff7180	0.0077955127
135	0x3db6e55e	0.08930467
136	0xbcbe0bac	-0.023198925
137	0x3de536ca	0.11192091
138	0x3e020ac3	0.12699418
139	0xbc3551a0	-0.011066824
140	0x3cf295a8	0.029612377
141	0xbdb0edbe	-0.08639096
142	0xbcd59e90	-0.026076585
143	0xbd78d078	-0.060745686
144	0x3def695e	0.11690019
145	0xbb072580	-0.0020621717
146	0xbccb041c	-0.024782233
147	0xbd01960a	-0.03163723
148	0xbe03dd09	-0.12877287
149	0xbd8f9826	-0.07011442
150	0x3d3807f0	0.044929445
151	0x3d1acb60	0.03779161
152	0xbddaca58	-0.10683125
153	0x3d5964b8	0.05307457
154	0xbd265d8a	-0.04061655
155	0x3decafd6	0.115569755
156	0xbd91ad44	-0.07113126
157	0xbcaad4fc	-0.020853512
158	0xbdd4da64	-0.10393217
159	0xbc703210	-0.014660373
160	0xbbfb22a0	-0.0076640397
161	0x3d2ca604	0.042150512
162	0x3bad0920	0.005280629
163	0x3ca2da78	0.019879565
164	0xbd04b848	-0.032402307
165	0xbdae4b7a	-0.0851049
166	0xbdfe9953	-0.12431588
167	0xbd744e42	-0.059644945
168	0xbca216f4	-0.019786336
169	0xbd890e46	-0.066921756
170	0xbc1e94d0	-0.009679034
171	0xbdee6272	-0.11639871
172	0xbdb1533a	-0.08658452
173	0xbddd9e55	-0.10821215
174	0xbdb29de2	-0.0872152
175	0x3dc400dc	0.095704764
176	0xbc40d5f0	-0.011769757
177	0x3ccbd140	0.024880052
178	0xbdbf1f56	-0.09332149
179	0x3dd1a542	0.102365986
180	0x3bc5ec60	0.006040141
181	0xbd031e26	-0.032011174
182	0x3d98234c	0.07428607
183	0x3c11c560	0.0088971555
184	0xbd35891a	-0.044320203
185	0xbc429030	-0.011875197
186	0x3ce486b8	0.02789627
187	0xbdfe1bfe	-0.12407683
188	0x3d87aaea	0.06624396
189	0x3d882212	0.066471234
190	0xbdf3f300	-0.11911583
191	0xbda46e85	-0.080288924
192	0x3cdef748	0.027217522
193	0xbd4b78e6	-0.049675845
194	0xbb164540	-0.002292946
195	0xbd08dfb8	-0.03341648
196	0xbdbb1f8f	-0.09136879
197	0xbdeb87a5	-0.115004815
198	0x3d2e1e80	0.042509556
199	0xbd2a4648	-0.04157093
200	0xbcf6c72c	-0.03012427
201	0xbe030e3b	-0.12798397
202	0xbc7ab408	-0.015301712
203	0xbdf53d03	-0.11974528
204	0xbdaa6e92	-0.08321871
205	0xbdbb3a04	-0.09141925
206	0xbda6fa7b	-0.08153244
207	0x3ccefc38	0.025266752
208	0xbd426b36	-0.047465526
209	0xbdaa47e3	-0.083144926
210	0x3dfa2142	0.12213375
211	0x3dd8e822	0.10591151
212	0x3d715378	0.058917493
213	0xbd958c1e	-0.07302116
214	0x3d9d4394	0.07678905
215	0x3da271f2	0.079318896
216	0x3d0d2a18	0.03446397
217	0x3da52132	0.08062972
218	0xbcf0f284	-0.029412515
219	0xbdfa33e2	-0.12216927
220	0x3d14471c	0.036200628
221	0xbdfc0251	-0.12305129
222	0xbc95aa44	-0.018269666
223	0xbce7f274	-0.028313853
224	0x3c96c058	0.018402264
225	0x3d3c988c	0.046043918
226	0xbde5bfb0	-0.11218202
227	0x3dcc7006	0.09982304
228	0xbd6d4410	-0.057926238
229	0x3cb1fa98	0.021725938
230	0xbe01d792	-0.1267989
231	0xbdb24788	-0.0870505
232	0x3d38d3e0	0.045123935
233	0xbd198f50	-0.03749019
234	0xbd2e2f10	-0.04252535
235	0x3ddef1be	0.108859524
236	0xbd58cc18	-0.052929014
237	0x3d26c054	0.040710762
238	0x3cf8b978	0.030361876
239	0x3ba2b640	0.0049655735
240	0xbd99d540	-0.07511377
241	0x3d3d6ae4	0.046244517
242	0xbd2f007e	-0.04272508
243	0xbd822915	-0.06355492
244	0x3df5d380	0.12003231
245	0x3dc237cc	0.09483299
246	0x3da7a574	0.081858546
247	0xbcd6f418	-0.02623944
248	0xbde7e3ca	-0.11322744
249	0x3dfbcc8e	0.12294875
250	0xbddeef61	-0.10885502
251	0x3dc14fb4	0.0943903
252	0x3ded14b0	0.115762115
253	0xbdff3e6d	-0.12463079
254	0xbc00fc88	-0.007872708
255	0x3db300fc	0.08740422

encoder.2.bias f4 [30]
0	0x3ca327e0	0.019916475
1	0xbd0587de	-0.032600276
2	0xbbcdc470	-0.0062795207
3	0xbd5e4598	-0.05426559
4	0x3c1c8fe0	0.009555787
5	0x3de0d810	0.10978711
6	0x3d3791e4	0.044816867
7	0xbd3b0ad2	-0.045664616
8	0x3d22f068	0.03978005
9	0xbdf58ad1	-0.11989368
10	0x3d9469e6	0.07246761
11	0xbdc54be8	-0.096336186
12	0xbda9735e	-0.08273958
13	0x3cd32108	0.025772586
14	0xbd11c35a	-0.035586692
15	0x3d13bd3c	0.03606914
16	0xb8474000	-4.7504902e-05
17	0xbb48e780	-0.0030655563
18	0x3da1b652	0.07896103
19	0xbdad2e78	-0.08456129
20	0x3cab6d40	0.020926118
21	0x3dcddfcc	0.100524515
22	0xbe035b54	-0.12827808
23	0xbc9b90fc	-0.018990032
24	0x3dc11bc2	0.094291225
25	0xbdf5dc5e	-0.12004922
26	0xbded27a9	-0.1157983
27	0x3dc3cda2	0.09560706
28	0xbc7e8228	-0.015533961
29	0x3df60120	0.12011933

encoder.4.weight f4 [10, 30]
0	0x3dc11468	0.0942772
1	0x3dcb3ed0	0.0992409
2	0xbe10fe92	-0.14159611
3	0x3db8c8f4	0.09022704
4	0x3e0b87fe	0.13626096
5	0xbd5885dc	-0.052862033
6	0xbda5057a	-0.08057685
7	0xbe153bf5	-0.14573653
8	0xbd9a79d8	-0.07542771
9	0xbd92f63b	-0.07175871
10	0xbcece780	-0.028918982
11	0xbcc2bea0	-0.023772538
12	0xbe122d34	-0.14275056
13	0xbcb0a7f0	-0.021564454
14	0xbd8682e8	-0.06567937
15	0xbd8a4076	-0.06750576
16	0xbe38660a	-0.18007675
17	0xbe322612	-0.17397335
18	0x3c1e2260	0.00965175
19	0xbd3e9d68	-0.046536833
20	0xbd8ef507	-0.06980329
21	0x3dee7224	0.11642864
22	0xbe339838	-0.17538536
23	0x3c858508	0.016298786
24	0xbc58b640	-0.013227046
25	0xbe1d1410	-0.15339684
26	0x3df0ce74	0.11758128
27	0xbe3475f0	-0.17623115
28	0x3dc60344	0.096685916
29	0x3de659f0	0.11247623
30	0xbdd3a797	-0.103346996
31	0xbd5a6218	-0.053316206
32	0xbe2222b0	-0.15833545
33	0xbe23b51b	-0.15987055
34	0x3e09a84a	0.13443103
35	0xbd91bf68	-0.07116586
36	0xbdac5da0	-0.08416295
37	0xbded3675	-0.115826525
38	0x3cb2b1e0	0.021813333
39	0xbc55ad80	-0.013041854
40	0xbe255c84	-0.16148573
41	0x3c3a1660	0.011357874
42	0x3e30039a	0.17188874
43	0x3e2961a8	0.16541159
44	0xbcd872a0	-0.026421845
45	0x3dc68b50	0.096945405
46	0x3df60bf0	0.12013996
47	0xbc975fe8	-0.018478349
48	0xbc9ec4d8	-0.019380972
49	0x3b610100	0.0034332871
50	0x3e1c61c0	0.15271664
51	0x3d563718	0.052298635
52	0xbcf95650	-0.030436665
53	0x3de7652c	0.11298594
54	0x3ddf2754	0.10896173
55	0x3dc6e7c8	0.097121775
56	0x3daeb3d4	0.08530393
57	0x3dd8ed6c	0.1059216
58	0x3e36ad66	0.17839584
59	0x3dffae7c	0.12484452
60	0x3d7a1b14	0.06106098
61	0x3de1f95c	0.1103389
62	0x3d610d98	0.054944605
63	0x3e25f502	0.16206744
64	0xbcc85f58	-0.024459526
65	0xbe0e6b93	-0.13908224
66	0xbe10a6de	-0.14126155
67	0xbd9abeaf	-0.07555901
68	0x3dbff7dc	0.09373447
69	0xbe38a849	-0.18032946
70	0x3cff4f18	0.031165645
71	0xbc3b0e80	-0.011417031
72	0x3d856288	0.06512934
73	0xbe251840	-0.16122532
74	0x3d505074	0.050857976
75	0x3c1de880	0.009637952
76	0x3e068d0c	0.13139743
77	0x3e38d772	0.18050936
78	0x3d207ef8	0.039183587
79	0x3dc790b0	0.09744394
80	0x3e2aba54	0.16672641
81	0x3e278ef4	0.16363126
82	0x3e33cb24	0.17557961
83	0x3de13d50	0.109980226
84	0x3e13a3e2	0.14417985
85	0x3d85566a	0.06510623
86	0x3e149e72	0.14513567
87	0xbe23ae94	-0.15984565
88	0x3dd0f938	0.10203785
89	0xbd8bce50	-0.0682646
90	0xbdd2bc1d	-0.10289786
91	0x3dc05e14	0.09392944
92	0x3defd370	0.117102504
93	0x3d88460a	0.06653984
94	0xbdabd5c7	-0.08390384
95	0xbd927cfd	-0.07152746
96	0x3d607118	0.054795355
97	0x3e0cacc6	0.13737783
98	0x3bf8b840	0.0075903237
99	0x3e2f9626	0.17147121
100	0x3d3741ec	0.044740602
101	0xbe1e87f2	-0.15481547
102	0x3dfa0ff4	0.12210074
103	0xbdc9b274	-0.0984849
104	0x3dea7b34	0.114492804
105	0xbd6caae6	-0.05778017
106	0x3dc37c70	0.09545219
107	0x3e11f0ec	0.1425206
108	0xbd61e0e4	-0.055146113
109	0x3de33fcc	0.11096153
110	0x3e2b6754	0.16738635
111	0x3d42033c	0.047366366
112	0xbde99273	-0.11404886
113	0xbdffa4e7	-0.124826245
114	0xbcc92748	-0.024554864
115	0x3ce65a80	0.028119326
116	0x3de11fbc	0.10992381
117	0x3e21dde2	0.15807298
118	0xbd6c0874	-0.05762525
119	0x3e1f920e	0.15583059
120	0xbc46f870	-0.012144193
121	0xbc0d1930	-0.008611962
122	0x3e326b6c	0.1742379
123	0x3e33e61e	0.17568251
124	0xbae54400	-0.0017491579
125	0xbd26d9a8	-0.040734917
126	0xbd189ec4	-0.037260786
127	0xbe39ad33	-0.18132477
128	0xbdca6be2	-0.09883858
129	0x3ca78e10	0.020453483
130	0xbd858792	-0.065199986
131	0xbe0cde29	-0.13756622
132	0xbe002e0d	-0.12517567
133	0xbd6cc324	-0.057803288
134	0xbdfe14b6	-0.12406294
135	0x3de0dddc	0.10979816
136	0x3db5da60	0.08879542
137	0x3e2b58a0	0.16733027
138	0x3d53b364	0.051684752
139	0x3dcb0954	0.099138886
140	0x3dfbb924	0.12291172
141	0xbc1e9790	-0.00967969
142	0x3dd1af74	0.10238543
143	0xbde8ee2a	-0.11373551
144	0x3e34b57c	0.17647356
145	0x3e1e196c	0.15439385
146	0x3d9f7aac	0.0778707
147	0x3e117c80	0.14207649
148	0xb7f96000	-2.9727817e-05
149	0xbd504e00	-0.050855637
150	0xbe1d570e	-0.1536524
151	0x3de38174	0.111086756
152	0xbd51d334	-0.05122681
153	0x3c834810	0.016025573
154	0x3bd595e0	0.0065181106
155	0xbd05c738	-0.032660693
156	0x3da07f38	0.07836765
157	0xbdb89467	-0.090126805
158	0x3dc71040	0.09719896
159	0xbe0ae050	-0.13562131
160	0xbd9b9a3e	-0.07597779
161	0xbe13f439	-0.14448632
162	0x3e16cee0	0.14727354
163	0x3ca0a510	0.019609958
164	0x3cdf4278	0.027253374
165	0x3e0449de	0.12918803
166	0xbdf4e6fb	-0.119581185
167	0xbdad0f62	-0.084502
168	0x3e372160	0.17883825
169	0xbe39e2a6	-0.18152866
170	0x3d64f744	0.055899873
171	0x3e05606e	0.13025066
172	0x3d943254	0.07236162
173	0xbd71576c	-0.058921263
174	0xbd5c61e8	-0.05380431
175	0x3d9342e4	0.07190493
176	0x3e376ec0	0.17913342
177	0xbcdee660	-0.02720946
178	0xbe255072	-0.16143969
179	0xbc231f20	-0.009956151
180	0x3df8a5fc	0.12141034
181	0xbce8a998	-0.028401181
182	0xbd97080b	-0.07374581
183	0xbddddaa4	-0.10832718
184	0xbd4d4b98	-0.05012092
185	0x3e0175ba	0.12642565
186	0xbdebcd99	-0.11513824
187	0x3d4c594c	0.049889848
188	0xbda251a8	-0.07925731
189	0x3ddcc280	0.107792854
190	0x3e3090ca	0.17242733
191	0xbd80a3ba	-0.06281228
192	0x3cb0ea30	0.021596044
193	0x3df8efa0	0.1215508
194	0xbe18443e	-0.14869782
195	0x3d538c74	0.05164762
196	0xbe255aa1	-0.16147853
197	0xbda852d7	-0.082189254
198	0x3c2de870	0.010614499
199	0xbdefde68	-0.117123425
200	0x3cf530e8	0.029930547
201	0xbc894b70	-0.016759604
202	0x3dd7b59c	0.10532686
203	0xbdbb6901	-0.09150887
204	0xbe1016cc	-0.14071196
205	0x3c2a1b80	0.010382533
206	0xbd975eb5	-0.07391111
207	0xbe208869	-0.15677036
208	0xbe19c401	-0.15016176
209	0x3d899cec	0.067193836
210	0x3deca92c	0.115557045
211	0x3dec33b8	0.11533302
212	0x3dae835c	0.085211486
213	0xbdb3f217	-0.08786409
214	0xbde98519	-0.114023395
215	0x3dd6b290	0.10483277
216	0x3d9acf54	0.07559076
217	0x3de3a9d4	0.111163765
218	0xbd9a8cf2	-0.075464144
219	0xbd8fe465	-0.07025985
220	0xbdf795b6	-0.12089102
221	0xbcac8d00	-0.021063328
222	0xbdf2afff	-0.11849975
223	0x3dc82af8	0.09773821
224	0xbde5c6f9	-0.11219592
225	0x3dfa0990	0.12208855
226	0x3d47c490	0.04877144
227	0xbc74e510	-0.014947191
228	0x3e101c50	0.140733
229	0xbdd33425	-0.1031268
230	0xbd5c081c	-0.05371867
231	0xbe14dba7	-0.14536916
232	0xbd18df20	-0.037322164
233	0x3d632258	0.055452675
234	0xbdd379f2	-0.103259936
235	0x3d6257b0	0.055259407
236	0x3cd05348	0.025430337
237	0x3dc98500	0.09839821
238	0xbd652174	-0.055940107
239	0x3dcfcc3c	0.101463765
240	0x3d3a3acc	0.04546623
241	0xbcf260c8	-0.029587165
242	0x3defc400	0.11707306
243	0x3e1f43b6	0.15553173
244	0x3df31ad8	0.118703544
245	0x3e2cf5fe	0.16890714
246	0xbcee2a80	-0.029073
247	0xbe3581c3	-0.17725281
248	0x3dc82748	0.09773117
249	0xbb8dd000	-0.004327774
250	0xbe1e7135	-0.15472873
251	0x3d3e1214	0.04640396
252	0xbdbba7e9	-0.09162886
253	0xbd5674f4	-0.05235763
254	0x3e332e94	0.17498237
255	0x3e3008ee	0.17190906

encoder.4.bias f4 [10]
0	0xbe0eb915	-0.1393779
1	0xbdb4e4a1	-0.0883267
2	0xbe26bb40	-0.16282368
3	0x3e25ef46	0.16204557
4	0xbd9f260e	-0.0777093
5	0xbde78188	-0.11304003
6	0x3de9bef8	0.114133775
7	0x3d96ec54	0.07369295
8	0x3e28ae3a	0.16472712
9	0x3d4264b8	0.047459334

encoder.6.weight f4 [1, 10]
0	0x3e02fa6e	0.12790844
1	0x3e21f5dc	0.15816444
2	0x3ea14d83	0.3150445
3	0xbdd55c0c	-0.10417947
4	0xbe8828e7	-0.26593706
5	0xbe20ea7f	-0.15714453
6	0xbe2ad895	-0.16684182
7	0xbbf9a040	-0.0076179802
8	0x3e938491	0.28812078
9	0x3afb8f00	0.0019192398

decoder.0.weight f4 [10, 1]
0	0xbecbadf8	-0.39781165
1	0x3f427d0c	0.75972056
2	0xbeec4938	-0.4614961
3	0x3e7e9ce0	0.2486453
4	0xbf797730	-0.9744749
5	0xbf2454b2	-0.64191735
6	0x3f437ee4	0.76365495
7	0x3f0f3f30	0.5595579
8	0x3f703248	0.93826723
9	0x3e2cec90	0.16887116

decoder.0.bias f4 [10]
0	0xbe9a5000	-0.3013916
1	0xbe4a5a38	-0.19760978
2	0xbedbe468	-0.42947698
3	0x3e093f58	0.1340307
4	0x3ebcbbd0	0.3686204
5	0xbf1e93c0	-0.619442
6	0xbf0406fa	-0.51573145
7	0x3f406f60	0.75169945
8	0xbf083a38	-0.53213835
9	0xbf0a7e40	-0.5409889

decoder.2.weight f4 [30, 10]
0	0x3d9ee4b8	0.077584684
1	0x3e0d4ce0	0.13798857
2	0xbc2e8da0	-0.010653883
3	0x3e729386	0.23689088
4	0xbe9b941e	-0.30386442
5	0x3e2b644a	0.16737476
6	0xbe874ce3	-0.26425847
7	0xbe380707	-0.1797143
8	0xbd1050d0	-0.03523332
9	0xbe671f09	-0.22570433
10	0xbe375994	-0.17905265
11	0x3e19592a	0.1497542
12	0x3e0a4286	0.13501939
13	0x3e832065	0.25610653
14	0x3e48900a	0.19586197
15	0xbe5129b6	-0.20426068
16	0x3cfe2d80	0.031027555
17	0xbe892108	-0.26783013
18	0x3e9e675b	0.3093823
19	0xbddcdacc	-0.1078392
20	0x3e4bd98a	0.19907203
21	0x3e867c85	0.26266876
22	0x3e71aab2	0.23600271
23	0xbe1821f0	-0.14856696
24	0xbe3f786e	-0.18698284
25	0xbea0cccc	-0.31406248
26	0xbe537d72	-0.20653322
27	0xbcb26600	-0.021777153
28	0x3e41a5e6	0.18910941
29	0x3e9941c7	0.29932997
30	0xbe56b806	-0.20968637
31	0x3e010c0c	0.12602252
32	0x3e03908a	0.12848106
33	0x3cb03800	0.021511078
34	0x3e81e2f3	0.2536846
35	0x3e108ed2	0.14116982
36	0xbdb9d580	-0.09073925
37	0xbe89a5a9	-0.268842
38	0x3e33526c	0.1751191
39	0x3da89f78	0.08233541
40	0xbe91675d	-0.28399172
41	0xbbd3b480	-0.0064607263
42	0xbc9d4f00	-0.01920271
43	0x3e4713f2	0.19441202
44	0x3e587ffe	0.21142575
45	0xbe175522	-0.1477857
46	0xbdc4ccc2	-0.09609367
47	0x3e84dc25	0.25949207
48	0x3d8920e0	0.066957235
49	0x3e63e05a	0.22253552
50	0x3e2d6f5e	0.16937014
51	0x3e80dd45	0.25168815
52	0x3d6547e8	0.05597678
53	0xbe89c050	-0.26904535
54	0xbe24c73b	-0.16091625
55	0xbccb1b90	-0.024793416
56	0x3e627fa6	0.22119007
57	0xbd77ec80	-0.06052828
58	0x3e51ba9e	0.20481345
59	0xbe6a364c	-0.22872275
60	0x3d8cad00	0.06868935
61	0x3ea04e71	0.31309846
62	0x3dde8198	0.10864562
63	0x3e98eca5	0.29868045
64	0x3e2f8b16	0.17142901
65	0x3e1babd2	0.15202263
66	0x3e287e06	0.16454324
67	0xbe929793	-0.28631267
68	0xbe79dad6	-0.24399886
69	0x3d839264	0.06424406
70	0x3e71c4b2	0.2361019
71	0x3e2e66d4	0.17031413
72	0xbdafe6c2	-0.085889354
73	0x3d8ce93c	0.068804234
74	0x3cd98930	0.026554674
75	0x3e507ea2	0.20360807
76	0xbe3b3b3a	-0.18284312
77	0xbdbe18c4	-0.092820674
78	0x3c7af020	0.015316039
79	0x3df16290	0.117863774
80	0xbe6de77b	-0.23232834
81	0x3e4d943a	0.20076075
82	0x3decbf08	0.11559874
83	0xbe76872d	-0.24075003
84	0xbd7afee0	-0.061278224
85	0xbe44374c	-0.19161719
86	0xbd68a2d0	-0.056795895
87	0x3e96a791	0.29424718
88	0x3d72e370	0.059298933
89	0x3e045156	0.12921652
90	0xbd5e4428	-0.054264218
91	0x3e120648	0.14260209
92	0x3e72fbda	0.23728886
93	0x3e76a41e	0.24086043
94	0x3db18280	0.08667469
95	0xbe752400	-0.23939514
96	0xbe852c7b	-0.26010498
97	0x3e2ce3be	0.16883752
98	0x3e9e3e97	0.30907127
99	0x3e8ed659	0.2789791
100	0x3e5f39ea	0.21799436
101	0x3dc8c51c	0.09803221
102	0x3d33bea8	0.043882996
103	0x3cf3ee20	0.029776633
104	0x3dc52eb0	0.096280456
105	0xbe99c242	-0.3003102
106	0xbe9b0efd	-0.30284873
107	0x3df4b560	0.11948657
108	0x3e09bcb6	0.13450894
109	0x3e240396	0.16016993
110	0x3e434b8a	0.19071785
111	0x3db77fc0	0.08959913
112	0x3e215a7c	0.15757173
113	0xbe446d9e	-0.1918244
114	0xbe6c947e	-0.2310352
115	0xbd8212ec	-0.06351265
116	0x3e40640a	0.18788162
117	0xbe5e4d3a	-0.21709147
118	0xbe8d2684	-0.27568448
119	0xbe1f256c	-0.15541619
120	0xbdc84d2a	-0.09780343
121	0xbe5ca62a	-0.21547762
122	0xbe704a46	-0.23465833
123	0x3e6c2776	0.23061928
124	0xbe4a769e	-0.19771811
125	0x3da876d0	0.08225787
126	0xbd57df98	-0.05270347
127	0xbd65d998	-0.056115717
128	0xbe9c30df	-0.30506036
129	0xbcfbe130	-0.030747026
130	0x3e15cecc	0.14629668
131	0x3dbca494	0.09211078
132	0xbd593ea0	-0.05303824
133	0x3e5e639a	0.21717682
134	0x3e057c92	0.13035801
135	0x3ea044b5	0.3130242
136	0xbe04324a	-0.12909809
137	0x3ea0b079	0.31384638
138	0x3e40dffa	0.1883544
139	0xbe5dd76c	-0.21664208
140	0x3e2124e4	0.15736729
141	0xbe95a790	-0.29229403
142	0xbe7a5250	-0.24445462
143	0x3c39fc40	0.011351645
144	0xbe4a8b48	-0.19779694
145	0x3e446812	0.19180325
146	0xbe5935b2	-0.2121189
147	0xbe811767	-0.25213167
148	0xbea185a2	-0.31547266
149	0xbe833ac1	-0.25630763
150	0x3e9053a5	0.28188816
151	0xbe29564d	-0.16536827
152	0xbda7c61e	-0.08192085
153	0xbe8b1252	-0.27162415
154	0x3d9ca72c	0.07649073
155	0xbe71ca00	-0.23612213
156	0x3e1497a6	0.14510974
157	0x3da87fb4	0.082274824
158	0xbe967aca	-0.29390556
159	0xbe3dc7da	-0.18533269
160	0xbe50d128	-0.20392287
161	0x3da65e34	0.081234366
162	0xbdf69d74	-0.120417506
163	0x3d5b24f8	0.053502053
164	0xbd627a08	-0.05529216
165	0x3e983c97	0.29733726
166	0xbe3a49ef	-0.18192266
167	0xbe1cbb0a	-0.15305725
168	0x3d98c5c0	0.07459593
169	0xbe9f57bc	-0.31121624
170	0x3e785d66	0.24254379
171	0x3e3b9ea2	0.18322232
172	0x3e227ed0	0.15868688
173	0xbda17acc	-0.0788475
174	0xbcbd21f0	-0.023087472
175	0xbdcaad30	-0.09896314
176	0xbe90222d	-0.28151074
177	0x3e8235e1	0.2543173
178	0xbe1d3bec	-0.1535489
179	0xbe627e77	-0.22118555
180	0xbea17d72	-0.3154102
181	0x3e1dfe9a	0.15429154
182	0x3e0470f8	0.12933719
183	0xbd758170	-0.059937894
184	0xbe56961e	-0.20955703
185	0xbcdf5750	-0.027263314
186	0x3e94eb01	0.29085544
187	0x3c9d6d20	0.019217074
188	0x3e20cf22	0.15704015
189	0xbe833295	-0.2562453
190	0x3d0b67a8	0.0340344
191	0x3e62fc4a	0.22166553
192	0x3e81c5c3	0.25346193
193	0x3d669220	0.0562917
194	0x3e8a14b9	0.26968935
195	0x3e4c2aa2	0.19938138
196	0xbde54bfa	-0.11196132
197	0x3e3fd4aa	0.18733469
198	0x3e63501a	0.22198525
199	0x3e898979	0.26862696
200	0x3dfaad10	0.1224004
201	0xbd1e6ec0	-0.03867984
202	0xbd39f0c0	-0.045395613
203	0x3e63e3e2	0.22254899
204	0xbe14eea5	-0.1454416
205	0x3e42d16e	0.19025204
206	0xbe6fbde9	-0.23412289
207	0x3d01f518	0.03172788
208	0x3e871533	0.2638336
209	0x3e676dfe	0.22600552
210	0xbe3928ad	-0.18081923
211	0xbe4c2c1c	-0.19938701
212	0xbd36ee10	-0.044660628
213	0x3d0e56d8	0.03475079
214	0x3e56adfa	0.20964804
215	0x3c5eb920	0.013593942
216	0xbd88c5c4	-0.06678346
217	0xbe3039a8	-0.17209494
218	0x3e03f4fc	0.12886423
219	0x3e80c2bb	0.25148568
220	0x3e46eed6	0.19427046
221	0xbdf78890	-0.12086594
222	0x3e1b222a	0.15149751
223	0x3e6d2ce2	0.23161653
224	0x3e9ab733	0.30217895
225	0x3e9a90af	0.3018851
226	0x3e4f73fe	0.20259091
227	0x3e8d2a5b	0.27571377
228	0x3e11721c	0.14203686
229	0x3d9f8c34	0.077904135
230	0x3e3e48de	0.18582484
231	0x3e93785f	0.28802773
232	0x3e6aaa7e	0.229166
233	0x3d91ea18	0.07124728
234	0x3ea010a3	0.31262693
235	0xbdeca542	-0.11554958
236	0x3e21f2a6	0.1581522
237	0xbd32b350	-0.043628037
238	0x3e8f883b	0.28033623
239	0x3e8c687d	0.27423468
240	0xbe659dee	-0.22423527
241	0x3dbcc04c	0.09216365
242	0xbe464d56	-0.19365439
243	0xbd68fb50	-0.056880295
244	0x3e96053b	0.29300866
245	0x3e57d7ea	0.21078458
246	0xbe3ad6e7	-0.18246041
247	0x3d8170c8	0.063203394
248	0xbe647b5b	-0.22312681
249	0x3e892b11	0.2679067
250	0xbe9c4e7f	-0.30528638
251	0xbd58f880	-0.052971363
252	0xbe9348f3	-0.28766593
253	0x3df31494	0.11869159
254	0x3e673902	0.2258034
255	0x3de0779c	0.10960314

decoder.2.bias f4 [30]
0	0xbe626b7c	-0.22111315
1	0x3e81dfc5	0.25366035
2	0x3ddb5b08	0.10710722
3	0x3e6e079a	0.23245087
4	0x3e734a2e	0.23758766
5	0x3cb11690	0.021617204
6	0x3e92bed1	0.28661206
7	0x3e8195bd	0.25309554
8	0xbe52cb24	-0.20585304
9	0x3e8418d1	0.25800183
10	0x3e2f4abc	0.17118353
11	0xbe868dce	-0.26280063
12	0xbe6e91cc	-0.23297805
13	0x3e30771a	0.17232934
14	0x3e71baea	0.23606458
15	0xbc008cc0	-0.007846057
16	0xbe7c922e	-0.24665138
17	0xbe86d248	-0.26332307
18	0xbe906077	-0.28198597
19	0xbe9c03f0	-0.30471754
20	0x3e107cce	0.14110109
21	0x3e3aa986	0.1822873
22	0x3e2281ac	0.15869778
23	0x3e909403	0.28237924
24	0x3dec5dac	0.11541304
25	0xbdc80922	-0.09767367
26	0x3e849b4b	0.2589973
27	0x3e73a35e	0.23792788
28	0xbe626a60	-0.22110891
29	0xbe4f271a	-0.2022976

decoder.4.weight f4 [60, 30]
0	0xbdbe60ef	-0.09295832
1	0x3d4493b4	0.047992423
2	0xbe36ca1a	-0.17850533
3	0x3e33cd02	0.17558673
4	0x3e1b26fe	0.15151593
5	0x3e223b32	0.15842894
6	0x3dd310e4	0.10305956
7	0xbcf90fa8	-0.030402973
8	0x3d945d44	0.072443515
9	0x3e3385de	0.17531535
10	0xbddc8a68	-0.107685864
11	0x3e30a1da	0.17249241
12	0xbe25e008	-0.16198742
13	0xbda0477b	-0.07826134
14	0x3e121372	0.1426523
15	0xbe27dfea	-0.1639401
16	0xbd1236a0	-0.035696626
17	0x3e1cec72	0.15324572
18	0x3c0e4d90	0.0086854845
19	0x3c44a130	0.012001321
20	0xbdc64937	-0.096819334
21	0xbde1355e	-0.10996507
22	0xbe105cdc	-0.14097923
23	0x3cb3a1e8	0.021927789
24	0x3e390c8e	0.18071195
25	0x3e337cd4	0.17528087
26	0xbe37e9a0	-0.17960215
27	0xbc848eb0	-0.01618132
28	0xbdd80a14	-0.10548797
29	0xbcc43040	-0.023948789
30	0x3df5ffc4	0.12011674
31	0x3dd6df0c	0.104917616
32	0x3c4c6720	0.012475759
33	0x3e37f8ec	0.1796605
34	0x3e005718	0.12533224
35	0x3e253478	0.16133296
36	0xbe229196	-0.15875849
37	0x3dc59c90	0.096490026
38	0xbde3ca03	-0.11122515
39	0x3e31c448	0.17360032
40	0x3d3becc0	0.04588008
41	0x3dbf92d0	0.09354174
42	0x3df18368	0.11792642
43	0x3c872e08	0.016501442
44	0xbe37a812	-0.17935207
45	0xbdab3dba	-0.08361383
46	0xbe1e8473	-0.15480213
47	0xbd9bdf18	-0.07610911
48	0x3e246188	0.1605283
49	0xbcfa19f8	-0.030529961
50	0xbde16479	-0.11005492
51	0x3e2f1d8c	0.17101115
52	0xbe0187cf	-0.12649463
53	0xbc8db9f8	-0.01730059
54	0xbd304318	-0.043032736
55	0x3d9eff94	0.077635914
56	0xbd247ba8	-0.04015699
57	0xbd130b70	-0.03589958
58	0xbdd1095f	-0.102068655
59	0xbc8f3b18	-0.017484233
60	0xbd7fa544	-0.06241347
61	0xbe1dfb98	-0.15428007
62	0xbe20470f	-0.15652107
63	0x3e31876e	0.17336819
64	0xbd0e2f80	-0.03471327
65	0x3dfb7670	0.122784495
66	0xbe1fd467	-0.15608369
67	0xbcfa65a0	-0.030566037
68	0x3dc3b398	0.09555739
69	0xbdb0b29a	-0.086278155
70	0x3e005888	0.12533772
71	0xbdfcd68e	-0.123456106
72	0xbded942f	-0.116005294
73	0x3df61b44	0.12016919
74	0x3d0826c8	0.03324011
75	0xbd9b215b	-0.075747214
76	0xbd8adc76	-0.06780331
77	0x3d07ae84	0.033125415
78	0x3d97878c	0.073989004
79	0x3df7dc60	0.1210258
80	0xbe0163d0	-0.12635732
81	0x3de9b858	0.11412114
82	0x3da810e4	0.08206347
83	0x3d3d3954	0.04619725
84	0xbbbba5a0	-0.005726531
85	0x3cdc0318	0.026856944
86	0xbe31c434	-0.17360002
87	0xbd23f76c	-0.04003088
88	0x3dc4ff24	0.09618977
89	0x3e205062	0.15655664
90	0x3cc79488	0.024362817
91	0xbe18877c	-0.14895433
92	0xbd8f2945	-0.069902934
93	0x3e09c9fa	0.13455954
94	0x3e1f38a8	0.15548956
95	0xbe07f841	-0.13278295
96	0x3d69c76c	0.05707495
97	0x3dcd4b5c	0.10024139
98	0x3e109f84	0.1412335
99	0x3d2f9dd8	0.04287514
100	0x3e3363e2	0.17518571
101	0xbde1ef11	-0.110319264
102	0xbd5cdde8	-0.053922564
103	0xbe2f6aa0	-0.17130518
104	0xbe07a788	-0.13247502
105	0xba165400	-0.0005734563
106	0x3dd0b22c	0.101902336
107	0x3bcb82e0	0.00621067
108	0xbe010aac	-0.12601727
109	0x3b90c060	0.004417464
110	0x3e25627e	0.16150853
111	0xbdf67870	-0.120346904
112	0xbe2fec22	-0.17179921
113	0xbe38a35c	-0.18031067
114	0xbdef550b	-0.116861425
115	0x3d442190	0.04788357
116	0xbdf1efb1	-0.11813296
117	0xbd88eccb	-0.0668579
118	0x3dd7ba64	0.10533598
119	0xbd0e9ec0	-0.034819365
120	0xbd6182f4	-0.055056527
121	0xbdfdf3d3	-0.124000214
122	0xbe119e7b	-0.14220612
123	0x3ddb84b0	0.107186675
124	0x3d04b218	0.032396406
125	0x3e2d75a8	0.16939414
126	0xbe1d7e07	-0.15380107
127	0xbdde4aa3	-0.108540796
128	0x3e185114	0.14874679
129	0xbda6f533	-0.08152237
130	0x3ddb0b7c	0.1069555
131	0xbded51c3	-0.115878604
132	0x3cd0dc20	0.025495589
133	0xbd37adbc	-0.04484342
134	0xbe373c2d	-0.17894049
135	0xbdbe872f	-0.09303128
136	0x3db66ce8	0.08907491
137	0xbd1e6910	-0.038674414
138	0xbd1c079c	-0.038093194
139	0x3c3b3230	0.01142554
140	0xbe0ce757	-0.13760124
141	0xbe01d752	-0.12679794
142	0x3db1e120	0.08685517
143	0xbdcdf4db	-0.10056468
144	0xbc65c390	-0.0140236765
145	0x3d3c1924	0.045922413
146	0xbd6a6e0c	-0.057233855
147	0x3e0c87e4	0.13723713
148	0xbd976c87	-0.07393747
149	0xbe12765d	-0.14302965
150	0x3e26bd7a	0.16283217
151	0x3bf8dd40	0.0075947344
152	0x3d93335c	0.071875304
153	0xba308800	-0.0006734133
154	0x3df840ec	0.12121758
155	0x3c083e20	0.008315593
156	0xbd4c5084	-0.049881473
157	0xbe1cc506	-0.15309533
158	0x3e2f7286	0.17133531
159	0x3d46c170	0.04852432
160	0x3df94120	0.12170625
161	0xbdf9e342	-0.12201549
162	0xbd8499dc	-0.06474659
163	0xbde0ab31	-0.10970152
164	0xbcd82040	-0.026382565
165	0xbc281e50	-0.010261133
166	0xbe066534	-0.13124543
167	0xbdccf454	-0.100075394
168	0x3cbafb60	0.022824943
169	0xbda835b2	-0.082133666
170	0x3dfef800	0.12449646
171	0x3dd42178	0.10357946
172	0x3d961f4c	0.07330188
173	0xbe1388e6	-0.14407691
174	0xbdd1c68b	-0.10242947
175	0x3e35ceda	0.17754689
176	0xbe31cde2	-0.17363694
177	0xbd169fbc	-0.03677343
178	0x3d62be14	0.055357054
179	0x3c961220	0.01831919
180	0x3e069be6	0.13145408
181	0x3dd76c60	0.10518718
182	0xbdc2e891	-0.09517015
183	0xbdf207ad	-0.1181787
184	0xbda74d7f	-0.08169078
185	0x3d823660	0.063580275
186	0xbe17ba90	-0.14817262
187	0x3dc2da80	0.09514332
188	0xbddb072e	-0.10694729
189	0xbd985ca3	-0.07439544
190	0x3d8c68b0	0.06855905
191	0x3dab0954	0.083513886
192	0xbe08c410	-0.13356042
193	0x3d1cfd98	0.038327783
194	0xbda20fee	-0.079131946
195	0x3cbea6c8	0.023272887
196	0x3bbd2cc0	0.005773157
197	0xbe032fa3	-0.1281114
198	0x3e170074	0.14746267
199	0x3d288b34	0.04114838
200	0xbb2c5f80	-0.002630204
201	0xbd57f314	-0.05272205
202	0xbe315f86	-0.17321596
203	0x3e32c81a	0.17459145
204	0xbe1be2df	-0.15223263
205	0x3e08c0b0	0.13354754
206	0xbd251f9c	-0.04031335
207	0x3e177746	0.14791593
208	0x3d880888	0.06642252
209	0x3e228d6c	0.1587426
210	0xbdee3687	-0.11631494
211	0xbdfe82bf	-0.124272816
212	0xbd464d94	-0.048413828
213	0x3e3a5984	0.1819821
214	0x3d044008	0.032287627
215	0xbe290af1	-0.1650808
216	0x3e28f0ac	0.16498059
217	0x3d8e5140	0.06949091
218	0x3e0d31d0	0.13788533
219	0x3d894336	0.067022726
220	0xbd38e558	-0.045140594
221	0x3e15053a	0.14552775
222	0x3cb32cc0	0.021871924
223	0x3de4de1c	0.111751765
224	0xbadf3c00	-0.0017031431
225	0x3e1486a2	0.14504483
226	0x3e37eb30	0.1796081
227	0x3c64dda0	0.013968855
228	0xbe088771	-0.13332917
229	0xbe0f1857	-0.13974129
230	0xbdfa49eb	-0.1222113
231	0x3d600478	0.05469176
232	0xbde0aea9	-0.10970814
233	0x3e163308	0.14667904
234	0x3d4b8ce4	0.04969491
235	0xbda8c420	-0.08240533
236	0xbe0b0636	-0.13576588
237	0x3dc26270	0.09491432
238	0x3c901448	0.017587796
239	0xbdff813e	-0.12475823
240	0xbcc8a098	-0.02449064
241	0x3de757e4	0.11296061
242	0x3e1355ec	0.14388245
243	0xbdfa1c7b	-0.122124635
244	0xbdab82ef	-0.08374583
245	0x3c989cb8	0.018629417
246	0x3ad4f300	0.0016246736
247	0xbcd7cd98	-0.026343152
248	0x3db5bf9c	0.08874437
249	0x3dadeeb8	0.084927976
250	0x3d15acc0	0.0365417
251	0xbc98d318	-0.018655345
252	0xbe0c898c	-0.13724345
253	0xbd139ec8	-0.036040097
254	0xbd1f0208	-0.038820297
255	0xbdf0f969	-0.11766321

decoder.4.bias f4 [60]
0	0x3c9ae168	0.01890631
1	0x3ddca930	0.107744575
2	0x3db7feb8	0.089841306
3	0xbe3a6939	-0.18204202
4	0xbdd48236	-0.10376398
5	0x3cc9cc10	0.024633437
6	0x3d4c1188	0.049821407
7	0xbe231d46	-0.15929136
8	0xbdb15b0a	-0.086599424
9	0x3e254768	0.1614052
10	0xbd0de240	-0.034639597
11	0xbe24f0fb	-0.16107552
12	0x3c9d5828	0.019207075
13	0x3daee6e0	0.0854013
14	0x3e3385bc	0.17531484
15	0x3c33e410	0.010979667
16	0xbdcc6170	-0.09979522
17	0x3dcaaf50	0.098967195
18	0x3da13be0	0.078727484
19	0x3e309f66	0.17248306
20	0x3d079cb4	0.033108428
21	0xbe29f574	-0.16597539
22	0x3bdad7a0	0.0066785365
23	0xbdd0fb99	-0.102042384
24	0x3d7d7898	0.061882585
25	0x3cd7e678	0.026355013
26	0xbe06fbd2	-0.13182
27	0xbe11e038	-0.14245689
28	0x3dc1f4b0	0.094704986
29	0xbd08f6fc	-0.033438668
30	0xba9f9200	-0.0012174249
31	0xbdfb17ee	-0.122604236
32	0xbdefee16	-0.11715333
33	0xbd47d0dc	-0.04878317
34	0xbe323bb2	-0.17405584
35	0xbde2b5e7	-0.11069851
36	0xbd8afdd3	-0.067866944
37	0x3da42df4	0.08016577
38	0xbda1cc26	-0.07900266
39	0xbde2403c	-0.11047408
40	0x3c1e6670	0.009667978
41	0x3e374746	0.17898282
42	0xbc4ee000	-0.012626648
43	0x3e1f48c8	0.15555108
44	0xbce4b140	-0.02791655
45	0xb9727c00	-0.00023125112
46	0x3da6c86c	0.08143696
47	0xbe253c91	-0.16136386
48	0x3e332a3a	0.17496577
49	0xbd1e60c8	-0.038666517
50	0x3db52084	0.088440925
51	0x3e18fa38	0.14939201
52	0x3d46d068	0.048538595
53	0xbda222b0	-0.07916772
54	0x3e2ee8a8	0.17080939
55	0x3e37fe86	0.17968187
56	0x3e2aff98	0.16699064
57	0x3d7f5e1c	0.06234561
58	0xbd7c25b8	-0.06155941
59	0xbd854f56	-0.06509273

decoder.6.weight f4 [122, 60]
0	0xbd66fc5e	-0.05639302
1	0x3d738bcc	0.059459493
2	0xbda3088f	-0.07960617
3	0x3dffbc72	0.12487115
4	0x3d5304e0	0.05151832
5	0x3cafce50	0.021460682
6	0x3d4dcbac	0.050243065
7	0xbd9c9a5d	-0.0764663
8	0xbcb0d770	-0.021587104
9	0x3da46476	0.08026974
10	0x39a89e00	0.00032161176
11	0x3da84b46	0.08217482
12	0xbda1bb3a	-0.07897039
13	0x3d811332	0.06302489
14	0xbb6a5e80	-0.0035761893
15	0xbcc66d34	-0.024221994
16	0x3d6c6104	0.05770971
17	0xbe008dcd	-0.12554093
18	0x3c94b820	0.018154204
19	0x3bfa57a0	0.0076398402
20	0xbdf5082d	-0.1196445
21	0x3caf8ce8	0.021429494
22	0xbe0306d7	-0.12795578
23	0xbda36c0e	-0.07979594
24	0xbdd5d358	-0.10440701
25	0xbde0f960	-0.109850645
26	0xbc7b1e38	-0.015327029
27	0x3c7e4130	0.015518472
28	0xbcd19bdc	-0.025587015
29	0xbd363dbc	-0.04449247
30	0x3d8cdaee	0.06877695
31	0xbd6209e0	-0.0551852
32	0xbd0ff104	-0.03514196
33	0x3dc5ca86	0.09657769
34	0xbd8a93e4	-0.06766489
35	0x3d687ad0	0.056757748
36	0xbb255ac0	-0.0025231093
37	0x3d290f84	0.041274562
38	0x3dbeb38a	0.09311588
39	0xbd0835fc	-0.03325461
40	0xbdca8b70	-0.09889877
41	0xbd87588e	-0.06608687
42	0xbdae76c0	-0.085187435
43	0x3d8f7dfc	0.070064515
44	0x3ce07778	0.027400717
45	0xbbbaa010	-0.0056953505
46	0xbdec733e	-0.11545418
47	0xbda312df	-0.07962584
48	0x3d9e81b8	0.07739586
49	0xbdb0db62	-0.08635594
50	0x3d55ba28	0.052179486
51	0x3cd14d48	0.025549546
52	0x3d6f0134	0.058350757
53	0x3d86d3d0	0.06583369
54	0xbd83123d	-0.06399963
55	0x3dfddb22	0.12395312
56	0xbd830a65	-0.06398467
57	0x3d071dd4	0.03298743
58	0xbdf7bd1c	-0.120966166
59	0x3df33f4c	0.11877307
60	0xbd3e9902	-0.04653264
61	0xbda820c7	-0.08209377
62	0x3dd0ae96	0.101895496
63	0xbd9c7c40	-0.07640886
64	0x3c42ec60	0.0118971765
65	0x3d932b80	0.07186031
66	0xbdffbd46	-0.12487273
67	0x3d3ea480	0.0465436
68	0xbdb5ce83	-0.088772796
69	0xbddf7b18	-0.1091215
70	0xbddc6d2c	-0.107630104
71	0x3df4046e	0.119149074
72	0xbd1ae1b2	-0.037812896
73	0xbd278fca	-0.040908612
74	0xbc8e56e8	-0.017375425
75	0x3d8e899a	0.06959839
76	0x3dde2cc8	0.10848385
77	0xbd68a894	-0.056801394
78	0xbcd543ec	-0.026033364
79	0xbcc34dfc	-0.023840897
80	0x3d578214	0.052614287
81	0xbdc330e6	-0.09530811
82	0x3d9b1012	0.075714245
83	0x3d65d4e4	0.05611123
84	0xbd61eadc	-0.05515562
85	0x3d3820bc	0.044953093
86	0xbcef6bec	-0.029226266
87	0xbd2871b4	-0.04112406
88	0xbc3ad0f8	-0.011402361
89	0x3d9a055c	0.075205535
90	0x3de9db28	0.11418754
91	0xbda74990	-0.08168328
92	0xbc9c17ac	-0.019054256
93	0x3ac2a800	0.0014851093
94	0xbdd03635	-0.10166589
95	0x3d6f8114	0.058472708
96	0xbdcc7dfa	-0.099849656
97	0x3ddc527e	0.10757922
98	0x3de50a34	0.11183587
99	0x3d499b58	0.049220413
100	0x3d56d7f8	0.052452058
101	0x3dd703c8	0.10498768
102	0xbd70cd18	-0.058789343
103	0xbd7c42fe	-0.061587326
104	0x3d9c11b4	0.07620564
105	0x3dac6efa	0.084196046
106	0x3caab9e0	0.020840585
107	0xbd0d4700	-0.03449154
108	0xbdeae933	-0.114702605
109	0x3cc7dc08	0.024396911
110	0xbd748984	-0.059701458
111	0xbca925e4	-0.02064795
112	0xbc852a40	-0.016255498
113	0xbdefb53e	-0.11704491
114	0xbd556d94	-0.052106455
115	0xbdd227f5	-0.102615274
116	0x3dbaa5a6	0.09113626
117	0xbdd30a87	-0.10304742
118	0x3b923aa0	0.004462555
119	0x3c8818c0	0.016613364
120	0x3ddd9476	0.10819332
121	0x3d06bf54	0.03289731
122	0x3cea65c8	0.028612986
123	0x3ce46ca8	0.027883843
124	0xbdbb7d83	-0.09154799
125	0x3d01b2c0	0.03166461
126	0xbd2efa38	-0.042719096
127	0xbdf741ad	-0.120730735
128	0xbdc3797c	-0.09544656
129	0x3d9efd5e	0.0776317
130	0xbd0a7e10	-0.03381163
131	0xbdb4c164	-0.08825949
132	0xbd1b3336	-0.037890635
133	0xbdf0dac0	-0.11760473
134	0x3dceb1ee	0.10092531
135	0x3ddcf3e4	0.10788706
136	0xbe02d65c	-0.12777084
137	0xbd2940a2	-0.041321404
138	0xbd0b9600	-0.034078598
139	0xbc442dd0	-0.011973813
140	0x3e0363b7	0.12831007
141	0x3cb28ec8	0.021796599
142	0xbc189f60	-0.009315342
143	0xbd8d41d4	-0.06897321
144	0x3cc81e60	0.024428546
145	0x3db8ee7e	0.09029864
146	0xbdf69c42	-0.120415226
147	0xbcece868	-0.028919414
148	0xbdebfd83	-0.11522963
149	0xbd600512	-0.054692335
150	0xbd28f7b4	-0.041251853
151	0xbd3aa994	-0.04557188
152	0xbdfea1a8	-0.12433177
153	0xbc53ba98	-0.012922905
154	0xbdbc5234	-0.091953665
155	0xbd753e9c	-0.059874162
156	0xbcf9cb80	-0.030492544
157	0xbd35419e	-0.04425203
158	0xbd33cd64	-0.043897048
159	0xbd8f94a5	-0.070107736
160	0xbdf5139a	-0.11966629
161	0xb8d2c000	-0.00010049343
162	0x3dfe2796	0.12409894
163	0xbdad71de	-0.08468984
164	0x3d671558	0.05641684
165	0x3dc20c64	0.094750196
166	0x3d9f0966	0.077654645
167	0x3d94fb84	0.07274535
168	0xbdddb5ad	-0.108256675
169	0xbdc1e734	-0.094679266
170	0xbcc639ac	-0.024197422
171	0x3dbcc9e0	0.09218192
172	0x3b9615a0	0.0045802146
173	0xbdb3d05e	-0.08779977
174	0xbd9a8f9c	-0.075469226
175	0xbd2e1af0	-0.04250616
176	0xbd7056fc	-0.058676705
177	0x3cbcf480	0.023065805
178	0x3d3a61dc	0.045503482
179	0xbde1b6ce	-0.11021195
180	0x3c8e9fa0	0.0174101
181	0x3de745dc	0.112926215
182	0xbde8ce7a	-0.11367507
183	0x3db16a5c	0.086628646
184	0x3d835b94	0.064139515
185	0x3d415584	0.047200695
186	0xbdd13a7f	-0.10216235
187	0x3d76e49c	0.060276613
188	0x3cdb5130	0.026772112
189	0x3d1b2350	0.037875473
190	0x3d8a673a	0.0675797
191	0xbd62d4f2	-0.05537886
192	0xbd99a600	-0.07502365
193	0xbc8eb598	-0.017420575
194	0x3d7f21e4	0.06228818
195	0x3d0cd3ec	0.034381792
196	0xbb88e150	-0.00417725
197	0xbdf079a6	-0.117419526
198	0x3daaaf72	0.08334245
199	0x3d287954	0.041131333
200	0xbe02ce9a	-0.12774125
201	0xbd45558c	-0.048177287
202	0xbd8bab47	-0.06819778
203	0x3d1c3750	0.038138688
204	0x3d9c6318	0.07636088
205	0x3d095954	0.033532456
206	0xbdc2da74	-0.09514323
207	0x3de2f2a6	0.11081438
208	0x3c17ac10	0.0092573315
209	0xbd2cc9e4	-0.042184725
210	0x3cd21740	0.025645852
211	0x3df50e22	0.11965586
212	0xbd0d230c	-0.03445725
213	0x3c12f9a0	0.008970648
214	0x3dcfca86	0.1014605
215	0xbd61ccb2	-0.055126853
216	0x3db74600	0.08948898
217	0x3d94adc0	0.07259703
218	0x3dac6192	0.084170476
219	0xbd3c6674	-0.045996144
220	0xbd0ec1f0	-0.034852922
221	0x3ce11d38	0.027479753
222	0xbe02a1e5	-0.1275707
223	0x3cd3c700	0.025851727
224	0xbddbc98e	-0.10731803
225	0x3cfc6f30	0.030814737
226	0x3ddd620c	0.108097166
227	0xbddc8f22	-0.10769488
228	0x3dc8fd58	0.098139465
229	0x3dc8a1fc	0.09796521
230	0x3d717534	0.058949664
231	0xbc320f68	-0.010867931
232	0x3c0684e0	0.008210391
233	0xbbd37850	-0.0064535514
234	0xbd9b4987	-0.075823836
235	0x3da19a5a	0.07890768
236	0x3b9e7c00	0.0048365593
237	0x3dcfee4a	0.10152872
238	0x3d26933c	0.040667757
239	0x3c25baf0	0.01011537
240	0x3a827e80	0.0009955913
241	0x3c68ba40	0.014204562
242	0x3cc0cc90	0.023535043
243	0xbd183740	-0.037162066
244	0xbcbce71c	-0.02305942
245	0xbd923e00	-0.07140732
246	0xbc7f8c40	-0.015597403
247	0xbd64e79c	-0.055884942
248	0xbd2a290e	-0.04154306
249	0xbdbf8a60	-0.09352565
250	0x3ce7db90	0.028302938
251	0x3da139ce	0.078723535
252	0x3c56eac0	0.013117492
253	0xb9d32000	-0.00040268898
254	0x3d55c538	0.052190036
255	0x3bbfa600	0.005848646
