dagmm/models/42_124_dagmm.pth (torch_old, 80824 bytes, 22 tensors)

phi f4 [4]
00000000: ebef 7d3e 7d74 613e 434f 443e 2a26 ae3e
0.24798553 0.22017093 0.19170861 0.34013492

mu f4 [4, 3]
00000000: 1f36 afbd 2a7f 963f 0b11 a9bd ac45 aebd
00000010: 5695 963f 5c32 abbd aa09 afbd 3a62 963f
00000020: feaa a8bd 4dc3 aebd 268c 963f 35ca a7bd
-0.08555245 1.1757557 -0.08255204 -0.085093826 1.1764324 -0.08359215 -0.08546765 1.1748726
-0.08235739 -0.085333444 1.176152 -0.08192865

cov f4 [4, 3, 3]
00000000: 85de f538 39ec 86b9 8cbc 3439 39ec 86b9
00000010: 858a 9b3a a2cd 85ba 8cbc 3439 a2cd 85ba
00000020: 3352 103b 5731 e938 c580 8cb9 ef99 3139
00000030: c580 8cb9 1c3a ac3a f5d6 8eba ef99 3139
00000040: f5d6 8eba bc7f 0f3b de45 0139 e876 83b9
00000050: daa5 3639 e876 83b9 7a83 933a a44c 80ba
00000060: daa5 3639 a44c 80ba 45a4 0c3b 756a fd38
00000070: e994 92b9 9a50 3e39 e994 92b9 8e11 ab3a
00000080: 9eee 8aba 9a50 3e39 9eee 8aba cb28 0f3b
0.00011723958 -0.0002573447 0.00017236377 -0.0002573447 0.0011866844 -0.0010208378 0.00017236377 -0.0010208378
0.002202165 0.00011119496 -0.00026798822 0.0001693738 -0.00026798822 0.0013139877 -0.0010897802 0.0001693738
-0.0010897802 0.0021896204 0.00012328426 -0.0002507486 0.00017418657 -0.0002507486 0.0011254393 -0.0009788466
0.00017418657 -0.0009788466 0.0021460217 0.00012083809 -0.00027958237 0.00018149838 -0.00027958237 0.0013051496
-0.0010599678 0.00018149838 -0.0010599678 0.0021844383

encoder.0.weight f4 [60, 122]
00000000: c879 1d3d 714e 2cbd 16e4 24bd 3c51 afbc
00000010: c3b0 48bd 003b 79ba 3531 1fbd 3da1 41bd
00000020: 926d a3bd 0afd 5dbd 64bc 5d3d 4073 303d
00000030: b080 8dbc 3bf4 16bd 8045 afba aa03 8c3d
00000040: 8ad8 a73d 920c 8c3d 5e9f 97bd 6e51 b03d
00000050: 2cff d33c c063 e0bb a3df b6bd 2fe1 85bd
00000060: cfe3 27bd 34de 323d 48a9 e33c 16d1 943d
00000070: 20db 08bd 3c15 c1bc d0cb 9abc 8442 a6bd
00000080: 7c32 583d bc68 4c3d 86ae 8abd c8b4 e73c
00000090: 05c3 7ebd a8f8 c83c 3af6 833d 7cde 8b3d
000000a0: 5d5e 23bd 7621 0abd 00c1 e53a dc79 85bd
000000b0: 5468 6d3d ecad 4d3d 702b 423c 803f a4bd
000000c0: 14f1 9d3d 776d 57bd d091 703d 4e06 edbc
000000d0: a41a 873c 3cb2 b3bd 7877 a6bd 5480 7a3d
000000e0: e82b b2bc 4c13 6d3d bc53 803d 009c 5f3b
000000f0: 3054 9abb 40a9 1dbb da67 813d 503e 353d
00000100: 81e4 b6bd c064 c9ba 0af9 823d 4082 053c
00000110: 23f5 70bd 60bd 02bc 3d81 28bd 7633 f3bc
00000120: 943f d1bc 7860 f03c 467f b43d 81f2 56bd
00000130: 78da 203c 68b1 06bc 7454 d1bc 9c9f 283d
00000140: fcf4 223d 448e 253d d2a6 af3d 68d4 7d3c
00000150: 3822 4c3c 40ba 163d dd43 6bbd de0c 803d
00000160: aec0 92bd 00cf fd3a 5cb3 8b3c 3a7d b03d
00000170: 533e 89bd f8a8 a2bc 3440 ec3c 123f 7abd
00000180: 3870 573d 85d3 8abd d896 a4bd b7eb 61bd
00000190: 5efe 44bd 6312 57bd 286a ab3d 84da 103d
000001a0: 46b0 8dbd 0427 8cbc 3466 b7bc 3d2b 26bd
000001b0: 9ae6 87bd 286e 283d b442 733d 7052 d2bc
000001c0: d091 93bc 4869 b33d 2e75 49bd 2892 92bc
000001d0: 2cdd 3d3d 1a99 2fbd afd7 acbd 18d3 3ebc
000001e0: 10ad a23b 3c56 ae3c 3406 1b3d cdb9 80bd
000001f0: cced b03d 9f60 6bbd 90ab 093d aa5a b33d
00000200: 946a 88bd f4b5 773d 4f21 4bbd ac8f 503d
00000210: aec4 21bd 540b c53c 9483 963d e212 b2bd
00000220: e1db 93bd f3fb 50bd 8ca7 9b3c 7041 52bc
00000230: f564 46bd 8066 9e3b 4054 8f3d 58a0 3f3c
00000240: d86e 4a3d f87e 2d3c 4865 8cbc 15c9 88bd
00000250: 34fa d93c 5c31 b63d 00e5 64bc bcb6 00bd
00000260: 0ace 19bd 4cd2 633d 7a5d 0b3d fcd9 3a3d
00000270: b09a b6bd c852 02bc 9ccd a6bd 4493 a9bd
00000280: 881a 96bd 165e a93d eaea a8bd cd58 84bd
00000290: b06e fc3b 9f8f 93bd 1c0f 563d e05d d83b
000002a0: 849d 55bd dc13 9a3c c0eb 91bb 71a7 4dbd
000002b0: b4ba 1cbd 80d4 4bbb a25d 953d b8e7 b2bd
000002c0: e475 bebc f0fe bf3b 307e 2ebc 6446 143d
000002d0: cce1 613d dc9a f53c 4fa4 31bd 009b 433c
000002e0: 6ccf 4abd e4b7 893d bce4 3f3d 2067 aa3b
000002f0: 02b0 4ebd a7ab 6bbd 18d0 3bbc d4f0 6b3d
00000300: 04b0 aebc e21c 823d 5814 7b3c 4840 d33c
00000310: 8a86 41bd 53b2 a8bd 4049 44bc b13e 09bd
00000320: 20f5 8f3c d4de 97bc 6013 7e3b feee 49bd
00000330: 784e 783c c053 713d 105f 813b 06e8 4abd
00000340: 28a6 e1bc 3207 89bd ee82 febc c01b 6c3c
00000350: ecb4 d3bc 90b6 f33c 900a 11bc 8a6e 86bd
00000360: 1b00 80bd 583d 8f3d df56 36bd eede 4ebd
00000370: 800a 523a 85c1 86bd 9247 95bd dc6b 993c
00000380: 1445 28bd 6f1f 06bd a4cf ca3c 26f8 78bd
00000390: 503b 553d a2ac 9fbd 2c24 90bc 7c6d 6c3d
000003a0: 48fc 56bc b231 83bd 5869 8cbc e04b 92bd
000003b0: dc54 9ebc 226e a6bd b513 8abd 5976 4dbd
000003c0: 74fe cdbc 38ac 81bc 701e f3bc 5a88 aa3d
000003d0: 9873 4f3d e424 b33d bec9 11bd 744d 163d
000003e0: a8e0 633d 72db f8bc f2c2 9dbd f3d0 7dbd
000003f0: 2c65 acbd 18ad a5bd 8cfc 9e3d ea04 9a3d
0.038446218 -0.042066995 -0.040256582 -0.02140104 -0.048996698 -0.0009507388 -0.038865287 -0.04727291
-0.07979883 -0.054196395 0.05413474 0.04307866 -0.017273277 -0.03685401 -0.0013372153 0.06836636
0.081955984 0.06838335 -0.07403444 0.086092815 0.025878511 -0.0068478286 -0.08929374 -0.06537091
-0.04098874 0.04366894 0.02779068 0.072664425 -0.0334121 -0.023569696 -0.018896013 -0.081181556
0.05278252 0.04990457 -0.06771569 0.028284445 -0.062197704 0.024532631 0.06443448 0.06829545
-0.039884914 -0.033723317 0.0017528832 -0.065173835 0.057960823 0.050214693 0.011851177 -0.08019924
0.07711998 -0.05259463 0.058732808 -0.02893367 0.016492195 -0.0877423 -0.081282556 0.06115754
-0.021749452 0.05787973 0.06265971 0.0034120083 -0.004709743 -0.002405718 0.06318636 0.04424888
-0.089303024 -0.0015365109 0.06395157 0.00814873 -0.05882753 -0.007979721 -0.041138876 -0.029687624
-0.025543012 0.029342875 0.08813338 -0.052477363 0.009817712 -0.008221008 -0.025552966 0.04116784
0.039784417 0.04041888 0.0857674 0.015492536 0.01245933 0.036798716 -0.057437766 0.06252454
-0.07165657 0.0019364059 0.017053299 0.08617635 -0.067013405 -0.019855961 0.028839208 -0.061095305
0.052597255 -0.067786254 -0.08036584 -0.055156436 -0.048094146 -0.05250777 0.08369857 0.035364643
-0.06918387 -0.017108448 -0.022387601 -0.04056858 -0.06635781 0.04112068 0.059389785 -0.025674075
-0.018013865 0.08760315 -0.049184017 -0.017891958 0.046353504 -0.04287062 -0.08439576 -0.011647008
0.0049644783 0.021281354 0.037847713 -0.06285439 0.08639106 -0.057465192 0.03361088 0.08757527
-0.06660953 0.06047626 -0.049592312 0.050918266 -0.03949421 0.024053253 0.07349315 -0.08695008
-0.07219673 -0.051021527 0.019000791 -0.012832984 -0.048436124 0.0048339963 0.06998491 0.011695944
0.049422115 0.010589354 -0.017138138 -0.06678978 0.026608564 0.08896133 -0.0139706135 -0.03142427
-0.03755001 0.055620477 0.034024693 0.045618042 -0.08916223 -0.007954307 -0.081446856 -0.08280042
-0.07329279 0.082698986 -0.08247931 -0.0646225 0.0077036247 -0.07205128 0.052260503 0.0066029876
-0.05215217 0.018808298 -0.0044531524 -0.050208513 -0.03826399 -0.0031102002 0.0729325 -0.08735603
-0.023249574 0.0058592483 -0.010650203 0.036199942 0.055146977 0.02998107 -0.043369588 0.01193881
-0.04951422 0.067245275 0.046848997 0.0052002817 -0.050460823 -0.057536747 -0.011463188 0.05760272
-0.021324165 0.06353165 0.015324675 0.025787488 -0.047247447 -0.08237138 -0.011980355 -0.033507053
0.01757294 -0.01853887 0.0038768873 -0.049300186 0.015155427 0.05891776 0.0039481 -0.04953768
-0.02754505 -0.066908255 -0.031068292 0.014410913 -0.025843106 0.029750139 -0.008852616 -0.065640524
-0.0625002 0.06994122 -0.04451644 -0.05050557 0.0008012429 -0.0657988 -0.072890416 0.01872819
-0.041081503 -0.03274482 0.024757214 -0.060783528 0.052058518 -0.07796599 -0.017595373 0.0577216
-0.013121672 -0.06405963 -0.017140076 -0.07143378 -0.019327573 -0.08126475 -0.0674204 -0.050161693
-0.025145747 -0.01582919 -0.0296776 0.08326788 0.05064735 0.08747271 -0.035592787 0.03669496
0.05563417 -0.030378077 -0.077031985 -0.061966848 -0.084177345 -0.08089656 0.07763013 0.075204685

encoder.0.bias f4 [60]
00000000: 3459 3c3d dcbf 103d 2ab9 f7bc 35c4 2dbd
00000010: c48c 513d 95f3 a9bd d008 38bc a054 283b
00000020: b0bd dd3c d080 143d 4003 3abb 004f ab3d
00000030: a8c2 1b3d a258 a73d 3e9f 2cbd 3fe5 3dbd
00000040: f6fa 803d 5875 32bc 0c79 4d3d d0f6 20bc
00000050: 9cdb 943c ef15 87bd 82c4 5bbd 4c40 f3bc
00000060: 4842 653d a891 fd3c d357 73bd 848f 633d
00000070: f815 dabc 6db7 66bd 2c18 953d 3042 b3bd
00000080: 38a7 543d 287f c8bc 1db4 0ebd 6c43 7a3d
00000090: 6e40 b5bd 34bd d93c acc4 8abc 8830 0f3c
000000a0: 80ce 853c 5604 67bd ecc6 923d a6db 97bd
000000b0: dae2 93bd 7013 323d 609f 85bb 109e 3cbd
000000c0: 2931 8fbd ac3a 4c3d 10b7 793c 70d5 a93c
000000d0: d820 473d d057 f5bb 04c4 aa3c 64aa 8c3c
000000e0: 745e c23c 3ce8 243d 82f6 b0bd f430 0f3d
0.04598351 0.03533922 -0.03023966 -0.042423446 0.051159635 -0.08298413 -0.01123257 0.0025685206
0.02706799 0.036255658 -0.0028383285 0.083646774 0.038027436 0.08171202 -0.042144053 -0.046361204
0.06297867 -0.010892235 0.050164267 -0.00982447 0.018171124 -0.065959804 -0.0536542 -0.029693745
0.055971414 0.030953243 -0.059409928 0.05555679 -0.026621804 -0.056327272 0.07280001 -0.08752859
0.051917285 -0.024474695 -0.03483974 0.061099455 -0.088501796 0.026579477 -0.016939484 0.008739598
0.016333818 -0.05640062 0.071668476 -0.074149415 -0.07221003 0.04347557 -0.004077837 -0.046049178
-0.069917984 0.04986064 0.015241399 0.020731658 0.048615307 -0.0074872747 0.02084542 0.017171092
0.02372668 0.04026054 -0.08640768 0.034958795

encoder.2.weight f4 [30, 60]
00000000: 9051 3abd 505d d03c 5ae9 f73d 0294 b2bd
00000010: 3214 1cbd 4e31 983d 2c42 edbd 38dc c8bd
00000020: a8a9 f1bd 68ba 97bd 169d ed3d 76b5 ff3d
00000030: d0b8 2bbd 04b3 653d 1cc6 9cbc 1c47 1b3d
00000040: a2da 55bd 3399 88bd 8ad1 e83d 1f02 003e
00000050: 5083 5e3d fbd3 013e 899b a2bd e435 073d
00000060: 9448 e13d 00de e4bb a48b 5c3d 3e42 843d
00000070: 5c6f 10bd 533b 013e 325e e43d ac35 303d
00000080: 54ba e6bd 601e 5a3c 8034 063d d061 523d
00000090: c7f8 d6bd 7c79 e7bd a064 e73c d0b4 27bd
000000a0: a247 ef3d ae05 d13d 9e57 b23d d432 b6bc
000000b0: 608c 743c 1a50 24bd 9ece be3d ac22 733d
000000c0: 11c9 a2bd 60bd f63d e8c4 283d 88ae d8bd
000000d0: 70fa 22bd d059 af3c d2b8 02be 3cbb 843d
000000e0: 10ca d43d 07f3 023e 24e5 113d faa3 8d3d
000000f0: ee2e cabd 6a08 bcbd c266 e4bd 3c3a 8dbc
00000100: 184a 1bbc 508a 01be 6024 113d ecc2 f4bd
00000110: 6d8a c4bd 974b d2bd 2ee0 f4bd 76e0 68bd
00000120: f09d 28bc 10a6 293c 2471 123d 5a93 f53d
00000130: ec05 523d 8c28 c9bc ec56 70bd 0c90 01be
00000140: 98a6 00bd 543a 4dbd 1ae5 aa3d 8478 9b3d
00000150: f049 6fbc 1011 f8bb 7eca 34bd 648d 553d
00000160: 9d11 fabd 75e2 adbd 62f9 dabd c0b8 4abc
00000170: 5c85 f0bc 90d1 e23c 60fb dcbd be34 91bd
00000180: 400b 12bd 309b 66bc 005e f23d 7078 7ebd
00000190: 69c8 033e cc9c 74bd 9c31 2d3d be81 dbbd
000001a0: da8d c83d cb10 003e b217 a3bd fce9 353d
000001b0: 1c3b 8f3d 1434 64bd bb9d fbbd 6683 69bd
000001c0: 402b a2bd 9aa3 de3d 0eef 4ebd 4a40 c4bd
000001d0: 16b8 70bd d09e 95bd 0c8e 70bd b465 cfbd
000001e0: 58aa 4c3d 00a1 213a 48dd c0bd 541a cfbc
000001f0: 0032 983b 0004 9bb9 0073 a1bd 82b4 69bd
00000200: 450d 023e 54dd e4bd ee15 e5bd 58c9 f3bd
00000210: a459 d23d 70aa c03c 68d2 f9bc 4cb4 3abd
00000220: d6c3 75bd d142 c2bd 207f 463c c937 02be
00000230: 2e21 25bd 5468 d93d 1077 05bc 82d9 7cbd
00000240: 3029 f2bb 04e5 713d dc2a ae3d 899e c8bd
00000250: 4c2c 723d b2fc 3cbd a005 9b3d 063b a3bd
00000260: e2a4 00be 4085 f9bc 74c1 e03d 88b7 aa3c
00000270: d03a 363d e6e0 f83d c91f dabd 7000 e7bb
00000280: c270 e03d 0acf 80bd 6e78 fe3d b0d5 513d
00000290: b8da dd3d 497c 033e acf1 f7bd 3aa1 b93d
000002a0: 6a39 cbbd 5e20 01be 907e f73d 8c11 923d
000002b0: c477 3e3d b8a5 323d caf8 90bd 34d5 b5bd
000002c0: c0b6 30bb a4d7 c5bd e20a 91bd 84ea 013d
000002d0: 0af2 a4bd 383d 5abd 501d ca3c 4b53 b1bd
000002e0: 54ad a7bd 7693 f0bd 0ccf 04bd 4011 7b3c
000002f0: 9cb1 f43d 5c1b 9ebc d012 29bd 9eb3 ccbd
00000300: 8408 333d 9612 f13d 90b7 7b3c 9843 e0bd
00000310: 3e38 f1bd 140b 59bd 36d7 0bbd c416 84bd
00000320: ca13 c13d ec20 383d fc09 3e3d 5075 3fbd
00000330: 9867 3d3d 742c f3bd d0db d33d a2d8 be3d
00000340: 5884 4fbd 7ad8 2bbd 7b9d a6bd dc84 fbbc
00000350: 2075 373c 0032 9c3c 05f3 033e 80da b5ba
00000360: b030 643d da43 edbd bc8c 773d 23f7 ddbd
00000370: 8e9b 8e3d c0da 693c b6af e83d f082 ad3d
00000380: 76c7 ca3d c2fb 80bd 140f 223d fa50 9abd
00000390: 68ad 81bc 92d1 be3d 7811 3ebd ba0e 873d
000003a0: 4c53 af3d 28e2 d43d 61f7 fcbd f059 003c
000003b0: b094 843c e0e1 1e3d ea1b ec3d 18f3 f73c
000003c0: 289b 86bc 4f64 c2bd 003c 67bb 1057 ed3d
000003d0: cc93 c3bc 7857 503d 2044 913c c9eb c8bd
000003e0: 4833 8fbd 22b0 a63d 35c0 dcbd 6a35 4fbd
000003f0: ca8f b9bd e8fa 993c eb87 afbd e406 e63d
-0.04548794 0.02543512 0.12105055 -0.087196365 -0.038105197 0.07431279 -0.11584887 -0.098076284
-0.117999375 -0.07408601 0.116022274 0.12485783 -0.041924298 0.056078926 -0.019137435 0.037909612
-0.052210458 -0.066698454 0.113680914 0.12500809 0.054324448 0.1267852 -0.07939822 0.03301038
0.11000171 -0.0069844723 0.05384411 0.06457947 -0.03526245 0.12620287 0.11150779 0.043019935
-0.11266008 0.013312906 0.03276491 0.051362813 -0.10496669 -0.11302468 0.028246224 -0.04094392
0.11683585 0.102061614 0.08708118 -0.022241034 0.014926046 -0.040115453 0.09316753 0.059359238
-0.079485066 0.12047839 0.04120341 -0.10580164 -0.039789617 0.02140513 -0.12765816 0.064810246
0.10390103 0.1278802 0.035618916 0.06916042 -0.098722324 -0.09181292 -0.11152412 -0.017239682
-0.009478115 -0.12650418 0.03543508 -0.11951241 -0.09596715 -0.10268324 -0.119568214 -0.056854688
-0.0102915615 0.010354534 0.03575243 0.11990996 0.05127518 -0.024555467 -0.058676645 -0.12652606
-0.031408876 -0.050104454 0.08344479 0.07591346 -0.01460503 -0.0075703934 -0.044138424 0.052136794
-0.12210391 -0.08490459 -0.10692097 -0.012373149 -0.029360466 0.027687818 -0.107901335 -0.07090138
-0.03565526 -0.0140750855 0.11834335 -0.062126577 0.12869419 -0.059719846 0.04228364 -0.10718106
0.09792681 0.12506406 -0.07963504 0.044412598 0.06993696 -0.055713728 -0.12285944 -0.057010077
-0.079184055 0.10871048 -0.05052095 -0.09582575 -0.058769308 -0.07305682 -0.058729216 -0.1012682
0.04996714 0.00061656535 -0.09417206 -0.025281109 0.0046446323 -0.00029566884 -0.07883263 -0.05705691
0.12700374 -0.111750275 -0.111858234 -0.11903638 0.10271004 0.023518771 -0.030495837 -0.0455821
-0.060001217 -0.094854005 0.01211527 -0.12716593 -0.040314846 0.10615602 -0.0081460625 -0.06173087
-0.007390164 0.059056297 0.085042685 -0.09795863 0.059124276 -0.046139427 0.07569432 -0.07970242
-0.12562898 -0.030459046 0.10974398 0.020839468 0.04448968 0.12152271 -0.10650594 -0.0070496127
0.10959007 -0.062894896 0.12425314 0.05122918 0.10832733 0.1284038 -0.12106642 0.09063955
-0.0992306 -0.12610003 0.12084687 0.07132253 0.046500936 0.043615073 -0.07078703 -0.08878556
-0.0026964396 -0.09660271 -0.07082154 0.031717792 -0.08053978 -0.05328104 0.02467218 -0.08658465
-0.081873566 -0.11746876 -0.032424018 0.015323937 0.11947939 -0.019300155 -0.041277707 -0.09995197
0.043709293 0.11771123 0.015363589 -0.109503925 -0.117783055 -0.05298908 -0.034140788 -0.06449655
0.094276026 0.04495327 0.04639624 -0.046742737 0.046241373 -0.11873713 0.1034466 0.09318663
-0.050663322 -0.041954495 -0.08135506 -0.030703 0.011197358 0.01906681 0.12885673 -0.0013874322
0.055710495 -0.11585207 0.06043695 -0.10838153 0.069632635 0.0142733455 0.11361639 0.0847224
0.099013254 -0.06298019 0.03956516 -0.07534976 -0.015829757 0.09317316 -0.04640338 0.06594606
0.085608095 0.103946984 -0.12351871 0.007833943 0.016184181 0.03878963 0.11528762 0.030267283
-0.016431406 -0.094917886 -0.0035283566 0.115888715 -0.023874186 0.050864667 0.01773268 -0.098105974
-0.06992203 0.081390634 -0.10778848 -0.05058805 -0.09060629 0.0187964 -0.08570846 0.11231783

encoder.2.bias f4 [30]
00000000: ca7a ab3d 2ab6 cd3d 6097 d43d 3155 d6bd
00000010: 3601 fd3d 1c94 82bc b0ef f33d 008f 93bb
00000020: 0c0d 593d 1e13 a83d 69fa 8cbd f34c a3bd
00000030: feaa f83d 7865 7c3d 9a16 f8bd 0e8f 9e3d
00000040: 886d 38bc c28a fb3d 02e6 01be eeb3 63bd
00000050: 56da 8ebd 5e97 903d c4a8 e9bd 1245 e93d
00000060: a4f7 333d 94d5 8a3d 1467 003d 6a5c e5bd
00000070: 24b1 dabc 343d 763d
0.083730295 0.10044511 0.10380435 -0.10465468 0.123537466 -0.015939765 0.11910951 -0.004503131
0.052990958 0.08206771 -0.068836994 -0.07973661 0.12141989 0.061620206 -0.12113686 0.07742129
-0.011256583 0.12282325 -0.12685397 -0.055591516 -0.06975238 0.07060121 -0.114091426 0.11390127
0.04393734 0.06779018 0.031348303 -0.11199267 -0.026695795 0.06011696

encoder.4.weight f4 [10, 30]
00000000: 90b7 16bd e7ab 00be 1852 e53c 948b 043e
00000010: 8cc9 333e c88b 70bd b40a 3ebd 42ec 2f3e
00000020: 3bbf 14be bcab c83d a24c 883d 002f 13bc
00000030: f62c 80bd a086 cb3b 5836 da3d 047c 5cbd
00000040: 75ab a1bd 7038 123c 34ad ed3d d8d0 573d
00000050: 86bf 083e 80e7 393e 8a85 a1bd 4010 c73b
00000060: fa1b b6bd fd9a 88bd 7477 b83d 87b2 99bd
00000070: 877a 38be 3b26 d1bd 5a87 16be b47c 993d
00000080: 98b1 9abd 0375 e6bd 8067 17bc 76d4 d8bd
00000090: 3062 17bc 908f 693d 08f6 cd3d ee45 92bd
000000a0: ebba 1abe d487 cf3d f44e 003e 4440 cd3d
000000b0: 886b a03d 7388 00be 006c 01bb ecd9 4abd
000000c0: ee8d 873d 0c5c b9bd 7054 093d 4c75 9f3d
000000d0: 90c9 bc3d f0a7 713d 5b0a 37be c836 de3d
000000e0: 800d 253b 002a ff3d 6052 2ebe da72 0a3e
000000f0: 5609 283e 8e1a 1fbe f957 24be f824 283e
00000100: 985b 53bd 30d1 41bd b48d 14bd 589c eb3d
00000110: 3843 5fbd 988a 353e 70c3 e0bc ece2 8d3d
00000120: f84e bd3d a2ce 2c3e a435 b33d f069 a1bc
00000130: 9eac 323e 7820 bd3c 6007 d03b 8ba2 28be
00000140: 204e 7b3c 9077 73bd f872 06be aeab 37be
00000150: 87f2 83bd 5c2e 29bd e8f1 203e 2056 dd3d
00000160: 901d 5a3c 89ba b1bd 57de a2bd a03c 0b3c
00000170: 8388 1ebe a019 c83c 64f2 953d a542 fcbd
00000180: 4050 f1bc e011 b93c f634 77bd b4ee d13d
00000190: f08a 3c3c 7d3a 2dbe 584c 25be 2437 f53d
000001a0: 220c 19be e2b3 203e 502c 613c b848 6abd
000001b0: 20a2 20bd 5e5e bbbd 0cfa b23d 2606 8a3d
000001c0: fe3a 003e 3444 1dbd 79c4 0fbe 48e8 44bd
000001d0: 5cca 2abd 0016 f53a dff1 c7bd 80ba 56bb
000001e0: 42e2 163e 0444 f13d 00f6 503a d507 aabd
000001f0: e0b3 39bc 5e9b 73bd c26f 163e 80fb 203e
00000200: d8bc 2a3e a044 8e3d cc52 1f3d 7c3c 3a3e
00000210: 241b 093e de65 0c3e dc5f a63d 7d1f b5bd
00000220: b8ab 16bd 29d5 fcbd bcfa 053e 108c 1bbd
00000230: b58a a8bd 9cd4 c63d cc31 2f3d 9822 b73d
00000240: 18e1 e6bd 88a8 d5bd 8094 ef3b 5cf4 0bbd
00000250: 9abb 31be 9011 6f3d e0ac a13b f072 803d
00000260: 1414 1fbd 3848 eb3d d838 a4bc c475 b5bd
00000270: ac69 64bd b8ef 2dbe 3c7d 433d b276 033e
00000280: 00f7 ad3a b6aa f8bd a09f b6bc 38b2 9cbd
00000290: c0a8 293e 0b11 16be 8e58 96bd 7416 35bd
000002a0: ff56 98bd 986c f63d 3a5c fbbd cae6 243e
000002b0: 4028 05bd f0ad bd3d e5ec e6bd e07e 113d
000002c0: 91e2 a7bd 960b 063e e063 cfbb bd59 eabd
000002d0: 5cd4 063e bd07 edbd 804f 21be 1a00 6fbd
000002e0: 00eb 26ba be38 1abe 5620 253e 097d dcbd
000002f0: 7c6e 623d b0a2 823d ae1f 2b3e 24c3 0b3e
00000300: aa66 91bd 68d0 d6bc 1828 173e 2835 30be
00000310: 3061 693c 58a5 203e 8010 843b 90c4 213e
00000320: e8a3 1f3e 7834 363e 046c 223d e462 313e
00000330: 9d1d 08be f681 333e 0000 683c 0054 cfba
00000340: ae71 303e 365d a4bd 30af abbd a6e8 35be
00000350: c64c 353e 0015 6aba 38cc 7d3d 1883 f33d
00000360: 003d 35bd 0f1a 88bd 5756 25be 0882 533d
00000370: 5af7 9bbd 3c5d 7d3d 6aa1 803d 1802 e13d
00000380: 2e1d b4bd 702b 183e 7ecc e1bd 62b6 373e
00000390: 24e0 703d 740f 09be 25c7 c9bd d08a ddbc
000003a0: c149 a4bd f0a4 083c 72a4 98bd 007e e4ba
000003b0: b1eb 0bbe 6401 2ebd 12da c4bd a4af f4bd
000003c0: 68cf fe3d 0cc0 c33d e0bd 013d 6025 0fbd
000003d0: 7e42 7fbd f07a 493c eee3 18be 8b8d f4bd
000003e0: f0c9 e43d b8b2 5abd 8235 043e 6742 1cbe
000003f0: 852d c9bd c0b7 4e3c 267b 78bd ece1 4ebd
-0.036796153 -0.12565576 0.027993247 0.1294387 0.17557353 -0.058727056 -0.046396926 0.17179969
-0.14526074 0.09798381 0.066552415 -0.008983374 -0.062585756 0.006211117 0.106548965 -0.053829208
-0.07894031 0.008924589 0.116053015 0.052689403 0.1335431 0.18154716 -0.07886799 0.006074935
-0.08892055 -0.06670187 0.09007159 -0.075047545 -0.1801549 -0.1021237 -0.1470007 0.07494488
-0.075534046 -0.11252787 -0.009240985 -0.10587399 -0.009239718 0.057021677 0.10056692 -0.07142244
-0.15110366 0.10133329 0.12530118 0.10022023 0.0783301 -0.12552051 -0.001974821 -0.049524233
0.06618868 -0.0905076 0.03352779 0.077860445 0.092181325 0.05899805 -0.17875044 0.108502924
0.0025185049 0.12459183 -0.17023611 0.13520375 0.16409811 -0.15537474 -0.16049184 0.16420352
-0.051601022 -0.047318637 -0.03626795 0.115044296 -0.054507464 0.1772865 -0.027436942 0.069280475
0.09243578 0.16875699 0.087504655 -0.019703835 0.1744866 0.023086771 0.0063485354 -0.16468255
0.015338451 -0.059440196 -0.13129795 -0.17936584 -0.06442743 -0.041303977 0.1571728 0.10807443
0.013312712 -0.08678157 -0.07952564 0.008498341 -0.15481763 0.024426281 0.07321623 -0.12317399
-0.029457211 0.022591531 -0.06035324 0.10250607 0.011507735 -0.16916843 -0.16142404 0.11973408
-0.14946035 0.1569362 0.013743475 -0.057198256 -0.039217114 -0.091488585 0.08739099 0.06739454
0.12522504 -0.03839512 -0.14039792 -0.048073083 -0.04169689 0.0018698573 -0.0976293 -0.0032764971
0.14734748 0.11780551 0.0007971227 -0.08302275 -0.011334389 -0.05947434 0.1469107 0.1572094
0.166736 0.06946683 0.03889732 0.18187135 0.1338926 0.13710734 0.081237525 -0.088438965
-0.036784858 -0.123453446 0.13083929 -0.03797537 -0.08229581 0.09708521 0.0427721 0.08942145
-0.11273402 -0.104325354 0.0073114038 -0.034168586 -0.1735672 0.05836636 0.0049339384 0.062719226
-0.038837507 0.11488384 -0.020046636 -0.08860353 -0.05576484 -0.16985977 0.047726855 0.12838247
0.0013272464 -0.121419355 -0.022292912 -0.0765118 0.1656828 -0.14654939 -0.07341109 -0.044210866
-0.07438468 0.12032431 -0.1227345 0.16103664 -0.03250909 0.092616916 -0.11275653 0.035521388
-0.08197511 0.13090357 -0.0063290447 -0.114428975 0.13166946 -0.115737416 -0.15752983 -0.058349706
-0.0006367415 -0.15060708 0.16125616 -0.10766036 0.055281147 0.063786864 0.16711304 0.13648659
-0.0709966 -0.026222423 0.14761388 -0.17207778 0.014244363 0.15688074 0.0040302873 0.15797639
0.15589869 0.17793453 0.039653793 0.1732288 -0.13292547 0.17530045 0.014160156 -0.0015817881
0.17230865 -0.08025591 -0.08383024 -0.1776453 0.17705068 -0.0008929521 0.061962336 0.118902385
-0.044247627 -0.06645595 -0.16146217 0.05163768 -0.07615538 0.061856493 0.06280787 0.109867275
-0.08794628 0.1486032 -0.11025332 0.17940667 0.058807507 -0.13384801 -0.09852437 -0.02704373
-0.0802188 0.008340105 -0.074532405 -0.001743257 -0.13664128 -0.042481795 -0.09611906 -0.11947563
0.12441903 0.095581144 0.03167522 -0.034947753 -0.06231927 0.012297377 -0.14930698 -0.1194106
0.11171329 -0.053393096 0.12911037 -0.15259705 -0.09823135 0.012617052 -0.06066432 -0.050508425

encoder.4.bias f4 [10]
00000000: ca2b 133e 7cb4 20be 3d59 02be 6832 2b3d
00000010: e13b 21be 0c5b 9c3d 5668 0c3e 9230 123e
00000020: c573 a0bd ed88 34be
0.14372173 -0.1569385 -0.12729354 0.041796118 -0.15745498 0.07634553 0.13711676 0.1427634
-0.07834581 -0.17630358

encoder.6.weight f4 [1, 10]
00000000: e867 643d f39f 863e 1481 df3d 2849 963d
00000010: 1cd3 c33d 1478 f73d 450a 8d3e 6043 273d
00000020: 63e0 843e e468 8abe
0.055763155 0.26293907 0.109132916 0.07338172 0.0956175 0.1208345 0.27546898 0.04083574
0.25952443 -0.2703315

decoder.0.weight f4 [10, 1]
00000000: 0c4e 913e 9c1d aebe 8057 f4bc 803e 6dbd
00000010: 5ce5 e33e b071 363f 88aa b7be 9464 bc3e
00000020: 1a1c 4abf 0ac9 5dbf
0.28379858 -0.34006965 -0.02982688 -0.057920933 0.44510925 0.71267223 -0.35872293 0.36795485
-0.7894913 -0.86634886

decoder.0.bias f4 [10]
00000000: 0645 6cbf 7644 37bf d699 6b3f b227 403f
00000010: 1086 4cbe c811 0d3e 903d fa3d a8b8 9e3e
00000020: 92b5 183f b8a0 82be
-0.9229282 -0.7158884 0.9203161 0.7506057 -0.19973016 0.13776314 0.12218773 0.31000257
0.59652054 -0.25513244

decoder.2.weight f4 [30, 10]
00000000: 72b5 dcbd a001 f63c 702e bd3c 8077 0b3b
00000010: fe50 483e e42a bbbd 71c2 843e 9f06 96be
00000020: e390 8c3e 6697 3d3e 7b86 8cbe e0f1 5f3d
00000030: 6e92 5b3e 7dca 2bbe 1ecf 64be 9312 3fbe
00000040: 8031 8cbc 1a5f 4c3e f007 d8bc c71a 8f3e
00000050: 625a 85be 2277 1bbe d07c a43d 8d30 8fbe
00000060: 1a86 efbd bc99 e23d bee2 00be 0390 973e
00000070: 90eb 3c3d 4060 8a3d 623d 233e 600c 88bd
00000080: c50a 83be 4004 04bd 5130 81be f69e 3cbe
00000090: 9eeb f0bd e00a abbd 903b e43c de6e 5e3e
000000a0: 62b8 463e a867 2e3d c3ca 26be 2d87 813e
000000b0: 462b 4a3e 5e4a 283e 532e a03e 550a 89be
000000c0: b8d8 b93d 9eda 2abe 32ad 60be 4248 283e
000000d0: 06e8 01be 5235 653e d602 46be ce4e bfbd
000000e0: 0c2b 7dbe cbe5 30be 2e31 0dbe a0d6 d83c
000000f0: 4877 00be 2423 0cbe ee43 8dbe 8aac 6d3e
00000100: 769e 5c3e 000f a9bb e65d b4bd b6a0 1e3e
00000110: d5e5 40be e196 9e3e f26b 3c3e 3457 9fbe
00000120: cf61 1abe 4b50 85be 18a4 113e 40bc 4a3d
00000130: c6b9 763e 709b d43c 89c1 9d3e ec21 e2bd
00000140: 7e8d a1be 222e 6e3e aa2d 5f3e 32fb 38be
00000150: 76fd 83be 8608 37be c06d 403c e4ca fabd
00000160: 1c18 15be 8025 be3b b989 22be a08e 2a3d
00000170: c296 143e 5233 a0bd 00ff 96bb 7e11 78be
00000180: 368e 2c3e 8b76 1fbe 0f41 88be 803c 01bd
00000190: 4567 853e 9026 2cbd e4f1 153e 6e57 7b3e
000001a0: bf6c 943e c6da 603e 6e74 793e 401e 35bd
000001b0: 08dc 213d 0a5a 25be 85ef 85be c8f3 8cbd
000001c0: 78ce 2ebe 3c47 e8bd 5f47 8b3e 422a 7e3e
000001d0: 7340 4cbe 70a9 38bd 3b71 11be 1427 163e
000001e0: e09b 7f3d 8fdb 61be 00b0 57ba 66e0 273e
000001f0: 38b1 45be 0002 38bb f03c d4bc c053 78bc
00000200: 5892 f63d b8dd 0d3e 524c 203e 94bb a33d
00000210: cc78 c63d a66b 96bd f855 40be 9ed3 523e
00000220: 3047 9cbc e3a0 67be 6e63 42be 0aa7 753e
00000230: 0a38 07be 28d3 183e 0e88 513e 10eb 8fbe
00000240: 5fff 2fbe ca34 013e e265 8cbe 8cdd 75be
00000250: 2035 bc3c e47f d53d d172 8cbe bcfc ccbd
00000260: 308f 2c3d 8b66 00be 6892 81be 081f fe3d
00000270: 20de f83d 40b5 9fbe 80e2 d3bb 64a5 f13d
00000280: 28b7 2f3e f582 943e e6da 333e 2cc2 93be
00000290: b2cc 7ebe f200 723e 60f5 93be 4a28 013e
000002a0: ce11 2a3e c8e7 9ebe 0edc 453e 8773 8cbe
000002b0: c2bb 6a3e a0aa 2b3e 5487 26be 21b9 41be
000002c0: c536 983e 65d2 953e 2787 863e a202 273e
000002d0: 77d7 a13e a23a 7fbe 3a61 083e b2e6 7ebe
000002e0: faac b1bd e0a4 d63d 7a67 313e e083 973c
000002f0: 1c65 c63d 40ce c3bb 8781 9a3e 06d2 1e3e
00000300: cbe4 99be ba16 82be 1704 803e 69fe 9b3e
00000310: 37ab 17be b8c9 2d3e dce1 213e 6b2f 9fbe
00000320: 8db8 92be 5b2d 8f3e 8e3e 573e 70e0 ca3d
00000330: f4a1 c83d 6052 9e3d d0cd a33d 721d 393e
00000340: 6039 8cbe cfee 93be d851 b73d e253 b5bd
00000350: 0a1b a5bd 903d 29bd 843a c0bd b29d 7d3e
00000360: 5088 19bd 96c0 10be 94b7 ccbd 575c 903e
00000370: 6077 d3bc c6b6 72be 6047 e5bd da64 113e
00000380: ce8d 4e3e 0034 de3a 8019 79bc 8c74 1a3e
00000390: c447 91bd ff1a 983e 0867 1d3d 80ef 473c
000003a0: 3f2a 3bbe 7e0d 483e fa19 6abe f933 973e
000003b0: b6de 423e d845 55bd d228 2cbe f4b5 10be
000003c0: 739c 92be c086 d13b 64dc e5bd 19c8 9b3e
000003d0: 2672 88be ac09 fa3d c050 07bc 2aa0 48be
000003e0: 50a5 dc3d 0076 783d 1038 cf3c 2206 1d3e
000003f0: 7ccc f2bd c50b 1cbe 2059 15bd fe4a 3a3e
-0.107767954 0.030030072 0.023093432 0.0021280944 0.19562146 -0.0913904 0.25929597 -0.29301926
0.2745429 0.18514785 -0.2744635 0.05467403 0.21442577 -0.16776462 -0.22344634 -0.18659429
-0.017113447 0.19958153 -0.026370972 0.27950117 -0.2604552 -0.15182164 0.080316186 -0.2796673
-0.116955 0.11064479 -0.12586495 0.2960206 0.046123087 0.067566395 0.15941384 -0.06642985
-0.25594154 -0.032230616 -0.25232175 -0.18420014 -0.117636904 -0.083516836 0.027860433 0.2172198
0.19406274 0.042579323 -0.16288285 0.25298443 0.1974307 0.16434619 0.31285343 -0.26765695
0.09074539 -0.16684958 -0.21941069 0.16433814 -0.12686166 0.22383621 -0.1933702 -0.09341203
-0.24723452 -0.17275159 -0.13788292 0.026469529 -0.12545502 -0.1368528 -0.2759089 0.2321035
0.21544823 -0.005159259 -0.08806972 0.15490994 -0.18837674 0.30974486 0.18400553 -0.31121218
-0.15076374 -0.2603782 0.14222753 0.049495935 0.24094304 0.025953025 0.30811718 -0.11041626
-0.31553262 0.23259786 0.21794763 -0.18064573 -0.25779313 -0.17874345 0.011744916 -0.122457296
-0.14559978 0.00580281 -0.1587285 0.041639924 0.14510635 -0.078222886 -0.004608035 -0.24225423
0.16851124 -0.15572564 -0.26612136 -0.031551838 0.2605535 -0.042028964 0.14643055 0.2454507
0.28989217 0.21958455 0.2436082 -0.0442183 0.03951648 -0.16147628 -0.261593 -0.06882435
-0.17070949 -0.11341712 0.2720289 0.24820808 -0.1994646 -0.045083463 -0.1420335 0.14663345
0.062404513 -0.22056411 -0.0008227825 0.16394195 -0.19305885 -0.0028077364 -0.025907964 -0.015156686
0.120396316 0.1385411 0.15654114 0.07994762 0.09691009 -0.07344751 -0.18782794 0.20588538
-0.019076914 -0.22619967 -0.18983242 0.23989502 -0.13204971 0.149243 0.20462057 -0.28109026
-0.1718726 0.12617794 -0.2742148 -0.24010295 0.02297455 0.10424784 -0.27431348 -0.10009143
0.04212874 -0.12539117 -0.25307012 0.124082625 0.12151742 -0.3119297 -0.00646621 0.11799124
0.17159712 0.29006162 0.17563972 -0.2885908 -0.24882773 0.23633173 -0.28898144 0.12613025
0.16608354 -0.3103621 0.19322225 -0.2743189 0.22923186 0.16764307 -0.16262561 -0.18918277
0.29729286 0.2926208 0.26274988 0.16309598 0.316097 -0.2492471 0.13318339 -0.24892691
-0.08675571 0.10480666 0.1732463 0.0184955 0.09687254 -0.0059755147 0.30176947 0.15509805
-0.30057368 -0.25407964 0.2500312 0.30467537 -0.14811407 0.16971481 0.15808815 -0.31090865
-0.28656426 0.2796429 0.21019956 0.09906089 0.09796515 0.077305555 0.0799824 0.18077639
-0.27387524 -0.28893134 0.08951157 -0.0885389 -0.08061798 -0.041318476 -0.09386161 0.24767187
-0.037483513 -0.14135966 -0.09995952 0.2819545 -0.025813758 -0.23702535 -0.11195254 0.14198628
0.20171282 0.0016952753 -0.015203834 0.15083522 -0.07093766 0.29708096 0.038428336 0.012203097
-0.18277834 0.19536397 -0.22861472 0.2953184 0.1903027 -0.05206856 -0.16812447 -0.1413191
-0.28634986 0.0063942373 -0.11223677 0.304261 -0.26649588 0.12208876 -0.008258998 -0.19592348
0.10773718 0.06065941 0.025295287 0.1533437 -0.118554085 -0.15238865 -0.03646195 0.1819267

decoder.2.bias f4 [30]
00000000: 8045 78be 40bd bb3b 48f1 153d c638 0ebe
00000010: 9673 c9bd bbe4 90be 9c6e 24be c828 ca3d
00000020: 7a88 7e3e 07cd 883e 0045 2f3b 5b0e 85be
00000030: 3ae3 92be c0a3 0ebc 6238 9abd 542d b9bd
00000040: 01a8 71be 40a1 273e f8d4 5dbd c15c 4ebe
00000050: 7afd 2c3e 1095 02bd be8c 303e 1e85 783e
00000060: c07b dbbb 60e5 6ebd 3205 703e c01d afbb
00000070: f573 98be cdc1 06be
-0.24245262 0.0057293475 0.036607057 -0.13888845 -0.098364994 -0.28299507 -0.16057819 0.0987106
0.24856749 0.26718923 0.0026744008 -0.25987515 -0.28688985 -0.008706033 -0.075302854 -0.09041849
-0.23599245 0.16370106 -0.05415818 -0.2015257 0.16893569 -0.03188044 0.17241189 0.2426953
-0.0066981018 -0.058324218 0.23439482 -0.0053441226 -0.29775968 -0.13159867

decoder.4.weight f4 [60, 30]
00000000: 4ca1 3fbd a4c5 b43d fc34 303e b2c6 a2bd
00000010: 00bb 55ba 401c f43d 5972 acbd aa15 dcbd
00000020: 7289 3abe cca9 253e e0d9 b63b 8b87 a4bd
00000030: 4843 a33d c88f 24bd 6cf2 3abd f00a 743c
00000040: d0e8 59bd ec71 093e f81c 1f3e 6060 94bd
00000050: a1d3 28be 5c7e 4cbd 249a d93d 5c52 cc3d
00000060: 285f 77bd c81a 523d fe9b 3a3e 42e9 93bd
00000070: fc48 0d3e 689d 92bd 651f bfbd 903a 9a3d
00000080: eccf f43d a0f8 bcbd 7e61 ddbd 7010 a6bc
00000090: 5c41 aa3d 00f0 b73d 90e6 8b3c 68fb ecbc
000000a0: b6de 0b3e 00be 013b 6406 353d 224f f6bd
000000b0: 7095 9cbc 909a acbc 4ab4 35be 3303 35be
000000c0: ec54 44bd 4588 e2bd 041a 313e d2d4 36be
000000d0: 9059 ebbc f054 2ebd 4863 943d 206b 49bd
000000e0: 9934 a0bd 6078 07bd 5090 4b3d d347 8bbd
000000f0: c627 263e 30b5 f8bd 4442 e73d 2426 c33d
00000100: cef3 06be 01e9 19be 44cc 1dbe 2d1a 25be
00000110: cea6 0d3e 6d2b d9bd 8cce 39bd 8005 123e
00000120: 40b5 79bd 2421 83bd de6d eabd 860c 243e
00000130: 2b63 a1bd 0e08 08be 108c d33c 00b0 b7bb
00000140: 74fc d3bd 5b2f 18be 1ece 863d 30c3 c03d
00000150: 6c2d b03d 47ee 31be 9606 febd 6029 68bd
00000160: 5c69 933d 4cbb ad3d 0cea f7bd a084 78bc
00000170: a0ed f1bc 48c7 bfbc 50f1 d13d 58d2 ad3d
00000180: 4461 0ebe 0e52 febd cc9a 823d 24b0 893d
00000190: 70d7 8b3d a8f3 04bd 8adb 2a3e 0897 653d
000001a0: 3ddf 9abd 0219 2dbe 4c8f 36bd 8e5b eebd
000001b0: 5303 2cbe a6e3 debd 0545 cbbd 58b4 acbc
000001c0: 50b6 5dbc b281 283e a356 eebd 9a36 a9bd
000001d0: 4c72 19bd c0fa 03bd 90a4 c63d daca 803d
000001e0: f0b1 1ebe d878 2abe b0f2 1abd 30f7 e63c
000001f0: e01c 13bc 58bc ddbd f096 a43c 2a67 03be
00000200: 70bd d63d 40fb 3fbc 409a 0f3d 20cb 233e
00000210: a81f 87bd 77f3 83bd 7440 09be 1691 72bd
00000220: 281a 933d f979 86bd 80b4 02bd 30b8 e1bc
00000230: 381d 9b3d 7862 e43d 984f 083e 3a90 1bbe
00000240: ce4d 173e c03c f73d 6a8e a1bd 3c79 14bd
00000250: 9a81 35be 0836 283e c365 04be 6c2f 1cbe
00000260: 08ee eb3d 486d 173e 603f 17bd d02d 663c
00000270: 5806 6a3d 3027 24bc bcaf 203e dfd1 21be
00000280: 14c3 c23d 0b13 86bd a70f efbd f4d2 de3d
00000290: 0adc 1ebe b40a 2f3d 3034 313e 009e 4aba
000002a0: 707c 2b3c 7943 12be 6660 32be a226 853d
000002b0: 30b0 513c bc03 343e 0894 813c 601a c83d
000002c0: a061 053e 5876 723d b6f1 d2bd 30e5 e53d
000002d0: 6f4e eebd 6895 edbc 40e2 79bc 42dc 1bbe
000002e0: 1f8d 26be 95f8 8cbd 82bf 243e 8038 f03b
000002f0: a9c7 8bbd 5cae bfbd f097 7a3d ca4a 9cbd
00000300: 007c c8bd b498 e83d 4095 57bd d21d 353e
00000310: b0cb dc3c 5e50 77bd 15f4 dfbd 0491 67bd
00000320: 1c50 003e 0425 003d 0c35 f63d 50a9 2bbd
00000330: a6cf 0d3e a1f4 1ebe d551 e3bd 00f3 ca3d
00000340: a882 9f3d 80a0 bcbc acbc b73d 22a8 b5bd
00000350: 7c32 2c3e 2cbc 3fbd f4ff e7bd 10d5 b43d
00000360: cc4d 913d a811 d1bd d8bd 66bd d8ac 1ebd
00000370: a4d4 ae3d 00c5 77ba 8625 a7bd a0d5 8d3d
00000380: 3849 3a3e 80f4 a33d 32f9 143e a23e b7bd
00000390: 5092 aabc 6ade 87bd 808a dd3d b60d 0b3e
000003a0: 4c1b 26be c046 c73d 10e8 33be a0f7 96bc
000003b0: d717 2ebe 9c74 1e3e 8058 9c3d a70a 1fbe
000003c0: db31 febd 3029 2ebd b89b 2d3e fcdb 1bbe
000003d0: d60c 223e b85c 34bd bce8 603d 1aee 283e
000003e0: 501f 453c 7aea 36be e8bb e13d 026a 86bd
000003f0: fc4c 383e c03c 213e c04b 4bbd 8093 f73d
-0.046784684 0.088267595 0.17207712 -0.079480544 -0.00081531703 0.11919451 -0.084202476 -0.107463196
-0.18216494 0.16178054 0.005580172 -0.08033665 0.07971817 -0.040176183 -0.045641348 0.014895186
-0.053200543 0.13422364 0.15538394 -0.072449446 -0.1648698 -0.049925193 0.10625103 0.09976646
-0.060393482 0.05129507 0.18223569 -0.07222225 0.13797373 -0.07158929 -0.0933216 0.07530701
0.119537205 -0.09227109 -0.10809611 -0.02027151 0.083132476 0.08981323 0.017077714 -0.028928474
0.13659176 0.0019797087 0.044195548 -0.12026812 -0.019114226 -0.021069795 -0.17744556 -0.17677002
-0.04793255 -0.110611476 0.1729508 -0.17854622 -0.02872923 -0.04256147 0.07245499 -0.049174428
-0.07822532 -0.033073783 0.049698174 -0.06800809 0.1622611 -0.12143934 0.11291936 0.09528759
-0.13178942 -0.1503029 -0.15409952 -0.16123267 0.13833162 -0.10603986 -0.045362994 0.1425991
-0.06096387 -0.064028054 -0.11446737 0.16020402 -0.07880243 -0.13284323 0.025823623 -0.0056056976
-0.10350886 -0.14861815 0.065822825 0.09412229 0.086024135 -0.17376052 -0.124036 -0.056680083
0.0719783 0.0848299 -0.12105188 -0.015168339 -0.029532254 -0.023410454 0.10251105 0.084873855
-0.13904291 -0.124179944 0.063771814 0.06723049 0.06828201 -0.03245893 0.1668531 0.056052238
-0.075621106 -0.16904071 -0.044570252 -0.116385564 -0.16798143 -0.10883264 -0.09925274 -0.021082088
-0.013532236 0.16455725 -0.116376184 -0.082623675 -0.037462518 -0.032221556 0.096993566 0.06288691
-0.15497565 -0.1664766 -0.0378291 0.02819404 -0.008979052 -0.10826939 0.020091504 -0.12832323
0.10485351 -0.0117176175 0.035059214 0.15995455 -0.06597835 -0.064429216 -0.13403493 -0.059220396
0.07182723 -0.06566233 -0.03191042 -0.027553648 0.075739324 0.11151594 0.13311613 -0.15191737
0.14775774 0.12072134 -0.078884915 -0.03624843 -0.1772522 0.16426861 -0.12929444 -0.15252465
0.1152001 0.14787781 -0.036925673 0.0140490085 0.057134956 -0.010019109 0.15692037 -0.15802716
0.095098644 -0.06546601 -0.11672907 0.1088008 -0.15513626 0.042734817 0.17305064 -0.00077292323
0.01046668 -0.14283551 -0.17419586 0.06501509 0.012798354 0.1757955 0.015817657 0.09770656
0.13025522 0.059194893 -0.10300009 0.11225355 -0.11636054 -0.029001907 -0.015251696 -0.1522074
-0.16264771 -0.06883351 0.1608868 0.007330954 -0.068251915 -0.09359428 0.061180055 -0.076314524
-0.09789276 0.11357251 -0.05263257 0.17687157 0.026952595 -0.06037938 -0.10935227 -0.056534782
0.1253056 0.0312853 0.12021837 -0.041909516 0.13848743 -0.15523006 -0.110995926 0.0990963
0.077885926 -0.023025751 0.08971533 -0.088699594 0.16816133 -0.046810314 -0.11328116 0.08829701
0.07094917 -0.10208446 -0.056333393 -0.038739055 0.08536652 -0.00094516575 -0.08161454 0.06925511
0.18191993 0.08005619 0.14548185 -0.08947493 -0.02082172 -0.06634219 0.108174324 0.13579449
-0.1622135 0.09730291 -0.17568994 -0.018428624 -0.17001282 0.1547417 0.076340675 -0.15531407
-0.12411853 -0.04251975 0.16953933 -0.15220636 0.15825209 -0.044033736 0.054909453 0.16497079
0.012031391 -0.17862883 0.110221684 -0.06563188 0.17998117 0.1574583 -0.049632788 0.1208868

decoder.4.bias f4 [60]
00000000: 22a7 7dbd 82c6 833d a480 63bd f0b5 b8bd
00000010: 4009 2abb 102c 433c 43c4 37be 002e dbb9
00000020: 80dd 903d ce20 2e3e 4047 2b3e 345a c63d
00000030: 20b9 9f3d d25f 05be bac8 2d3e f48d 173e
00000040: 8c79 633d 00d9 5e3d 3037 a2bc c240 073e
00000050: c2a1 053e fe27 36be 20e0 293e edb8 c9bd
00000060: 1037 95bd 32db 17be 0018 d03a 28b8 dfbc
00000070: 8dec 2abe 6b94 fdbd e062 eebc 58a2 94bd
00000080: 6429 053d f612 253e 7c7f 873d 8496 ee3d
00000090: 40c9 eb3d 50ca 39bc fc3d 3a3e d440 7cbd
000000a0: dea1 213e 9421 d6bd fc53 9c3d cbff a8bd
000000b0: 6e0c 243e 5006 8bbc 10f0 86bd 16c2 7dbd
000000c0: f84b e03d 709d bfbc 10b1 5b3d e065 f23c
000000d0: 4166 86bd 088b 4bbd 8057 c23c 4008 05bd
000000e0: 60ea 243e dcc5 533d 7497 333e 249e 623d
-0.06192697 0.06434347 -0.055542603 -0.09019077 -0.0025945455 0.011912361 -0.17945962 -0.00041805208
0.07073498 0.17004701 0.16726398 0.09685174 0.07798982 -0.13024834 0.16971102 0.14800245
0.055535838 0.054406166 -0.019801706 0.13208297 0.13049987 -0.17788693 0.16589403 -0.09849725
-0.07285893 -0.1482971 0.0015876293 -0.027309492 -0.166918 -0.12381824 -0.029099882 -0.07257527
0.032510176 0.16120514 0.066161126 0.11649802 0.11512995 -0.011339739 0.18187708 -0.061585262
0.15784404 -0.10455623 0.07633206 -0.08251914 0.16020367 -0.016970783 -0.06588757 -0.061952673
0.1095199 -0.023390502 0.053635657 0.029589593 -0.06562472 -0.049693137 0.023723364 -0.03247857
0.16105032 0.051702365 0.17538244 0.055326596

decoder.6.weight f4 [122, 60]
00000000: 18dc 8dbc 50e7 e73d 80fe ba3a 18c6 fcbc
00000010: ae2d 98bd 2a9b 8f3d 6021 e6bc 446b bdbc
00000020: e086 b5bb 1a36 fa3d 358e 033e 30f1 483c
00000030: 00fd c63b d00d d2bb c424 e4bd 0050 12bc
00000040: 1055 7f3d 20a7 4a3d 46c9 92bd 3896 6abd
00000050: d884 b53c 65c4 febd 021a 87bd 7e18 5ebd
00000060: 3280 15bd b80d 833c 48c6 753d c2c3 9abd
00000070: 60c3 f83b e04b a73d c4aa 433d ecf1 733d
00000080: b400 e83d 287a c53d 00f5 2cba a0f4 dabc
00000090: c81e 043d 3ab3 17bd 18ea 45bd 1fba 00be
000000a0: 9067 563d ae64 cbbd 0cd3 c7bd 9263 ce3d
000000b0: dee4 e8bd 0f4d f5bd f468 fdbd a057 62bc
000000c0: f613 e1bd c84c f83c f0b2 8fbd cc4c c93d
000000d0: 63bb fabd 7c7f f6bc 0ae7 f6bd f05e 57bd
000000e0: 3099 ea3d 04d1 1b3d e020 ccbb d585 84bd
000000f0: a46d cdbd b016 b93c 80fc 33bb f056 613d
00000100: 0027 8e3b d02f cb3d 6e3b 2fbd 5043 9e3c
00000110: 5801 873d 0054 6abb d47c 50bd b2bc f0bd
00000120: d802 9a3d 787a 3cbc 6c24 c93d 6d06 91bd
00000130: 4e4e 9fbd aabd dbbd a2c9 d4bd 9941 c4bd
00000140: bd8c 00be 520e a3bd 409b db3b dec3 c23d
00000150: 8061 c23a c426 653d 18ac b83c 60e3 5a3c
00000160: bc7c 413d 60f0 c23d be35 e23d c6fb 913d
00000170: 107b 283d 3a23 38bd fadc da3d 30c0 9e3d
00000180: f81c 983d 8e49 f93d f063 ee3d 506f 373c
00000190: 00ce 613d ae47 ae3d a7b1 fbbd 1560 dfbd
000001a0: d49c ae3d c0d8 ccbd 2420 f7bd bc14 e23d
000001b0: d41e debd 0e6e 96bd 1e95 923d 3e2e 52bd
000001c0: ac54 203d 286b a63d 5111 b1bd c6ae ec3d
000001d0: 01c6 9dbd 3979 9fbd 68a1 96bd 9c9d 0c3d
000001e0: f86f d83c 24ea 68bd d877 89bd e8db d63c
000001f0: 6402 bd3d dcbb 003d 5c02 89bd 2a5c b93d
00000200: 90a4 a93d c878 66bc a6d0 bf3d 5ca3 f13d
00000210: 5cd3 783d 90af 08bc 80ad c13b 36b1 893d
00000220: c4b6 90bc def7 79bd 55f2 ecbd 40bd 563d
00000230: 682a 43bd 1825 61bd acd0 103d d884 8e3c
00000240: 5411 cc3d a0ba b5bd 6eed bf3d bc3d 3fbd
00000250: 60e6 233d 0a22 c13d 94c7 e5bd ce57 8bbd
00000260: e8dc 10bc fe1c b03d a687 44bd 5463 be3d
00000270: a4a8 50bd b53c cbbd 58dc 64bd 80fb 903a
00000280: 767a acbd 96aa e8bd 1073 b0bc 0459 6f3d
00000290: ac20 5ebd c05a ad3c 7e99 fa3d f7fd a6bd
000002a0: 5039 a8bc 0c3d 63bd 2fe5 adbd f0ad 55bc
000002b0: a83e 993c 522b f93d 27f7 013e 00a1 fdbd
000002c0: 3088 873c f062 d3bd 6294 b4bd 901f f4bd
000002d0: 5813 5abd 883d 2e3d 0038 a938 be73 d3bd
000002e0: a00b 163c ecde b5bd 796e 03be 88fd 40bd
000002f0: 38d0 963c 9c2d b0bd 7634 cb3d 8872 8cbd
00000300: 441c 113d f802 883d d6b9 dcbd a218 bf3d
00000310: e5ce 01be 7013 983d 26f7 c53d 3b69 e6bd
00000320: c01b 14bd 5aef a63d 29a5 f8bd 1044 4c3d
00000330: 75d4 d7bd ba3e f0bd da12 893d 5e1e f1bd
00000340: dd69 edbd d84e ac3d 6e57 40bd 74e7 f43d
00000350: 34ab f13d 80d3 e5ba 107f 3e3d ec6b 203d
00000360: 0c67 82bc e7e9 03be 1881 06bd 74a8 843d
00000370: 1e70 a93d b0b8 b9bd 817b 003e 9e3f a33d
00000380: 1c21 15bd 3430 8d3d 421c a0bd 307b e63c
00000390: b8a5 ea3c 47c7 d1bd 6de0 f1bd ecee 7d3d
000003a0: 1206 cabd 0c99 de3d 281c d63d 7c9f 163d
000003b0: 8c4d c4bc 602d d43b 0403 63bd 0899 92bd
000003c0: 6e01 27bd ea46 b4bd 6896 873c 1cdc 6ebd
000003d0: 1aa7 16bd e0a1 843b 9fb3 023e 8860 ca3c
000003e0: 2ca0 6d3d a810 12bd 70e3 793c f49e b53d
000003f0: da3b fc3d 8863 12bd 14d4 a9bd 18e4 2bbd
-0.017316863 0.11323416 0.0014266521 -0.030856177 -0.07430588 0.07012017 -0.028092086 -0.023122437
-0.00553976 0.1221735 0.12847216 0.012264535 0.0060726404 -0.006410338 -0.11139825 -0.008930206
0.06233698 0.04947579 -0.07167296 -0.057272166 0.022158071 -0.12439803 -0.065967575 -0.054222576
-0.03649921 0.015997753 0.06000355 -0.07556869 0.00759165 0.08168769 0.047770277 0.059556887
0.11328259 0.0964244 -0.0006597787 -0.026727974 0.032255918 -0.03703616 -0.048318952 -0.12571
0.05234486 -0.099313125 -0.09757051 0.10077585 -0.11371778 -0.119775884 -0.12373534 -0.013814837
-0.10990135 0.03031005 -0.070165515 0.09829101 -0.122427724 -0.030090086 -0.12055786 -0.052580774
0.114549994 0.03804113 -0.006229505 -0.06470839 -0.10030678 0.022593826 -0.0027463734 0.05501455
0.0043381453 0.09921229 -0.042781286 0.019319206 0.06592053 -0.0035755634 -0.050900295 -0.11754741
0.07520074 -0.011503808 0.098214 -0.07081304 -0.07778607 -0.10729535 -0.10390021 -0.09582824
-0.12553687 -0.07961716 0.006701857 0.09510015 0.0014830083 0.055945173 0.022542998 0.0133598745
0.047238097 0.09518504 0.11045407 0.071281 0.041132987 -0.04495547 0.10686679 0.077515006
0.074274 0.121722326 0.11640155 0.011195973 0.055128098 0.085097656 -0.12289744 -0.10906998
0.08526006 -0.10002279 -0.12066677 0.11039111 -0.10845724 -0.0734521 0.07157348 -0.05131363
0.03914325 0.08125907 -0.08645881 0.11556773 -0.07703782 -0.07786793 -0.073550045 0.034329996
0.026420578 -0.05686392 -0.067123115 0.026227906 0.092289716 0.031429157 -0.06689903 0.09050782
0.08283341 -0.014066882 0.093659684 0.117987365 0.060748443 -0.008342639 0.0059105754 0.067232534
-0.017665274 -0.0610274 -0.11569659 0.052426577 -0.047647864 -0.054967016 0.035355255 0.01739733
0.099642426 -0.088734865 0.09371458 -0.046689734 0.040014625 0.094303206 -0.11219707 -0.06803857
-0.008841731 0.0859928 -0.047980927 0.09296289 -0.05094208 -0.09923688 -0.0558742 0.0011061281
-0.08421795 -0.11360662 -0.021539241 0.0584345 -0.054230377 0.021161437 0.122363076 -0.08153909
-0.020535141 -0.05547814 -0.08490979 -0.013041958 0.018706635 0.12166466 0.12691937 -0.12384224
0.016544431 -0.10321605 -0.08817364 -0.119200826 -0.053241104 0.04253915 8.068979e-05 -0.103248104
0.009158045 -0.088804096 -0.1283511 -0.047116786 0.018409833 -0.08602449 0.099221155 -0.068577826
0.035427347 0.06641191 -0.10777633 0.0933087 -0.1267658 0.074255824 0.096662804 -0.1125054
-0.036159277 0.081511214 -0.12140877 0.049869597 -0.1053857 -0.11730714 0.06693049 -0.1177337
-0.115924574 0.08413476 -0.04695838 0.11958209 0.118002325 -0.0017534345 0.046507895 0.039165422
-0.015918277 -0.12882195 -0.032837957 0.064774424 0.08273338 -0.090684295 0.12547113 0.079711184
-0.03640853 0.0689396 -0.0781789 0.028134912 0.028643474 -0.10243087 -0.11810384 0.06199543
-0.09864439 0.10869035 0.10454589 0.03677319 -0.023962758 0.0064751357 -0.055422798 -0.07158095
-0.040772848 -0.08802588 0.016551211 -0.05831538 -0.036780454 0.0040476173 0.12763833 0.024704233
0.05801408 -0.035660416 0.015251979 0.088682085 0.12316103 -0.03573945 -0.08292404 -0.041965574

decoder.6.bias f4 [122]
00000000: 000c bf3c 1c7e c03d 1a20 9d3d bf69 cbbd
00000010: 56e5 01bd a5a3 c9bd f02a f3bc 660d ab3d
00000020: b6e2 8bbd 5e28 c2bd 74af 10bd 8476 003d
00000030: b871 693d 603a dfbb c076 8dbc 90b7 b13c
00000040: b48a 173d 58e4 3b3d dc8a bcbc 0c2b e33d
00000050: 1226 df3d 662e 953d fa7b a1bd 7d5e c1bd
00000060: 10df 5fbc 3a71 803d 9068 9fbc cccb bcbc
00000070: bb23 03be 98c5 ecbd 8e80 933d 1025 d53c
00000080: 0c93 9bbd b400 b03d 9c14 2ebd 7212 b83d
00000090: 3a39 963d d24c ad3d 76c4 f73d 445e 503d
000000a0: b826 ae3d 6ca1 58bd 9081 dabd 8f7e afbd
000000b0: ba95 a1bd 3661 9fbd 7eef d53d f715 a0bd
000000c0: f0f2 5b3d d0be 1a3d 3a54 abbd 304f 6fbd
000000d0: 74a6 96bc 7e50 b1bd 84ad f2bd 065e 7fbd
000000e0: d0ef e63c 4041 4e3b 74b7 203d 0669 64bd
000000f0: 3d8a c9bd 78f1 f13d f8d6 3abc f40a 0f3d
00000100: 781a 443d 0447 e93d f8c2 df3c 40c8 6e3d
00000110: 7c8a 3a3d 00e8 753b ec4a a43d 288b b8bd
00000120: 007f 013d 3c1a 6d3d 1c3c e53d 70a5 f6bc
00000130: c998 fbbd f61f bcbd 9ec8 11bd 29e8 d5bd
00000140: e0b6 1f3d f0bb 8cbb 39c6 033e 4c65 023d
00000150: 7e42 b63d 00e0 2ab9 98fc e33d 4674 bb3d
00000160: 58d2 703d 1808 ad3c 8c68 d3bc 1e22 b4bd
00000170: 488b ed3c 0eb1 6dbd 3449 663d 84f9 91bc
00000180: f449 7f3d 7884 d1bd 9ac6 72bd a4c8 d8bd
00000190: f08f af3c a88b bb3d e022 1ebd 2edf d73d
000001a0: bc6f 2a3d d6e5 ef3d 4013 66bb 40f9 e4bc
000001b0: 06cb 75bd f66d 07bd c068 6c3b 33ec c3bd
000001c0: 6880 bb3c 8edb e8bd 6c81 243d 82df 4dbd
000001d0: dd55 f7bd 6638 9abd 80a3 e0bd 4ab2 983d
000001e0: 92b9 d23d bede 903d
0.023321152 0.093990535 0.076721385 -0.09932279 -0.031712852 -0.09845666 -0.02968356 0.08352165
-0.06830351 -0.09480356 -0.035323575 0.031363025 0.056993216 -0.0068123788 -0.017268538 0.021693975
0.036997512 0.045872062 -0.023015432 0.11092195 0.10895933 0.072842404 -0.07884975 -0.0944185
-0.013664022 0.06271596 -0.019459039 -0.023046397 -0.12806599 -0.115611255 0.07202254 0.02601865
-0.07596406 0.08593884 -0.042500123 0.08987893 0.07335134 0.08461918 0.12098019 0.05087115
0.08503479 -0.05288832 -0.10669243 -0.08569061 -0.07889886 -0.077822134 0.1044607 -0.078166895
0.05369848 0.03777963 -0.08365674 -0.05842513 -0.018389918 -0.08657931 -0.11849502 -0.062345527
0.028190523 0.0031471997 0.039237455 -0.05576422 -0.0984082 0.11813635 -0.011403792 0.034922555
0.047876805 0.11390498 0.027314648 0.058296442 0.045542225 0.0037522316 0.08022103 -0.09010917
0.031615257 0.057886347 0.111931056 -0.030108184 -0.12285001 -0.091857836 -0.035591714 -0.10444672
0.038992763 -0.004294865 0.12868585 0.031834885 0.08899401 -0.0001629591 0.11132163 0.09153037
0.05879435 0.021122023 -0.025806688 -0.0879557 0.028997079 -0.05803018 0.056222156 -0.017819174
0.062326387 -0.102303445 -0.059271432 -0.10585144 0.02143094 0.09157497 -0.03860748 0.10540615
0.041610464 0.117137596 -0.0035106689 -0.027950883 -0.06000807 -0.03306385 0.0036073178 -0.09566536
0.022888377 -0.11370002 0.04016249 -0.05026198 -0.12076924 -0.075302884 -0.10968685 0.07455881
0.10289301 0.07073735

estimation.0.weight f4 [10, 3]
00000000: fc5a bfbd e06c a0bd 9803 c6be 92a0 c23e
00000010: ed0f 04bf a413 0b3f dc8a 6dbe 6864 d7bd
00000020: 305b fdbe 02f9 52be 1663 973e 2f19 c6be
00000030: 6019 a03e c015 82bd b80c d3bd c716 0ebf
00000040: 0c4f 64be 526c f4be 34b0 0a3e 0085 733b
00000050: 27f7 0ebf 9c8a 273e e0f4 f03c b545 11bf
00000060: c0ef 55bc 406d 6e3c 0843 f33e 2001 23be
00000070: ae67 e6be 6ccb 62be
-0.09343526 -0.07833266 -0.38674617 0.3801313 -0.515868 0.54326844 -0.23197502 -0.10517198
-0.49483633 -0.20602801 0.29567784 -0.3869109 0.3126936 -0.06351805 -0.1030516 -0.55503505
-0.22295779 -0.47738892 0.13543779 0.0037158132 -0.55845875 0.16361469 0.02941364 -0.5674699
-0.013057649 0.014552414 0.47512078 -0.15918398 -0.45000976 -0.22147912

estimation.0.bias f4 [10]
00000000: 286f 17be e4e8 d63e bc2b 873e e852 513e
00000010: ec26 4a3e 70f5 873e d8ef 713e 26ad 063f
00000020: 90d5 d43d d05c 7abd
-0.14788496 0.41974556 0.26400554 0.20441782 0.1974141 0.2655444 0.2362665 0.52607954
0.10392296 -0.06112367

estimation.3.weight f4 [4, 10]
00000000: 9a54 04be 1fb6 7abe d527 1dbe f8b0 343d
00000010: 39a0 9e3e 7023 c53c 1d63 943e b275 46be
00000020: 4302 07be 385c c83d 2c31 1fbe 48b3 9bbd
00000030: 3e61 5dbe 6571 8e3e 44d1 b8bd 4ba7 27be
00000040: c087 ff3d 4cb3 e63d 78c7 3f3d 1a21 7a3e
00000050: 4235 543e 206d 12bd 0ec9 fdbd 62c6 09be
00000060: 0f85 8a3e 0ac5 523e a04a ee3c 2e7b 36be
00000070: 72c9 7f3e b853 54bd 5edd a0be d48b 2fbe
00000080: 4025 023e 7aaa 443e 464e 7c3e b4b5 a33d
00000090: a093 74bd c8b6 0abd 0aa1 063e 0086 debb
-0.12922898 -0.24483536 -0.15347226 0.044114083 0.30981615 0.02406475 0.28981867 -0.19380835
-0.13184457 0.09783214 -0.15546101 -0.076025546 -0.21619126 0.27820888 -0.09024289 -0.16372411
0.12477064 0.11264667 0.046821088 0.2442669 0.20723441 -0.0357486 -0.12391864 -0.13454583
0.2705464 0.20582977 0.029088318 -0.17820427 0.24979189 -0.051837653 -0.3141889 -0.17143184
0.12709522 0.19205657 0.24639234 0.079936415 -0.0597111 -0.03386572 0.13147369 -0.0067908764

estimation.3.bias f4 [4]
00000000: 8875 2e3d 7013 89bd 50d1 07bd 2a02 653e
0.042592555 -0.066931605 -0.0331586 0.22364107
