dagmm/models/42_194_dagmm.pth (torch_old, 78874 bytes, 22 tensors)

phi f4 [4]
0	0x3e94d25f	0.2906675
1	0x3e89e772	0.2693439
2	0x3ea411fc	0.3204497
3	0x3df4d0c8	0.11953884

mu f4 [4, 3]
0	0xbe08cdae	-0.1335971
1	0x3f84f3a8	1.0386858
2	0x3dd3c5ce	0.103404626
3	0xbe08d368	-0.13361895
4	0x3f84eebf	1.038536
5	0x3dd491d0	0.10379374
6	0xbe08bcee	-0.13353321
7	0x3f84ebc8	1.0384455
8	0x3dd4f7ff	0.10398864
9	0xbe086787	-0.13320743
10	0x3f84f601	1.0387574
11	0x3dd3a7ad	0.10334716

cov f4 [4, 3, 3]
0	0x3a48eca9	0.00076646596
1	0x39c929bf	0.0003836881
2	0xba1f660f	-0.00060805766
3	0x39c929bf	0.0003836881
4	0x398f7de2	0.00027368875
5	0xba099056	-0.0005247643
6	0xba1f660f	-0.00060805766
7	0xba099056	-0.0005247643
8	0x3a957183	0.0011401627
9	0x3a4829e7	0.00076356385
10	0x39c51305	0.0003758894
11	0xba1a41b4	-0.00058844243
12	0x39c51305	0.0003758894
13	0x3989bfee	0.00026273675
14	0xba026f73	-0.00049757137
15	0xba1a41b4	-0.00058844243
16	0xba026f73	-0.00049757137
17	0x3a8bbdf3	0.0010661468
18	0x3a48d4fe	0.0007661133
19	0x39c2fe69	0.00037192114
20	0xba1841e9	-0.0005808161
21	0x39c2fe69	0.00037192114
22	0x39877e4f	0.00025843314
23	0xba014afa	-0.0004932132
24	0xba1841e9	-0.0005808161
25	0xba014afa	-0.0004932132
26	0x3a8bed4c	0.0010675578
27	0x3a4c1f40	0.0007786639
28	0x39ca146f	0.00038543667
29	0xba202707	-0.0006109331
30	0x39ca146f	0.00038543667
31	0x398e1e1f	0.00027106793
32	0xba082e09	-0.0005194848
33	0xba202707	-0.0006109331
34	0xba082e09	-0.0005194848
35	0x3a93b6a0	0.0011269636

encoder.0.weight f4 [60, 118]
0	0xbdbbaab9	-0.09163422
1	0x3d9c888f	0.07643234
2	0xbdb10ea0	-0.086453676
3	0x3d0e7172	0.03477616
4	0x3d1268ae	0.03574436
5	0xbda50652	-0.08057846
6	0xbb4ea640	-0.0031532198
7	0x3c8aa1d0	0.016922861
8	0x3db5b713	0.08872809
9	0x3dacc427	0.084358506
10	0xbdab99df	-0.08378958
11	0x3d764886	0.060127757
12	0xbd26ee01	-0.040754322
13	0x3caab528	0.020838335
14	0x3d9ba1f1	0.07599247
15	0xbba4b350	-0.0050262585
16	0xbd92ae28	-0.07162124
17	0x3d11b91a	0.035576917
18	0xbd8c73a3	-0.068579935
19	0xbdaf8017	-0.08569353
20	0xbd0744c8	-0.03302458
21	0xbd0f6c38	-0.035015315
22	0x3af8f380	0.0018993467
23	0x3d1b1af6	0.03786751
24	0xbd372485	-0.044712562
25	0xbd85b4e2	-0.06528641
26	0xbc24eaf8	-0.010065787
27	0xbce54658	-0.027987644
28	0x3d025fd6	0.031829678
29	0x3d609826	0.0548326
30	0x3c154040	0.009109557
31	0x3d418a26	0.04725089
32	0xbb2a8400	-0.002601862
33	0xbce53d68	-0.027983382
34	0x3d288236	0.041139804
35	0xbc88ab78	-0.016683325
36	0x3d7631ce	0.06010609
37	0xbd83acb0	-0.06429422
38	0xbcc36774	-0.023853041
39	0xbb85c8a0	-0.0040827543
40	0x3d829253	0.063755654
41	0x3d4cff5e	0.050048225
42	0x3dba45e9	0.090953656
43	0xbd38705a	-0.04502902
44	0xbd4f75e5	-0.050649542
45	0xbc3837b0	-0.011243746
46	0x3d019cca	0.031643666
47	0xbb29a160	-0.002588354
48	0x3d3a84fa	0.045536973
49	0x3d7ca92a	0.061684765
50	0xbd36372f	-0.04448622
51	0xbc7c72a0	-0.015408188
52	0xbccbcdd0	-0.024878412
53	0x3c1a64e0	0.009423465
54	0xbd80cd72	-0.062891856
55	0x3d1ec9aa	0.03876654
56	0x3d9ed841	0.07756091
57	0x3d57bc4a	0.0526698
58	0xbcb17bf4	-0.02166555
59	0x3d6b69a2	0.057473786
60	0xbdb27ca4	-0.087151796
61	0xbd1550d9	-0.036454055
62	0xbb899ee0	-0.0041998476
63	0x3dba5873	0.090989016
64	0xbcb902a4	-0.022584267
65	0xbb3fd440	-0.0029270798
66	0xbc411450	-0.011784628
67	0x3da69ad7	0.08135002
68	0xbc1959f0	-0.009359822
69	0xbd369bfc	-0.044582352
70	0xbba43b30	-0.0050119385
71	0xbdb1e0f0	-0.086854815
72	0x3cbcc4c0	0.023043036
73	0x3ccc6a1c	0.02495294
74	0x3d4e401a	0.0503541
75	0xbdb20937	-0.08693164
76	0xbdaa49ed	-0.083148815
77	0x3d0771a2	0.033067353
78	0x3c469620	0.0121207535
79	0xbda55b4d	-0.08074055
80	0x3d7ab78e	0.061210208
81	0x3d6bd9c2	0.057580717
82	0x3ba31e10	0.004977949
83	0xbd48ee7f	-0.049055573
84	0xbd245c91	-0.04012734
85	0x3d7393f2	0.059467264
86	0x3cef2c20	0.029195845
87	0xbd8ae12a	-0.06781228
88	0x3d9e7063	0.0773628
89	0x3d14f1be	0.036363356
90	0x3cd21d54	0.02564875
91	0xbd9cefe5	-0.07662944
92	0x3cfa0dec	0.030524217
93	0xbd76f96b	-0.060296457
94	0x3d84a509	0.064767905
95	0xbd5a4c55	-0.053295452
96	0x3bb71460	0.0055871457
97	0x3d2a333a	0.04155276
98	0x3c884528	0.016634539
99	0xbd885a9a	-0.06657906
100	0xbd4e6b0e	-0.050395064
101	0x3d39b56a	0.045339026
102	0x3d5cbf6a	0.053893484
103	0xbd05a43c	-0.03262733
104	0x3d84069b	0.064465724
105	0x3b0a1700	0.0021070838
106	0x3db9034f	0.09033834
107	0x3d8f2b91	0.069907315
108	0xbd87c63a	-0.066296056
109	0xbd8f47ed	-0.06996141
110	0xbd277a06	-0.040887855
111	0x3d4af156	0.049546562
112	0xbca4e4a0	-0.020128548
113	0xbdba4d1a	-0.09096737
114	0x3da13bb9	0.07872719
115	0xbd09913d	-0.033585776
116	0x3d985321	0.074377306
117	0xbb44b640	-0.0030015856
118	0x3d7b462e	0.061346225
119	0x3d1c481a	0.0381547
120	0xbdafc380	-0.085822105
121	0xbda65a9f	-0.08122753
122	0x3cd03be0	0.025419176
123	0x3d0a7b76	0.033809148
124	0xbc14e9c8	-0.009088941
125	0xbc22e790	-0.009942904
126	0x3ce6e5c4	0.028185733
127	0x3caa0d2c	0.020758234
128	0x3d122b96	0.035686098
129	0x3d713bca	0.05889491
130	0xbd82aa34	-0.0638012
131	0xbd6d5828	-0.0579454
132	0x3cad84f8	0.021181569
133	0x3d562dfa	0.05228994
134	0xbd3e804a	-0.046509065
135	0xbd32b70a	-0.04363159
136	0xbc7b2440	-0.015328467
137	0x3db07071	0.086151965
138	0xbc17ad18	-0.009257577
139	0xbd52c1f2	-0.051454492
140	0xbd771f1b	-0.0603324
141	0x3d3a3c62	0.04546774
142	0x3d05aad4	0.032633618
143	0x3d431a32	0.047632404
144	0xbd876a3e	-0.06612061
145	0x3da4b013	0.08041396
146	0xbd353015	-0.044235308
147	0xbcab4b9c	-0.020910077
148	0x3cad66fc	0.02116727
149	0xbda940cd	-0.08264313
150	0x3d9b442d	0.07581363
151	0xbd839101	-0.06424142
152	0x3cba3ad4	0.02273313
153	0x3da61dc5	0.08111147
154	0xbd66514c	-0.056229874
155	0x3d38fada	0.045161106
156	0xbd92f649	-0.071758814
157	0x3d8dc75b	0.0692279
158	0x3d24759a	0.040151216
159	0xbc5204a0	-0.0128184855
160	0xbd84ce8f	-0.064847104
161	0xbdb46c16	-0.08809678
162	0x3c74e890	0.014948025
163	0x3d1127e2	0.035438426
164	0x3c244678	0.010026567
165	0xbd745869	-0.059654627
166	0xbd63bd91	-0.055600706
167	0xbd9a5238	-0.07535213
168	0xbd346117	-0.044037905
169	0x3d7743c2	0.060367353
170	0xbc7bd468	-0.015370466
171	0xbd22a143	-0.039704572
172	0x3d70ecea	0.05881969
173	0x3d671506	0.056416534
174	0x3d805d2f	0.06267773
175	0xbd9e1810	-0.07719433
176	0x3ce0c620	0.027438223
177	0xbb62f720	-0.0034632161
178	0x3d53a3fe	0.051670067
179	0xbd9afbfd	-0.07567594
180	0xbd9738a7	-0.073838525
181	0x3c245308	0.010029562
182	0x3d613d66	0.054990195
183	0x3d4d2706	0.050086044
184	0x3d75a262	0.059969313
185	0xbd8b3b14	-0.06798378
186	0x3cc74bc8	0.024328128
187	0x3be1ac70	0.006887011
188	0xbd874c39	-0.06606335
189	0x3b298840	0.0025868565
190	0xbd060cde	-0.032727115
191	0x3d0208ce	0.031746678
192	0xbcc0e5e8	-0.023547128
193	0xbacd2b80	-0.0015653223
194	0xbdb89d3b	-0.09014364
195	0x3d5e2dde	0.05424296
196	0xbd30a050	-0.043121636
197	0xbd996508	-0.07489973
198	0xbca3e0dc	-0.020004682
199	0x3d1a2866	0.037636183
200	0xbcf5ca50	-0.030003697
201	0x3d42cfe6	0.04756155
202	0x3d9d7223	0.076877855
203	0x3ca5a0f8	0.020218357
204	0xbc1df830	-0.009641692
205	0x3d39ad8a	0.045331515
206	0x3d209472	0.03920407
207	0xbc5e0e40	-0.013553202
208	0x3d0201ea	0.031740107
209	0xbb96bdd0	-0.004600264
210	0x3cfe518c	0.031044744
211	0x3c5a1170	0.0133098215
212	0x3bccca90	0.0062497333
213	0xba936700	-0.0011245906
214	0xbda41031	-0.08010901
215	0xbdb73abd	-0.0894675
216	0xbd51f3c8	-0.05125788
217	0xbd894bf2	-0.067039385
218	0x3d54f482	0.051990993
219	0xbc6baee0	-0.014384955
220	0xbd1de701	-0.03855038
221	0x3c4cf378	0.012509219
222	0xbd4b9772	-0.049704976
223	0x3d2cbb32	0.04217071
224	0x3dab3bef	0.08361041
225	0xbd861942	-0.06547786
226	0x3d896595	0.06708828
227	0x3d569156	0.052384697
228	0x3d87a633	0.06623497
229	0x3c614630	0.013749644
230	0x3c86cf94	0.016456403
231	0x3d7f7b36	0.062373362
232	0x3d4615ba	0.048360564
233	0x3a97fe80	0.0011596233
234	0x3dabc3dd	0.08386967
235	0x3cd8d0bc	0.02646672
236	0x3d6130ee	0.054978304
237	0x3c4eba88	0.012617715
238	0xbc5b4c20	-0.013384849
239	0xbb25b300	-0.0025283694
240	0xbd051fbe	-0.032500975
241	0x3d9d514d	0.076815225
242	0x3dacc6c5	0.0843635
243	0xbd67d67b	-0.05660103
244	0x3c0eaa80	0.008707643
245	0xbd59d1c8	-0.05317858
246	0x3d4a997a	0.049462773
247	0xbd317b7a	-0.043330647
248	0x3ca6da28	0.020367697
249	0x3b5e9000	0.0033960342
250	0x3cb6cc20	0.022314131
251	0x3c6137b0	0.013746187
252	0x3d910507	0.07081037
253	0xbcc6e45c	-0.024278812
254	0xbc11b8b8	-0.008894138
255	0xbd52a548	-0.051427156

encoder.0.bias f4 [60]
0	0x3d63bad6	0.055598103
1	0xbcd3e8dc	-0.025867872
2	0x3db3fbc9	0.087882586
3	0xbb866790	-0.004101701
4	0x3da61aff	0.08110618
5	0x3d88133b	0.06644293
6	0x3d96ce8b	0.07363614
7	0xbd6b9e68	-0.057524115
8	0xba90dc00	-0.0011051893
9	0xbdaef119	-0.085420795
10	0xbcdc743c	-0.026910894
11	0xbbc664f0	-0.006054513
12	0xbdafcfda	-0.085845664
13	0xbcd51e6c	-0.026015483
14	0x3d4fcf16	0.050734602
15	0xbcb2a7b4	-0.021808483
16	0xbcf6eea4	-0.03014309
17	0xbdb9ab2c	-0.090658516
18	0xbd6771e8	-0.056505114
19	0xbd31eaa6	-0.04343667
20	0x3d02d75c	0.031943664
21	0xbda58f62	-0.08083989
22	0xbd3f899a	-0.046762086
23	0xbdb11275	-0.086460985
24	0x3d503652	0.050833054
25	0x3bf44850	0.0074549094
26	0xbc7d0720	-0.015443593
27	0xbd8427ef	-0.06452929
28	0x3cd88138	0.026428804
29	0x3d027bc0	0.0318563
30	0x3d52bd12	0.051449843
31	0xbdab206d	-0.08355794
32	0xbc4fe300	-0.012688398
33	0x3d73acea	0.059491076
34	0x3c8f6b58	0.01750724
35	0xbd5aa96d	-0.053384233
36	0x3d682b66	0.056682013
37	0xbd5f2aa4	-0.054484025
38	0x3c83adec	0.016074143
39	0xbbc85f40	-0.0061148703
40	0x3dba1bdb	0.09087344
41	0x3d2e5ea6	0.042570733
42	0xbcb7e040	-0.022445798
43	0x3d1c97aa	0.038230576
44	0x3bd69510	0.0065485314
45	0xbb36a260	-0.002786778
46	0xbceea7d8	-0.029132769
47	0x3c98f014	0.018669166
48	0x3cfd0714	0.030887164
49	0xbc8b8ac8	-0.01703395
50	0xbd81bd74	-0.063349634
51	0xbc8b5518	-0.01700835
52	0xbcdf28e8	-0.027241185
53	0xbda13f7c	-0.07873437
54	0xbc97e708	-0.018542781
55	0xbda41b14	-0.08012977
56	0x3d7d7072	0.061874814
57	0xbd2d0050	-0.042236626
58	0xbb677fe0	-0.0035324022
59	0x3cab6a74	0.020924784

encoder.2.weight f4 [30, 60]
0	0xbde8b349	-0.11362321
1	0x39831000	0.00024998188
2	0xbd5aa000	-0.053375244
3	0x3ca1f5c8	0.019770518
4	0xbe02c8c9	-0.12771906
5	0xbcd757a0	-0.0262869
6	0xbda7250d	-0.08161364
7	0xbe01f37e	-0.12690541
8	0x3dbb8aba	0.09157319
9	0xbdba96ac	-0.0911077
10	0x3b3c6ec0	0.0028752536
11	0x3d7eb6e8	0.06218615
12	0xbdc66904	-0.09687999
13	0xbdf4866a	-0.119397
14	0xbdcb2488	-0.09919077
15	0x3ccea090	0.025223047
16	0x3cdda4d8	0.027056143
17	0x3da7d0dc	0.08194134
18	0x3cbcaba0	0.023031056
19	0xbd9ab2f3	-0.07553663
20	0xbd8418d3	-0.06450047
21	0xbde1d89b	-0.11027642
22	0x3d8b4f9e	0.06802295
23	0x3d59f6b0	0.053213775
24	0xbda328a2	-0.079667345
25	0x3d9c65c6	0.07636599
26	0x3d373ed8	0.044737667
27	0xbd340d16	-0.043957792
28	0x3de0de54	0.10979906
29	0x3d59f474	0.053211644
30	0x3d8de768	0.06928903
31	0xbd4fde00	-0.050748825
32	0xbca733dc	-0.02041047
33	0x3d91bfc2	0.07116653
34	0xbdddeac4	-0.108357936
35	0x3ddce8d8	0.10786599
36	0x3dbf9dd8	0.09356278
37	0x3d147380	0.036242962
38	0x3cbba0e0	0.02290386
39	0x3db55686	0.08854394
40	0x3dd740a8	0.10510379
41	0x3d3d906c	0.04628031
42	0xbdc514c0	-0.096230984
43	0x3d1c99b0	0.038232505
44	0x3de52390	0.11188424
45	0x3d71fb80	0.05907774
46	0xbd9d732e	-0.076879844
47	0xbd49a03c	-0.049225077
48	0xbd932173	-0.07184114
49	0x39350c00	0.00017265975
50	0x3dbf6be8	0.09346753
51	0x3dc1f314	0.094701916
52	0xbcd8ab9c	-0.026449017
53	0xbc4f7a18	-0.012663387
54	0xbde1eac6	-0.110311076
55	0xbd9c21ec	-0.076236576
56	0x3d04c4b0	0.03241414
57	0x3c891ce8	0.016737416
58	0xbdccce81	-0.10000325
59	0x3da1b63a	0.07896085
60	0x3cb894d0	0.022531897
61	0xbda53000	-0.08065796
62	0x3de0b908	0.10972792
63	0x3c01fe30	0.007934138
64	0xbd1f8998	-0.03894958
65	0x3db2a036	0.08721964
66	0xbd715b94	-0.058925226
67	0x3cee7cf8	0.029112324
68	0xbd0a3a76	-0.03374716
69	0x3d53ef00	0.0517416
70	0x3e018eed	0.12652178
71	0x3ca56148	0.020187989
72	0x3d0abbfc	0.033870682
73	0xbcf2da18	-0.02964501
74	0xbd3a4740	-0.045478106
75	0xbdff2f8c	-0.12460241
76	0xbda5f40a	-0.081031874
77	0x3dabdfba	0.08392282
78	0xbb3a6c00	-0.002844572
79	0xbc97dad8	-0.01853697
80	0xbcd8f4d8	-0.026483938
81	0x3d65ce8c	0.05610518
82	0x3cdebfe0	0.027191103
83	0x3dc3c714	0.095594555
84	0x3dbf61b4	0.09344807
85	0x3db29e92	0.08721651
86	0xbd1daf34	-0.038497165
87	0x3c4502a0	0.012024552
88	0xbd943280	-0.072361946
89	0x3d3f8f5c	0.046767578
90	0x3d4a5860	0.049400687
91	0xbd987fa6	-0.07446222
92	0x3da9cb76	0.0829076
93	0x3dd71e38	0.10503811
94	0xbdc172f3	-0.09445753
95	0x3d9f54ea	0.07779868
96	0x3d5c59b0	0.05379647
97	0x3c495750	0.012288883
98	0x3dfd6de6	0.12374477
99	0x3df88c0e	0.12136088
100	0xbd0a841e	-0.033817403
101	0x3cc98e38	0.024603948
102	0x3d6efbe8	0.058345705
103	0x3db3dcd8	0.08782357
104	0xbdcd3f9e	-0.100219
105	0x3d5546b0	0.052069366
106	0xbdcd9c8e	-0.10039626
107	0x3dc097a8	0.09403926
108	0x3e028c6f	0.12748884
109	0x3d81a0e2	0.06329514
110	0x3cffd078	0.031227335
111	0xbc197508	-0.009366281
112	0xbd0bbae4	-0.03411378
113	0x3df043a2	0.1173165
114	0xbda28d8d	-0.07937155
115	0x3dae8b6e	0.08522688
116	0xbdbd0060	-0.09228587
117	0x3ddb1266	0.106968686
118	0xbd9a4bb2	-0.07533969
119	0xbdc27850	-0.09495604
120	0xbe018a3a	-0.12650385
121	0xbc45eb68	-0.012080051
122	0xbda735f0	-0.08164585
123	0xbe03d5e1	-0.12874557
124	0xbdeafdc8	-0.11474186
125	0x3e037c19	0.12840308
126	0x3d6b3710	0.05742556
127	0x3d785908	0.06063178
128	0x3d91ee60	0.071255445
129	0xbcfdc824	-0.030979224
130	0x3d266908	0.04062751
131	0x3dfd623a	0.12372251
132	0xbcfee6cc	-0.031115912
133	0xbddd50a4	-0.108063966
134	0xbc5118d0	-0.012762263
135	0xbdb3374e	-0.08750783
136	0xbde01a1b	-0.10942479
137	0x3d9e12ee	0.07718454
138	0x3d549074	0.051895574
139	0x3c966488	0.018358484
140	0xbd9ddd4a	-0.07708223
141	0x3dc62eb2	0.09676875
142	0x3d0c3794	0.03423269
143	0xbc0d63c0	-0.008629739
144	0x3df5124a	0.11966379
145	0x3d885922	0.06657626
146	0x3dd4afe2	0.103851095
147	0xbdd4a1b1	-0.10382403
148	0xbdc7c6ae	-0.09754692
149	0x3dc3d48e	0.09562026
150	0x3d075010	0.033035338
151	0xbd7b0544	-0.06128432
152	0x3bb06340	0.0053829253
153	0xbd99c393	-0.07508006
154	0x3c423980	0.011854529
155	0xbd4a1512	-0.0493365
156	0x3de52354	0.11188379
157	0xbd51c0f6	-0.051209413
158	0x3c462dd0	0.0120958835
159	0x3d36ebec	0.044658586
160	0xbda6c192	-0.08142389
161	0xbdbb6576	-0.091502115
162	0xbddf02f8	-0.10889238
163	0x3d430190	0.047608912
164	0xbdf31f6e	-0.11871229
165	0x3df3df14	0.11907783
166	0x3d523748	0.05132225
167	0xbd98f799	-0.074691005
168	0xbd7108be	-0.058846228
169	0x3debef6c	0.115202755
170	0x3d7d242c	0.061802074
171	0xbd2fefdc	-0.042953357
172	0x3db9da2e	0.090748176
173	0x3db83c06	0.089958236
174	0x3e03655f	0.12831639
175	0xbdd153b0	-0.1022104
176	0xbd307bea	-0.043086924
177	0xbd3ca574	-0.046056226
178	0xbd9c69a7	-0.07637339
179	0xbd833d84	-0.064082175
180	0xbdb39339	-0.08768315
181	0x3dee1704	0.11625484
182	0xbca6c950	-0.020359665
183	0x3c134170	0.0089877695
184	0x3ccf49e0	0.025303781
185	0xbd32f11e	-0.04368698
186	0xbd559796	-0.052146517
187	0x3dfaadde	0.12240194
188	0xbd88abd6	-0.066734
189	0x3d874304	0.06604579
190	0xbde34422	-0.1109698
191	0x3c35cd80	0.011096358
192	0x3ad7b180	0.0016456097
193	0xbde4fbf8	-0.11180872
194	0xbcd93c24	-0.026517935
195	0xbd96d2e6	-0.073644444
196	0xbd75fa84	-0.060053363
197	0xbba19040	-0.004930526
198	0x3d9ad2c8	0.075597346
199	0xbe0331cd	-0.12811966
200	0xbcc4bbcc	-0.02401533
201	0x3dc19212	0.09451689
202	0x3dc63e84	0.09679893
203	0xbd8fb486	-0.07016854
204	0x3c31bae0	0.010847777
205	0x3cb5a690	0.02217415
206	0x3d167688	0.036734134
207	0xbe000d70	-0.12505126
208	0xbcb02dac	-0.021506153
209	0x3c1a93a0	0.009434611
210	0x3a082500	0.0005193502
211	0x3db3f774	0.08787432
212	0x3d68e8b8	0.056862563
213	0x3dc367be	0.095412716
214	0x3d4c9cf4	0.04995437
215	0x3bc9c5a0	0.006157592
216	0xb7f88000	-2.9623508e-05
217	0x3c4d0780	0.012513995
218	0xbb1f5ac0	-0.0024315566
219	0xbdc47892	-0.095933095
220	0x3c03d080	0.008045316
221	0x3c84a620	0.016192496
222	0x3cf31c90	0.029676706
223	0x3dcaea5c	0.09907982
224	0x3dc13228	0.09433395
225	0x3d8704e0	0.06592727
226	0x3df47526	0.11936407
227	0x3c91f4c8	0.017816916
228	0xbd863100	-0.06552315
229	0xbe00348d	-0.12520047
230	0x3dc21716	0.094770595
231	0x3d787970	0.060662687
232	0x3d082ac4	0.03324391
233	0x3dea7172	0.11447419
234	0xbc364720	-0.011125356
235	0x3d6a35ac	0.05718009
236	0x3dcf6b96	0.10127942
237	0xbcec3cdc	-0.028837614
238	0xbd09c446	-0.033634447
239	0xbdd0b1d4	-0.10190168
240	0x3cdd1c80	0.026991129
241	0x3c80f990	0.015744
242	0xbdf30ea2	-0.11868025
243	0xbde96842	-0.11396839
244	0x3d7c9090	0.061661303
245	0x3d97d6e4	0.07414034
246	0xbced68e4	-0.02898068
247	0x3d82242c	0.063545555
248	0xbc848834	-0.016178228
249	0xbd04a762	-0.03238619
250	0xbd260854	-0.040535286
251	0xbc762438	-0.015023284
252	0x3cd38650	0.025820881
253	0x3d476a98	0.04868564
254	0xbc9f50a4	-0.019447632
255	0x3d0b670c	0.03403382

encoder.2.bias f4 [30]
0	0x3d8fc32c	0.07019648
1	0x3dbfbbc8	0.09361988
2	0x3d89a1a2	0.06720282
3	0xbcc37978	-0.023861632
4	0x3c23e590	0.010003462
5	0x3da464fe	0.08027075
6	0xbd96d0c7	-0.0736404
7	0xbc0c35c8	-0.008557744
8	0x3ba01680	0.0048854947
9	0x3beb7a00	0.0071861744
10	0x3dbfbc00	0.0936203
11	0xbd887c33	-0.06664314
12	0x3d8d2932	0.06892623
13	0xbde4e45c	-0.111763686
14	0x3dfdc096	0.123902485
15	0x3d9c64c2	0.076364055
16	0x3dc07532	0.09397353
17	0xbdd8415e	-0.10559343
18	0x3d3d22dc	0.046175823
19	0xbdfb40a9	-0.12268192
20	0x3c174480	0.00923264
21	0xbde284a1	-0.11060453
22	0x3da89c98	0.08232993
23	0x3d3a79d8	0.045526356
24	0x3d42f618	0.047597975
25	0xbdde8073	-0.108643435
26	0xbc5b0078	-0.013366811
27	0x3d704590	0.05866009
28	0xbdcdce29	-0.100490876
29	0xbd81f26f	-0.06345069

encoder.4.weight f4 [10, 30]
0	0x3db70d30	0.08938062
1	0xbd26c47c	-0.040714726
2	0x3d56e2ec	0.052462503
3	0x3dc3d1cc	0.095615
4	0xbcc65298	-0.024209306
5	0xbdde92f0	-0.1086787
6	0x3ddd3834	0.108017355
7	0xbdfd4040	-0.1236577
8	0xbd98600f	-0.07440197
9	0xbd3c58a0	-0.045982957
10	0xbdc87435	-0.0978779
11	0x3c0bc320	0.008530408
12	0xbd04c230	-0.032411754
13	0xbddd0b83	-0.10793211
14	0xbe2b5cb8	-0.16734588
15	0xbddb32bf	-0.107030384
16	0xbe300248	-0.1718837
17	0x3de001d0	0.10937846
18	0x3d086728	0.033301502
19	0x3e344110	0.17602944
20	0x3e126198	0.14295042
21	0x3db7d844	0.08976796
22	0xbdba70a2	-0.09103514
23	0x3e209384	0.15681273
24	0xbe018d36	-0.12651524
25	0x3e2f021a	0.17090645
26	0x3dfb5c90	0.12273514
27	0x3de66640	0.112499714
28	0x3d593978	0.053033322
29	0xbd49f450	-0.04930526
30	0xbe0cd0c4	-0.13751513
31	0x3b17a940	0.0023141652
32	0xbd5a34ec	-0.053273126
33	0x3d2edaf0	0.042689264
34	0xbdc6f57f	-0.097147934
35	0xbe255c50	-0.16148496
36	0xbe229bd5	-0.15879758
37	0x3e1e77d2	0.15475395
38	0xbba108c0	-0.004914373
39	0xbc7f2cc0	-0.015574634
40	0xbd437f78	-0.047728986
41	0x3e2d2e4a	0.16912189
42	0x3b41ff80	0.0029601753
43	0xbd1dc4b4	-0.03851767
44	0x3d821f84	0.063536674
45	0xbc12cc70	-0.0089598745
46	0x3cf526c8	0.029925719
47	0xbe295ca8	-0.16539252
48	0xbe384fbe	-0.17999169
49	0x3e1e9416	0.15486178
50	0xbdd7b295	-0.10532109
51	0xbde09f39	-0.10967869
52	0x3dee499c	0.116351336
53	0xbca60b70	-0.020269126
54	0xbdcc0464	-0.09961775
55	0xbe2281d2	-0.15869835
56	0xbd8226d2	-0.06355061
57	0x3e0b2eea	0.13592115
58	0x3d0ba4d8	0.034092754
59	0xbddece78	-0.108792245
60	0x3d594cf0	0.05305189
61	0x3cd29a08	0.025708213
62	0xbd82b883	-0.06382849
63	0x3d94dc44	0.07268575
64	0x3e0dad2a	0.13835588
65	0x3df10140	0.117678165
66	0x3e359382	0.17732051
67	0xbe38bf0a	-0.18041626
68	0xbdfeab7c	-0.12435052
69	0xbd07ac70	-0.033123434
70	0xbdc59cfd	-0.09649084
71	0x3da34554	0.07972208
72	0x3e298390	0.16554093
73	0xbc75bfa0	-0.0149993
74	0x3e0767b8	0.1322316
75	0x3e0ee826	0.13955745
76	0xbe3354f4	-0.17512876
77	0x3ac76e80	0.0015215427
78	0xbe2f5299	-0.17121352
79	0x3d4f238c	0.05057101
80	0x3d618b8c	0.055064723
81	0xbdb7f5c7	-0.08982425
82	0xbdf6cbb8	-0.12050575
83	0x3daac334	0.08338013
84	0xbdff7248	-0.12472969
85	0x3d7da88c	0.061928317
86	0xbd03fedc	-0.032225475
87	0xbc2971e0	-0.010342091
88	0x3d1db1a8	0.038499504
89	0x3d776cc8	0.060406476
90	0x3dd28b84	0.10280517
91	0xbdb39347	-0.08768325
92	0xbd1084c8	-0.03528288
93	0x3e155670	0.14583755
94	0x3d030198	0.03198394
95	0x3e2e8634	0.17043382
96	0x3bb7cc80	0.005609095
97	0xbd075868	-0.033043295
98	0xbd21474c	-0.039374635
99	0xbd3a4f78	-0.045485944
100	0x3e0cf0cc	0.13763732
101	0x3dec84e4	0.115487844
102	0xbd68d9bc	-0.056848273
103	0xbdee4360	-0.116339445
104	0x3e00f6e8	0.12594187
105	0x3e25b61e	0.16182753
106	0xbe06c19d	-0.13159795
107	0xbdd8ebbb	-0.10591837
108	0xbe04b7f6	-0.129608
109	0xbcf0e5b0	-0.029406399
110	0x3bcaa720	0.0061844736
111	0x3e2e55bc	0.17024893
112	0x3c815fc8	0.015792742
113	0xbe1b0f82	-0.15142635
114	0x3ddbc0a4	0.10730103
115	0xbe1cf102	-0.15326312
116	0x3da77ecc	0.081784815
117	0x3d8e5060	0.06948924
118	0xbda9440b	-0.08264931
119	0xbcbd91b0	-0.023140758
120	0xbd1e66d8	-0.0386723
121	0x3c663c20	0.014052421
122	0xbd8c0fdc	-0.068389624
123	0xbe2d1675	-0.16903098
124	0x3dabc9b8	0.08388084
125	0xbce1f470	-0.027582377
126	0xbd358bdc	-0.044322833
127	0x3db2d814	0.0873262
128	0x3decc9ec	0.11561951
129	0xbaa2be80	-0.0012416393
130	0x3cd96c70	0.026540965
131	0x3c7ffea0	0.015624672
132	0xbd55da7c	-0.052210316
133	0xbdb5a464	-0.08869246
134	0xbda3dda9	-0.08001263
135	0xbdb0ccc2	-0.086328045
136	0xbe1731a6	-0.14765033
137	0xbd139570	-0.036031187
138	0x3e1d9ff2	0.15393046
139	0xbda12212	-0.078678265
140	0xbd814638	-0.06312221
141	0xbd1b81c8	-0.037965566
142	0x3e191d0e	0.1495249
143	0xbd07c530	-0.033147037
144	0x3dad1e78	0.08453077
145	0x3d10ebb8	0.03538105
146	0xbbef3540	-0.007300049
147	0xbd90b5b2	-0.07065906
148	0x3dcfa57c	0.101389855
149	0x3e0f69c4	0.1400519
150	0x3de3ab78	0.111166894
151	0x3df69080	0.1203928
152	0xbe396385	-0.1810437
153	0xbc8877e0	-0.016658723
154	0x3e362a8a	0.17789665
155	0x3d5c6478	0.053806752
156	0x3d20c620	0.039251447
157	0x3befbd60	0.0073162764
158	0xbe0e8026	-0.13916072
159	0x3e0f9854	0.14022952
160	0xbd5ea87c	-0.054359898
161	0xbe32fb47	-0.17478667
162	0x3dfe40d8	0.12414712
163	0x3c8f80c0	0.017517447
164	0xbbf15c60	-0.0073657483
165	0xbd60f704	-0.054923072
166	0xbc8f9710	-0.017528087
167	0xbe171390	-0.14753556
168	0x3e2fbc5c	0.17161697
169	0x3c35ed00	0.0111038685
170	0x3cf809a8	0.030278042
171	0x3e13a6b4	0.14419061
172	0x3d7297a4	0.059226647
173	0x3d95b078	0.07309049
174	0xbe29487d	-0.16531558
175	0xbbe41340	-0.0069603026
176	0xbe26d678	-0.16292751
177	0xbdb8465a	-0.089977935
178	0x3d9fa024	0.07794216
179	0xbde53f09	-0.111936636
180	0x3dc1c664	0.09461668
181	0x3e15a4f0	0.146137
182	0xbd0acdd8	-0.033887714
183	0xbb5777c0	-0.0032877773
184	0xbe336f24	-0.17522866
185	0xbe1eab18	-0.15494955
186	0xbc6e75e0	-0.014554471
187	0xbdf68ba8	-0.12038356
188	0xbddecfc8	-0.10879475
189	0x3b5bac40	0.0033519417
190	0x3e154d8e	0.14580366
191	0xbc1e8250	-0.009674624
192	0x3b57e4c0	0.0032942742
193	0x3d68188c	0.056664035
194	0x3e0c26dc	0.13686699
195	0x3df3ae7c	0.11898515
196	0xbdd9051e	-0.10596679
197	0x3e31ff76	0.17382607
198	0x3e168822	0.14700368
199	0xbe253aac	-0.16135663
200	0xbdd1d315	-0.10245339
201	0xbd10e6bc	-0.035376295
202	0xbd943668	-0.0723694
203	0xbbd37a80	-0.006453812
204	0xbdb42c32	-0.08797492
205	0xbe17b7ce	-0.1481621
206	0x3cc3d4d0	0.023905188
207	0x3dc75e6c	0.097348064
208	0x3d664084	0.05621387
209	0x3e2c9b60	0.16856146
210	0x3b9481a0	0.004532054
211	0xbc808468	-0.015688136
212	0xbc0f7d90	-0.008757964
213	0x3a8b4000	0.0010623932
214	0xbe220628	-0.15822661
215	0xbe0adb1e	-0.13560149
216	0xbdbf8e98	-0.093533695
217	0xbe1da8c7	-0.15396415
218	0xbe0179f9	-0.12644185
219	0xbe29bb95	-0.16575463
220	0xbc432e90	-0.011912957
221	0x3d60bb34	0.05486603
222	0xbe144496	-0.14479288
223	0x3d8d4df8	0.06899637
224	0x3ddb8650	0.107189775
225	0x3d62c224	0.05536093
226	0x3df101e4	0.11767939
227	0x3e2eee2e	0.17083046
228	0x3dd5adb0	0.10433519
229	0xbdd9619d	-0.106143214
230	0x3d4f86b8	0.050665587
231	0xbe312aa7	-0.17301427
232	0x3d5f578c	0.05452685
233	0xbe140a84	-0.14457136
234	0x3d64f418	0.05589685
235	0xbd70543c	-0.058674082
236	0x3e386164	0.18005902
237	0x3dc27944	0.09495786
238	0x3cc899f8	0.02448748
239	0xbd29e60c	-0.041479155
240	0x3d76f418	0.06029138
241	0xbc6a69c0	-0.014307439
242	0x3e11fa9e	0.14255759
243	0xbd83e7df	-0.0644071
244	0x3d700148	0.058594972
245	0xbdb3f95f	-0.08787798
246	0x3de5a7cc	0.11213645
247	0xbd22dbc0	-0.03976035
248	0x3e2094b6	0.15681729
249	0xbdaa8bac	-0.083274215
250	0x3cbf2ae0	0.023335874
251	0xbcbeaf70	-0.023277014
252	0xbda0da46	-0.07854132
253	0xbdc3c3d3	-0.09558835
254	0xbd07ae60	-0.03312528
255	0xbd9c40a8	-0.0762952

encoder.4.bias f4 [10]
0	0xbcc55a78	-0.02409099
1	0xbd5b7f80	-0.05358839
2	0xbd1d52a8	-0.038408905
3	0x3c710810	0.014711395
4	0x3c154c90	0.009112492
5	0x3d2703e4	0.040775195
6	0xbbef1ea0	-0.007297352
7	0xbd872a97	-0.0659992
8	0x3d688078	0.056763142
9	0xbd87db8a	-0.06633671

encoder.6.weight f4 [1, 10]
0	0x3d28e7e0	0.04123676
1	0x3e818bc5	0.25301948
2	0xbe9acd43	-0.30234727
3	0x3c2bde80	0.01049006
4	0xbdba47aa	-0.090957
5	0xbe5feae0	-0.21866941
6	0x3e856f83	0.2606164
7	0xbcc69a20	-0.024243414
8	0x3e81b57d	0.25333777
9	0x3b254680	0.0025219023

decoder.0.weight f4 [10, 1]
0	0x3ea02de8	0.31285024
1	0xbd90dde0	-0.07073569
2	0xbe27e6c8	-0.1639663
3	0xbe83d068	-0.2574494
4	0x3f22276a	0.6334139
5	0x3ecdbbfc	0.40182483
6	0x3e8493d4	0.25894034
7	0x3f74583c	0.95447135
8	0x3f07a4dc	0.5298593
9	0xbef3fb90	-0.47652864

decoder.0.bias f4 [10]
0	0x3e19f9d8	0.15036714
1	0xbe724d18	-0.23662221
2	0xbf0acf66	-0.54222715
3	0x3f346b74	0.7047646
4	0x3f6d4868	0.9268861
5	0x3e4633a0	0.19355631
6	0xbd443000	-0.04789734
7	0x3cd6c380	0.026216269
8	0x3f0be630	0.54648113
9	0x3e765cf0	0.2405889

decoder.2.weight f4 [30, 10]
0	0xbe93400f	-0.2875981
1	0x3dac9018	0.08425921
2	0xbe2cd370	-0.16877532
3	0xbe4175c9	-0.18892588
4	0x3e7b6cd2	0.2455323
5	0x3e83d4d1	0.25748304
6	0x3e8c95c1	0.27458003
7	0xbe954f67	-0.29162142
8	0x3dbad380	0.09122372
9	0xbe463310	-0.19355416
10	0xbd356690	-0.044287264
11	0x3e550996	0.20804438
12	0xbe433271	-0.1906221
13	0x3de21ab0	0.110402465
14	0xbcd60b50	-0.026128441
15	0xbe30a3b3	-0.17249946
16	0xbe1c2fae	-0.15252563
17	0xbd920e7e	-0.071316704
18	0xbe9c9885	-0.30585113
19	0xbc67ae60	-0.014140695
20	0x3e36b66c	0.17843026
21	0x3d8de2b8	0.06928009
22	0xbe81abc6	-0.25326365
23	0xbd805f10	-0.06268132
24	0x3caf3bc0	0.021390796
25	0xbc8dc710	-0.017306834
26	0x3e84a907	0.25910208
27	0xbd8a770a	-0.06760986
28	0xbdfc1fe2	-0.12310769
29	0x3e9aefff	0.30261227
30	0xbe86cd58	-0.2632854
31	0x3d92e708	0.07172972
32	0x3e192748	0.14956391
33	0xbe0d99d2	-0.13828209
34	0xbdf15982	-0.117846504
35	0x3d0ea7f8	0.034828156
36	0xbe7e297e	-0.24820516
37	0xbe617cb0	-0.22020221
38	0x3c9e6cf0	0.019339055
39	0xbe6f8299	-0.23389663
40	0xbdd8647c	-0.10566041
41	0x3d392f00	0.04521084
42	0x3e5e1c7e	0.21690556
43	0x3e972a0f	0.29524276
44	0x3ddae0e4	0.10687426
45	0xbdafb26c	-0.08578953
46	0x3e860e3d	0.26182738
47	0xbd5b6d28	-0.053570896
48	0x3e52e9be	0.20596978
49	0x3e9b318d	0.30311242
50	0xbe21515f	-0.15753697
51	0xbe1da25e	-0.1539397
52	0x3e2febb8	0.17179763
53	0x3e8a8ad3	0.2705904
54	0xbe2313a8	-0.15925467
55	0xbdff6c6e	-0.12471853
56	0x3d5cd5b0	0.053914726
57	0xbc817ee0	-0.015807569
58	0xbd8b211c	-0.067934245
59	0xbe7b71b4	-0.24555093
60	0x3dccfbc8	0.10008961
61	0x3d4c6510	0.04990107
62	0xbe926b8f	-0.28597686
63	0xbe065d33	-0.1312149
64	0x3e5e9486	0.21736345
65	0x3db53994	0.08848873
66	0xbe20cfc7	-0.15704261
67	0xbe7db43e	-0.24775788
68	0xbe826059	-0.25464132
69	0x3e06febe	0.13183114
70	0xbe9c6301	-0.30544284
71	0xbc79c4c0	-0.015244663
72	0x3e80ec7b	0.2518042
73	0xbe091e69	-0.13390507
74	0x3dab2230	0.0835613
75	0x3e4a5842	0.1976023
76	0xbd993d66	-0.07482414
77	0xbd9aa234	-0.07550469
78	0x3d3af6d8	0.045645565
79	0xbe9b6ba7	-0.3035557
80	0xbde7d3d4	-0.113197
81	0xbc39e9c0	-0.011347234
82	0x3d948090	0.07251084
83	0x3e06650c	0.13124484
84	0xbe8d118b	-0.27552447
85	0xbe2c1a7c	-0.16806978
86	0xbe0dceb6	-0.13848385
87	0x3e7f5086	0.24933061
88	0xbe81c02b	-0.25341925
89	0x3d8cf83c	0.068832844
90	0x3c4b9300	0.012425184
91	0xbe0dbb5f	-0.13841008
92	0x3d817c58	0.06322545
93	0xbdf5ddae	-0.12005173
94	0xbd002e98	-0.031294435
95	0x3dd50234	0.10400811
96	0x3e31710a	0.17328277
97	0x3e4be862	0.19912866
98	0x3d998ea0	0.07497907
99	0x3ca371b0	0.019951671
100	0x3e57989a	0.21054307
101	0xbe46ee1a	-0.19426766
102	0xbe922833	-0.28546295
103	0xbe725d3e	-0.23668382
104	0xbc494580	-0.0122846365
105	0xbe803b83	-0.25045404
106	0x3e885561	0.2662764
107	0x3e69ca66	0.22831115
108	0xbd899406	-0.06717686
109	0xbe2bad23	-0.16765265
110	0xbe36f143	-0.17865472
111	0xbe20e741	-0.15713216
112	0xbd683940	-0.056695223
113	0xbe0dcc0b	-0.13847367
114	0xbda36fea	-0.0798033
115	0x3d9d0c54	0.07668367
116	0x3e57849a	0.21046677
117	0xbe50dc04	-0.2039643
118	0xbc697ec0	-0.014251411
119	0x3e32dcf4	0.174671
120	0x3e7067c2	0.2347708
121	0xbe4bf3d5	-0.19917233
122	0x3e81ec3b	0.25375542
123	0x3ddabdc4	0.10680726
124	0xbe0ed9d3	-0.13950281
125	0xbdf72adc	-0.12068722
126	0xbdf13d76	-0.11779301
127	0xbe7ecbae	-0.24882385
128	0xbbe48d00	-0.0069748163
129	0x3d8075d8	0.06272477
130	0x3e56bf06	0.20971307
131	0xbe55544e	-0.20832941
132	0x3e79b1a2	0.24384168
133	0xbe8d16d3	-0.27556476
134	0x3e1c3b40	0.15256977
135	0xbc705460	-0.014668554
136	0x3e156548	0.14589417
137	0x3da9e054	0.0829474
138	0x3dc9a22c	0.09845385
139	0x3c6a8e20	0.014316112
140	0xbde4afa0	-0.1116631
141	0xbda41946	-0.08012633
142	0x3e0f6010	0.14001489
143	0xbdc44f78	-0.0958547
144	0x3d807f18	0.06274241
145	0x3e1eae2c	0.15496129
146	0x3da90570	0.0825299
147	0x3ddca1e4	0.10773066
148	0x3cc49090	0.023994714
149	0x3dea1c80	0.11431217
150	0xbdc95d50	-0.09832251
151	0x3db471fc	0.08810803
152	0xbe5f7372	-0.21821383
153	0xbe43f2a3	-0.19135527
154	0xbe44787e	-0.19186589
155	0xbe88530f	-0.2662587
156	0x3e2704be	0.16310403
157	0xbe640c06	-0.22270212
158	0x3e8f9d3b	0.28049645
159	0x3ce96f50	0.02849546
160	0xba036a00	-0.00050130486
161	0x3d2e2090	0.042511523
162	0x3d5010e8	0.050797373
163	0xbe0dfe3e	-0.13866517
164	0x3e19ff64	0.1503883
165	0xbe003241	-0.1251917
166	0x3d80f670	0.06297004
167	0xbe719aec	-0.23594254
168	0x3e6bdaea	0.23032728
169	0xbe2b6998	-0.167395
170	0xbc663760	-0.014051288
171	0xbe325394	-0.17414695
172	0x3e1f20dc	0.15539879
173	0x3da4bd3c	0.08043906
174	0xbe9b10e3	-0.3028632
175	0x3e7dea2a	0.24796358
176	0x3e283820	0.1642766
177	0x3df9faac	0.12206015
178	0x3e3b2816	0.1827701
179	0xbdffafa6	-0.12484674
180	0xbdbf2bd2	-0.0933453
181	0xbdd005fc	-0.101573914
182	0x3e4148ba	0.18875399
183	0x3e425cda	0.18980733
184	0x3e7f223e	0.24915406
185	0x3dd57dd4	0.104243904
186	0xbe1660ba	-0.14685336
187	0x3e2ccd3a	0.16875163
188	0x3e7e17ce	0.24813768
189	0x3db97d1c	0.09057066
190	0x3e4e81ca	0.20166698
191	0xbea15162	-0.31507403
192	0xbe48b6c0	-0.19600964
193	0x3e9d36e1	0.30705932
194	0xbe27b280	-0.16376686
195	0xbdacc454	-0.08435884
196	0xbe257f86	-0.16161928
197	0x3cd4a710	0.025958568
198	0xbe6c00d1	-0.23047186
199	0x3d741ea0	0.05959952
200	0xbdb4182c	-0.08793673
201	0xbe97e90a	-0.29669982
202	0xbde895d0	-0.113566995
203	0xbd5a7bb0	-0.053340614
204	0xbdd8eeea	-0.10592444
205	0x3df66418	0.1203081
206	0xbd1d0900	-0.03833866
207	0x3e47cb6a	0.1951119
208	0xbdce8864	-0.10084608
209	0x3e8cce69	0.27501228
210	0x3e898975	0.26862684
211	0x3e53cbc6	0.20683202
212	0x3d632af8	0.0554609
213	0x3ccf3900	0.025295734
214	0xbe2292f7	-0.15876375
215	0xbe1c0e70	-0.15239882
216	0x3be9a180	0.007129848
217	0xbc9ea860	-0.019367397
218	0x3e22f78e	0.15914747
219	0xbe5b6904	-0.21426779
220	0xbe12b1bf	-0.14325617
221	0x3e298ac4	0.16556841
222	0xbe867c18	-0.2626655
223	0x3d1160b0	0.0354926
224	0x3e35aa02	0.17740634
225	0xbe5fd944	-0.21860224
226	0xbe89d3cb	-0.26919398
227	0xbc314440	-0.010819495
228	0xbe28c8a4	-0.16482788
229	0x3d498ed8	0.049208492
230	0xbe68678e	-0.22695753
231	0xbe68b418	-0.2272495
232	0xbc887bf0	-0.01666066
233	0x3e7c397a	0.246313
234	0x3e522cc6	0.20524892
235	0xbe504f5e	-0.20342776
236	0xbdbae668	-0.09125978
237	0x3e5dd88e	0.2166464
238	0x3e11ede8	0.1425091
239	0xbe4c4214	-0.19947082
240	0xbc5895c0	-0.013219297
241	0xbdb8b066	-0.0901802
242	0x3e9c6431	0.3054519
243	0xbdd63560	-0.10459399
244	0xbe7a2160	-0.24426794
245	0xbe21a204	-0.1578446
246	0xbe36596f	-0.17807554
247	0x3e04c70a	0.12966552
248	0xbe4cc574	-0.19997197
249	0x3e61a1ee	0.22034428
250	0xbdaef79c	-0.085433215
251	0xbe8ae1d5	-0.2712542
252	0xbe090410	-0.13380456
253	0x3e93cc77	0.28866932
254	0xbe9d698b	-0.30744585
255	0x3e49bb12	0.19700268

decoder.2.bias f4 [30]
0	0x3e1a05ba	0.15041247
1	0xbc1c7d20	-0.0095513165
2	0xbcead9f0	-0.028668374
3	0x3e2ac6a2	0.16677335
4	0xbd135ef8	-0.03597924
5	0x3dd45dcc	0.10369453
6	0x3de01604	0.10941699
7	0xbe1c2d5c	-0.15251678
8	0xbe895a38	-0.26826644
9	0x3e356c36	0.1771706
10	0x3e56b156	0.20966086
11	0xbe968ae1	-0.2940283
12	0xbdc49116	-0.095979854
13	0xbd1d0510	-0.038334906
14	0xbe2a5f96	-0.16638026
15	0xbcd2b030	-0.025718778
16	0x3e58f82a	0.21188417
17	0xbd64a9e0	-0.055826068
18	0x3de09938	0.10966724
19	0xbe57231c	-0.21009487
20	0xbcd2a3a0	-0.025712788
21	0x3df645a8	0.120250046
22	0xbe7075d6	-0.23482451
23	0xbe48e15d	-0.1961722
24	0x3de0fd38	0.10985798
25	0x3d33ee38	0.043928355
26	0x3e2c1eda	0.16808644
27	0x3e22f64c	0.15914267
28	0x3e978e1f	0.29600617
29	0xbe2c077b	-0.16799729

decoder.4.weight f4 [60, 30]
0	0xbdf8f233	-0.12155571
1	0xbdb65476	-0.089028284
2	0x3e205d8e	0.15660688
3	0xbdc02967	-0.09382897
4	0x3cc0a888	0.023517862
5	0x3e0baee8	0.1364094
6	0xbcf7d0a8	-0.030250862
7	0xbd9c5ece	-0.0763527
8	0x3e3523a0	0.17689371
9	0x3d9db7b4	0.07701054
10	0x3d60db68	0.054896742
11	0x3d5c9aa4	0.053858414
12	0xbdd13d3f	-0.1021676
13	0x3dafa254	0.085758835
14	0x3db705fc	0.08936688
15	0xbdd761b3	-0.105166815
16	0x3ca81cf8	0.020521626
17	0x3b395180	0.0028277338
18	0x3d904ff0	0.07046497
19	0xbc9b23c8	-0.01893796
20	0xbde64233	-0.11243095
21	0xbe1fa7b2	-0.15591314
22	0x3e174f0e	0.1477625
23	0x3dd8883c	0.1057286
24	0x3e2135d8	0.15743196
25	0xbe244125	-0.16040476
26	0x3c082250	0.008308962
27	0xbdd447b5	-0.103652395
28	0xbd9fc540	-0.07801294
29	0xbdc3a32b	-0.09552606
30	0x3d99f6ec	0.075178
31	0x3d145c34	0.036220744
32	0x3d6b5fc8	0.05746439
33	0xbe10eeb8	-0.14153564
34	0xbe304d75	-0.17217048
35	0x3d54a0a0	0.051910996
36	0xbd1cb99c	-0.03826295
37	0xbaa72f00	-0.0012755096
38	0xbc43bdf0	-0.01194714
39	0x3cd60070	0.026123255
40	0x3bb8f560	0.0056444854
41	0x3de03ccc	0.10949096
42	0xbdf48e3a	-0.1194119
43	0x3e0d4180	0.13794518
44	0x3dd6d898	0.10490531
45	0xbdaaf2ce	-0.083470926
46	0xbdb59fb9	-0.08868355
47	0xbd9c40eb	-0.076295696
48	0xbd2b8a90	-0.04188019
49	0x3cf6e338	0.030137643
50	0x3d574960	0.05256021
51	0x3c8bf5b8	0.017084941
52	0x3dfecf7c	0.12441918
53	0xbd6ae100	-0.057343483
54	0xbd568508	-0.052372962
55	0x3bdc0420	0.006714359
56	0x3e2e5056	0.17022833
57	0xbe034ed7	-0.12823044
58	0x3c963bc0	0.018339038
59	0x3e277c7a	0.16356078
60	0x3e0d3a20	0.13791704
61	0x3df9ebb0	0.12203157
62	0xbd12d8d8	-0.03585133
63	0xbd9ffb16	-0.07811563
64	0x3df43ec4	0.11926034
65	0x3e142b5c	0.14469665
66	0x3cc8db60	0.024518669
67	0xbdbc5b1c	-0.09197065
68	0x3d2a8a70	0.04163593
69	0xbbe92ac0	-0.007115692
70	0x3e149c48	0.14512742
71	0xbd1f228c	-0.038851306
72	0xbe12e2d8	-0.14344347
73	0x3dcfee40	0.101528645
74	0xbda7669c	-0.08173868
75	0xbdbb3149	-0.0914026
76	0x3d00b468	0.03142205
77	0x3d89cb5a	0.06728239
78	0xbe27c5ea	-0.16384092
79	0x3d5db688	0.054129153
80	0xbe051824	-0.1299749
81	0x3dbd0f60	0.09231448
82	0x3ca25770	0.019817084
83	0xbce8f558	-0.028437302
84	0x3b9edea0	0.0048483163
85	0xbe11df46	-0.14245328
86	0x3ca10ee0	0.019660413
87	0x3daee9ac	0.08540663
88	0xbdee8416	-0.11646287
89	0xbe10775a	-0.14108029
90	0x3d3fb2e4	0.046801463
91	0x3e17ec66	0.14836273
92	0xbd9bf88a	-0.076157644
93	0xbc83ddf8	-0.016097054
94	0xbdc814db	-0.09769603
95	0x3dfd000c	0.123535246
96	0xbe0fcee7	-0.1404377
97	0x3e1dcc6e	0.15410015
98	0x3d9fa884	0.07795814
99	0x3e2078e2	0.15671113
100	0xbdd70b9e	-0.10500263
101	0x3df4266c	0.11921391
102	0x3e1e17de	0.15438792
103	0xbd7d28e2	-0.061806567
104	0xbcb6d4e8	-0.022318318
105	0x3e236acc	0.15958709
106	0x3e059622	0.13045552
107	0xbe1381ce	-0.14404985
108	0x3d84c13c	0.06482169
109	0x3e266168	0.16248095
110	0xbc8b0280	-0.016968966
111	0xbdc47f40	-0.095945835
112	0x3adfad00	0.0017065108
113	0xbd28d750	-0.041220963
114	0x3d19d334	0.037554935
115	0xbdeda030	-0.11602819
116	0x3d834bd4	0.064109474
117	0x3d3c7bb0	0.046016395
118	0xbd463f44	-0.04840018
119	0x3ccd6138	0.025070772
120	0xbe06f64c	-0.13179892
121	0xbd79ecb4	-0.061016753
122	0xbd13583c	-0.03597282
123	0x3e32bdfa	0.17455283
124	0xbda9f9f7	-0.0829963
125	0x3d3de91c	0.04636489
126	0xbd0dcffc	-0.034622177
127	0xbcaeda88	-0.021344438
128	0x3e29259c	0.16518253
129	0xbe0c7bae	-0.13719055
130	0xbc13c370	-0.009018764
131	0xbde2bf1f	-0.1107161
132	0xbe0ca05c	-0.13733047
133	0x3e1a0b18	0.15043294
134	0x3c024c30	0.007952735
135	0xbdc0d14e	-0.09414922
136	0xbe0ff264	-0.14057308
137	0x3cbc1670	0.022959918
138	0x3e00c974	0.12576848
139	0x3db70238	0.0893597
140	0x3e265bea	0.16246
141	0x3dd221e4	0.102603704
142	0xbd06f21c	-0.032945737
143	0x3cdeb1f8	0.027184471
144	0x3e1399c6	0.14414129
145	0x3cfe4ea0	0.03104335
146	0xbe17d5da	-0.14827672
147	0xbd9baa78	-0.07600874
148	0xbc437100	-0.011928797
149	0x3e3a8c9c	0.182177
150	0xbdb6c801	-0.089248665
151	0x3e12096c	0.14261407
152	0x3e060f9e	0.13091895
153	0xbddb7e9b	-0.107175075
154	0x3e02e76a	0.1278359
155	0xbd6e8226	-0.058229588
156	0xbca19318	-0.01972346
157	0x3e22dc2a	0.15904298
158	0x3e11dc08	0.14244092
159	0xbdf60b92	-0.120139256
160	0xbe0dd61c	-0.13851207
161	0xbc0d5a60	-0.008627504
162	0x3d2006f4	0.03906913
163	0xbe1162c3	-0.14197831
164	0x3e029ec0	0.12755871
165	0x3ded6334	0.11591187
166	0x3cafa2e8	0.021439984
167	0xbdca3b66	-0.098746106
168	0x3dc9ec70	0.0985955
169	0xbaf94f00	-0.0019020736
170	0xbd46f684	-0.04857494
171	0x3ddf81a0	0.10913396
172	0x3c4d46a0	0.012529045
173	0x3c95f2e8	0.018304303
174	0xbd081804	-0.033226028
175	0x3d0c87b0	0.03430909
176	0x3da10be4	0.07863596
177	0x3db5a8a4	0.08870056
178	0x3e307ca0	0.1723504
179	0xbdb98286	-0.090580985
180	0xbdf51523	-0.11966922
181	0x3e12573c	0.1429109
182	0xbd935e57	-0.07195728
183	0xbe091956	-0.13388571
184	0xbddb6c73	-0.107140444
185	0x3d5667e0	0.052345157
186	0xbd5cefe4	-0.053939715
187	0xbce87690	-0.028376848
188	0x3d118274	0.0355248
189	0x3e237d10	0.15965676
190	0x3dc35e90	0.09539521
191	0xbdcc6f41	-0.099821575
192	0x3d33d288	0.04390195
193	0x3c224d10	0.009906068
194	0x3e214128	0.15747511
195	0xbbbf6160	-0.0058404654
196	0x3dc4cc78	0.09609312
197	0x3db2157c	0.08695504
198	0x3d3a3508	0.04546073
199	0xbe10c494	-0.14137489
200	0x3c628050	0.013824537
201	0xbde2bc45	-0.11071066
202	0x3e0343f8	0.12818897
203	0x3d3c553c	0.045979723
204	0x3db234a0	0.08701444
205	0x3e192688	0.14956105
206	0xbdd312a5	-0.103062905
207	0x3e0d4016	0.13793978
208	0x3e22b534	0.15889436
209	0xbdf51df3	-0.11968603
210	0x3df75278	0.120762765
211	0x3dc84178	0.09778112
212	0x3d1940b0	0.037415206
213	0xbd9bda39	-0.07609982
214	0x3e390cfa	0.18071356
215	0x3d694ac8	0.056956083
216	0x3dcc4d7c	0.099757165
217	0xbd718304	-0.058962837
218	0xbd6aee3c	-0.057356104
219	0xbe1f85d7	-0.155784
220	0xbd10e0a4	-0.035370484
221	0xbd962ba1	-0.0733254
222	0xbc9f7030	-0.019462675
223	0x3d1575f4	0.036489442
224	0xbdee7c1c	-0.11644766
225	0xbd32c188	-0.043641597
226	0xbcbf5db0	-0.023360103
227	0x3e165ab4	0.14683038
228	0x3b933660	0.004492566
229	0x3dfb9644	0.1228452
230	0xbe0b6add	-0.13614984
231	0xbe1d24a1	-0.15346004
232	0x3e19ccc4	0.15019518
233	0xbe32cd7e	-0.17461202
234	0xbd9e7899	-0.07737846
235	0xbbaa57e0	-0.005198464
236	0x3e143dce	0.14476702
237	0xbd3a10a0	-0.04542601
238	0xbe20b736	-0.1569489
239	0x3dd7a790	0.10530007
240	0xbd4363fc	-0.047702774
241	0xbbbf44c0	-0.005837053
242	0xbde9a48c	-0.11408338
243	0x3cfea2e0	0.031083524
244	0x3d20ce20	0.039259076
245	0x3df74130	0.120729804
246	0xbdf0c4eb	-0.11756309
247	0xbdc618e7	-0.096727185
248	0x3e099f76	0.13439736
249	0xbe33c7af	-0.17556642
250	0x3da32218	0.07965487
251	0xbe0ca6d2	-0.13735512
252	0xbc837220	-0.01604563
253	0x3e07fc4a	0.13279834
254	0x3d71e740	0.059058428
255	0x3d4d9c74	0.050198033

decoder.4.bias f4 [60]
0	0xbce39e78	-0.027785525
1	0x3dabfa0c	0.08397302
2	0x3d6c208c	0.057648227
3	0xbe199dc0	-0.15001583
4	0x3e14f27e	0.14545628
5	0x3c2a9b80	0.010413051
6	0x3cbbd778	0.022929892
7	0x3d99036c	0.07471356
8	0x3d010878	0.031502217
9	0xbe17260c	-0.14760607
10	0xbd933cba	-0.07189317
11	0x3d6cf71c	0.05785285
12	0xbe0fa828	-0.1402899
13	0xbd82d69a	-0.06388588
14	0xbd53a888	-0.051674396
15	0x3d5285cc	0.05139713
16	0x3e07688c	0.13223475
17	0x3b3cf380	0.002883166
18	0xbd1fa8e8	-0.03897944
19	0xbda0ba12	-0.0784799
20	0x3e17203a	0.14758387
21	0x3dc3a364	0.09552649
22	0xbda5aed9	-0.0808999
23	0xbd3424b0	-0.0439803
24	0xbdcdd81a	-0.10050984
25	0xbdcecaf0	-0.10097301
26	0xbbc710a0	-0.00607498
27	0x3c2b3e30	0.010451838
28	0x3d24d440	0.04024148
29	0x3e101c82	0.14073375
30	0xbc84a9d0	-0.016194254
31	0xbd428aa0	-0.047495484
32	0xbc5cb850	-0.013471678
33	0xbe3a1b05	-0.1817437
34	0xbd277918	-0.04088697
35	0xbd321498	-0.04347667
36	0x3dfa0c30	0.12209356
37	0x3d3ec9d4	0.046579197
38	0xbdc22f4f	-0.0948168
39	0xbe3ac6b3	-0.1823986
40	0x3d3e52cc	0.04646568
41	0x3ba56780	0.0050477386
42	0x3dc3705c	0.09542915
43	0xbe388d87	-0.18022738
44	0xbdd09f69	-0.10186655
45	0xbd68c9a0	-0.05683291
46	0xbd51f78c	-0.05126147
47	0xbe1ebec5	-0.1550246
48	0x3d6b3020	0.057418942
49	0x3e2068f4	0.15665036
50	0xbd48f85c	-0.04906498
51	0x3d883dd2	0.06652416
52	0xbdd4d793	-0.1039268
53	0xbbb10840	-0.005402595
54	0xbe360735	-0.17776187
55	0x3de30d44	0.110865146
56	0x3e0696f0	0.13143516
57	0xbd18d774	-0.037314847
58	0x3df68914	0.12037864
59	0xbe28550f	-0.16438697

decoder.6.weight f4 [118, 60]
0	0xbd8d608e	-0.06903182
1	0x3dee72aa	0.11642964
2	0xbda3c3d4	-0.079963356
3	0x3dafeb68	0.08589822
4	0x3e0364c1	0.12831403
5	0x3db86d2e	0.090051994
6	0x3defa0fc	0.11700627
7	0xbd7d7492	-0.06187875
8	0x3daed930	0.08537519
9	0xbb969a00	-0.004595995
10	0x3df702c0	0.120610714
11	0x3df76ede	0.12081693
12	0x3da97380	0.08273983
13	0x3ce7be60	0.02828902
14	0xbc1cc798	-0.009569071
15	0x3d634b7c	0.05549191
16	0xbcda999c	-0.026684575
17	0x3dff7992	0.124743596
18	0x3ddaae8e	0.10677825
19	0x3d002aa4	0.031290665
20	0xbc91a22c	-0.017777525
21	0x3d165ee0	0.036711574
22	0xbda7a2e4	-0.08185366
23	0x3db051e4	0.086093694
24	0x3da7d9ec	0.08195862
25	0xbdd31f82	-0.10308744
26	0x3cb1f238	0.021721944
27	0x3c94ebd0	0.01817885
28	0x3de65e9a	0.112485126
29	0xbd68e3a8	-0.056857735
30	0xbdd05608	-0.10172659
31	0xbdfff4ee	-0.124978885
32	0xbc943c14	-0.018095054
33	0xbe03b03c	-0.12860197
34	0xbd3357b4	-0.043784812
35	0x3d9d83de	0.07691167
36	0x3dec6d56	0.11544292
37	0xbd614618	-0.054998487
38	0xb9ce9400	-0.0003940165
39	0x3cd17440	0.025568128
40	0xbdcb1ed8	-0.09917992
41	0x3dc481ce	0.09595071
42	0x3c401bf0	0.011725411
43	0xbcd795c8	-0.026316538
44	0xbd36874a	-0.044562615
45	0xbcdd23e8	-0.02699466
46	0x3cb71840	0.02235043
47	0x3d49ff50	0.04931575
48	0x3c677810	0.014127746
49	0xbb561580	-0.0032666624
50	0xbd4d44a4	-0.05011429
51	0xbdb4f8aa	-0.088364914
52	0xbd66bf88	-0.056335002
53	0xbda86ed0	-0.08224261
54	0x3d515110	0.051102698
55	0xbc213728	-0.00983981
56	0xbd69748e	-0.05699592
57	0xbe027156	-0.12738547
58	0x3d1c5334	0.038165286
59	0xbbac1350	-0.0052513257
60	0xbdb0bee9	-0.08630163
61	0xb8901800	-6.8709254e-05
62	0x3d43dd28	0.047818333
63	0x3ca8ee00	0.0206213
64	0xbdfd8fd6	-0.1238095
65	0xbd2512a0	-0.040300965
66	0xbd82ee5b	-0.06393119
67	0xbce07954	-0.027401604
68	0x3df1f644	0.118145496
69	0x3d609848	0.054832727
70	0xbd031a80	-0.032007694
71	0x3d513aec	0.051081583
72	0xbd292b12	-0.04130084
73	0xbd812172	-0.06305207
74	0x3d47b424	0.04875578
75	0xbd8bc2f8	-0.06824297
76	0x3db53eca	0.08849867
77	0x3d6c3b68	0.05767384
78	0xbdb7e36f	-0.089789264
79	0x3d187010	0.037216246
80	0xbd1d8fe0	-0.038467288
81	0x3dbce63c	0.09223601
82	0xbdbe4d24	-0.09292057
83	0x3bc204e0	0.0059209913
84	0x3d5feffc	0.054672226
85	0x3c37c2a0	0.011215836
86	0x3d35edf4	0.044416383
87	0xbc5efa48	-0.013609476
88	0x3de6832e	0.11255489
89	0xbdd5b572	-0.104349986
90	0xbd7659da	-0.060144283
91	0x3be3c1a0	0.006950572
92	0x3db5fafc	0.08885762
93	0x3d903d4a	0.0704294
94	0x3d283060	0.04106176
95	0x3dca78e4	0.09886339
96	0x3dda83c0	0.106696606
97	0x3de82512	0.113351956
98	0xbce5e550	-0.028063446
99	0xbdeb14ea	-0.114785984
100	0xbd9eb7a3	-0.0774987
101	0x3dec1018	0.11526507
102	0xbd182172	-0.03714127
103	0x3d957ec6	0.07299571
104	0xbde1a468	-0.11017686
105	0xbd4e121a	-0.05031023
106	0xbc3c2350	-0.0114830285
107	0x3d831b4a	0.06401689
108	0x3db90ff4	0.09036246
109	0xbcc3d7c4	-0.023906596
110	0xbd85d039	-0.06533856
111	0xbd88b679	-0.06675429
112	0x3ca1f208	0.01976873
113	0xbdd4b874	-0.10386744
114	0xba6c9d00	-0.00090260804
115	0xbcc63070	-0.024193019
116	0x3de66aee	0.11250864
117	0xbde34a29	-0.11098129
118	0x3d511710	0.051047385
119	0xbc8b62fc	-0.017014973
120	0x3d994e5c	0.07485649
121	0xbd1f8282	-0.03894282
122	0x3dbcf4a2	0.092263475
123	0x3d8b1ac4	0.067922145
124	0xbd6b145e	-0.05739247
125	0xbd9b912a	-0.07596047
126	0x3d724b54	0.05915387
127	0x3cc13308	0.023583904
128	0x3dde04ae	0.10840736
129	0xbd1ec972	-0.038766332
130	0xbdfddf99	-0.123961635
131	0xbd63ccf6	-0.055615388
132	0xbc922424	-0.017839499
133	0xbd36866e	-0.044561796
134	0xbdc986e0	-0.098401785
135	0x3d9bad52	0.076014176
136	0x3dbd27a2	0.09236075
137	0xbc8c96b4	-0.017161705
138	0x3e029377	0.12751566
139	0xbcc99478	-0.024606928
140	0xbd11372c	-0.035453007
141	0xbdfb7419	-0.12278003
142	0x3bf7c9c0	0.0075618923
143	0x3e03d935	0.12875827
144	0x3c9fbe90	0.019500047
145	0x3d3be3ac	0.04587142
146	0x3d0d2810	0.034462035
147	0x3d06758c	0.032826945
148	0xbd8f4034	-0.06994668
149	0xbdb4963e	-0.08817719
150	0xbdc8deb4	-0.09808102
151	0xba0a4f00	-0.0005276054
152	0xbd67dab6	-0.056605063
153	0xbcf313d8	-0.029672548
154	0xbca8a178	-0.020584807
155	0xbdc18d2c	-0.094507545
156	0xbd2af442	-0.04173685
157	0xbdc0a3a2	-0.094062105
158	0xbd834c78	-0.0641107
159	0xbddda560	-0.108225584
160	0x3d0a3c74	0.03374906
161	0x3df41448	0.11917931
162	0xbc195808	-0.009359367
163	0xbd2d1372	-0.042254873
164	0x3c7589f0	0.0149865
165	0x3c090ab0	0.0083643645
166	0x3d385094	0.04499872
167	0x3d66a76c	0.05631201
168	0xbde8686a	-0.113480404
169	0xbcc7c784	-0.024387129
170	0x3de8eb68	0.11373025
171	0xbd072d24	-0.033002034
172	0xbd82a125	-0.06378392
173	0x3d35a1e0	0.04434383
174	0xbd96beba	-0.07360597
175	0x3d987400	0.07444
176	0x3df1e19e	0.11810611
177	0xbd970744	-0.07374433
178	0x3c29eeb0	0.010371849
179	0xbc4714d8	-0.012150966
180	0xbdc2b17c	-0.09506509
181	0xbde40a04	-0.11134723
182	0x3dd2efe0	0.10299659
183	0x3ca38588	0.019961134
184	0xbc1fdb38	-0.009756856
185	0x3d28e290	0.04123169
186	0xbc920f00	-0.017829418
187	0x3da4534e	0.080237016
188	0xbbe30770	-0.006928377
189	0xbdd2a717	-0.10285776
190	0xbdf032f0	-0.117284656
191	0xbdcce0b3	-0.100037955
192	0xbd203cbc	-0.03912042
193	0xbdaa7ac5	-0.08324198
194	0x3d4a7cc4	0.049435392
195	0x3b7b9100	0.0038385987
196	0xbcb4b380	-0.022058249
197	0x3d19d828	0.03755966
198	0xbdaef505	-0.085428275
199	0xbd1c3522	-0.03813661
200	0x3d9de96a	0.07710536
201	0xbd692162	-0.056916602
202	0xbd41efd6	-0.047347866
203	0x3d615820	0.055015683
204	0xbafa8b00	-0.0019114912
205	0x3dc168b2	0.09443797
206	0x3b8d2760	0.0043076724
207	0xba038400	-0.0005016923
208	0x3dca0f60	0.09866214
209	0xbd3ec206	-0.046571754
210	0xbbd681e0	-0.006546244
211	0xbdce1e13	-0.1006433
212	0xbd332734	-0.04373856
213	0x3dfce0be	0.12347554
214	0x3d408a90	0.047007143
215	0xbdd26725	-0.102735795
216	0xbdf028a8	-0.117265046
217	0xbcf5241c	-0.029924445
218	0xbdb222c0	-0.08698034
219	0x3d582684	0.052771106
220	0xbd3fc1e2	-0.04681576
221	0xbd3928c4	-0.045204893
222	0x3d996abc	0.07491061
223	0xbd08ecc2	-0.033428915
224	0xbda8f7ae	-0.08250366
225	0xbdcfd549	-0.10148103
226	0xbd905472	-0.07047357
227	0x3d9b29c6	0.07576327
228	0xbcf92f24	-0.030417986
229	0x3dbe2b14	0.0928556
230	0x3d65ff90	0.056151927
231	0xbe009ad4	-0.12559062
232	0xbc91c454	-0.017793812
233	0x3d5dc094	0.054138735
234	0x3daabfbe	0.08337353
235	0xbd8c8d96	-0.06862943
236	0xbd896ea4	-0.06710556
237	0x3de54d52	0.11196388
238	0x3de3635a	0.11102934
239	0xbda09aca	-0.07842024
240	0x3c8d0f68	0.01721926
241	0x3dea64e4	0.114450246
242	0xbdb2b2dd	-0.08725522
243	0xbdacc0fa	-0.08435245
244	0x3d47b9b0	0.04876107
245	0xbd42d2f8	-0.047564477
246	0x3d9dcb70	0.07704818
247	0xbdda8371	-0.10669602
248	0x3d91b83e	0.071152195
249	0xbd6412fc	-0.055682167
250	0x3d2b4528	0.041814
251	0x3dbc25fc	0.091869324
252	0xbca3ccf4	-0.01999519
253	0x3dee511a	0.11636563
254	0x3dae5360	0.08511996
255	0x3d571be4	0.052516833
